saved_models/FADA-few-shot-retraining/gtsrb/classifier_gtsrb_3.pt (torch_old, 11724 bytes, 2 tensors)

fc.weight f4 [43, 64]
00000000: c525 333d 413a 4dbc a4e3 cabb a909 bb3c
00000010: f88a b6be e2d9 863d 929d 0bbe 0d9c 213e
00000020: 059a 643d e413 91bc cbb2 b43d c7d1 6bbe
00000030: 0eaa 863d 83c1 33be 3e09 e2bd a199 0d3e
00000040: 58c6 4cbe dd16 da3c 50de 833e 05e9 e33c
00000050: 1457 1f3e e852 41be 194a 27be d0a2 31be
00000060: 7fd1 58be 443f 233e 0732 423d 479a 0c3e
00000070: 68d2 093d d390 0f3e da09 4cbe f309 4b3e
00000080: c17f d93d a1e5 57bd b496 64be d5b0 51be
00000090: db8e 853e 0bfb 3bbe ee9a b83d d3dd f7bd
000000a0: d097 2e3e c78b eebd a256 443e f463 ddbc
000000b0: 49dc 3bbd 42fd 363e c170 9dbb aad3 ac3d
000000c0: 7c91 123d d1c9 e1bd 3a76 4abe d47e 92be
000000d0: 77de ec3b d86e a43d 73e1 233e ebe5 a83d
000000e0: ecba 0dbe 068c dfbd 6c07 ea3d ee28 43bd
000000f0: 7f78 6fbd 404a 953c a674 273d 789c 783e
00000100: a03d 59bd debb 913d 4fff 73bd c0b1 bf3c
00000110: 1b42 03be afec 66bd 3522 963e a0da a53c
00000120: c934 d73d e672 6b3d 5920 193e 0713 00bd
00000130: 8a4f fa3d edd3 883c 2708 58be 4a42 ce3d
00000140: 2a18 0dbe a76b babd 8a97 0b3d 485b 083d
00000150: 5501 a53d ae89 8fbd 9f86 50be 5913 073e
00000160: e2c5 0abe 264c d93d 9386 aebd 6459 e0bd
00000170: 0a46 d2bc fdfa f03d 9be1 09be ed18 f8bd
00000180: f5b3 ae3d 134f ca3d 20b6 39be 4e1a 97bd
00000190: 8491 2f3e 053f 03bc e0be 2e3e 5def 613d
000001a0: bf81 3bbe 7be8 58be e80c 493e 77b3 aa3a
000001b0: a742 fa3d 887a bb3d 21df 323e f74c 2c3e
000001c0: 0304 163e 809e 14be 9b18 19bd 4210 4e3e
000001d0: 929c bf3d 24ec a73d 271a ddbd b01a debd
000001e0: f4bd 3cbe 2246 d03d dbb1 023e 87e7 f1bd
000001f0: 301c af3d 42a7 e1bd 06d9 ccbd 8d1e 4e3d
00000200: 96a2 813d 8255 1f3e 8a30 b7bd 88d6 753d
00000210: 9819 0a3e 4ae2 c53d 9fa0 6b3e d192 163e
00000220: 9d9f 223e 3b41 993d c4c1 6bbe 828a 93bd
00000230: 8941 20bd bfa1 d8bd e5f0 2fbe 5525 b9bc
00000240: dd71 393e 8a61 82bd 70e2 f13d 9a4d a43d
00000250: 740e bd3d 245b 033e 56a3 fdbd 462b 603e
00000260: bbbb 08bd 374d bcbd c70f 82be ee63 4abe
00000270: 2824 0dbe ba45 fa3c 7592 083e c47c 20bc
00000280: 88fd 1dbe 6fa6 e83d b78e cabc 2152 bb3d
00000290: a00f aa3d 87b6 de3b 83b3 6dbe acac 51be
000002a0: bbc6 6dbd ce44 2abe d3a3 19bd 5f3b 14bd
000002b0: 3221 8a3d df7f c43c 7f79 423e 8b32 703e
000002c0: 5c88 5a3d 0a4f efbd 51f2 37be 1469 523e
000002d0: 01fb b6bd 71dc 8ebd 0f0f 61be 22e2 e8bd
000002e0: 6a8d 6bbe 62d4 7b3e 2c0a 08be f6bd 30be
000002f0: 57f2 a03d 14f8 2cbe fc5e ebbc 26c6 74bd
00000300: c4f9 edbd e0aa e2bc 128b 863e db56 c8bd
00000310: 595d 183d d428 133e f78a 923e 6b96 c3bd
00000320: e7b6 e43d d019 8dbe 8d3d f03c 6909 2c3d
00000330: da9a a93d 3948 4b3d 0e2d aebd d3af 5c3d
00000340: ab92 ef3d 30e7 103e 2407 433e 2f72 be3d
00000350: 7f0a 2fbe 109d 123e cc57 e03d 4ef7 843e
00000360: 2d9e ad3d 7aa4 c7be 1303 b5be a74b 963d
00000370: 9f1c c7bd a580 043e e35b 873b d966 0dbe
00000380: 2073 65bc 13bd 46be dcd4 e33c b2e4 523e
00000390: 8552 c73d d112 883e f403 99bd 857f 12be
000003a0: 2bf0 903e 9ea2 75bd f04c 00be 219c 9abd
000003b0: 1960 06be 6471 173e b006 983d 4d4f 4bbe
000003c0: a725 17be d37b 92bd 5cbb 543e d549 0cbc
000003d0: e2cf b2bd e7ff e4bb 5595 debd 3a1e 13be
000003e0: 119a 2cbe bbc9 923e 6d54 e23d 5f16 8ebc
000003f0: f8eb c23d 12d4 87bd 9eab d9bc 7b0b 1bbe
0.04373719 -0.012526096 -0.0061916877 0.022831755 -0.356529 0.065845266 -0.13634327 0.15782185
0.055810947 -0.01770968 0.088231646 -0.23029242 0.06575404 -0.17554288 -0.11036919 0.13828136
-0.19997537 0.02662223 0.25755548 0.027821073 0.15560561 -0.18879282 -0.1633686 -0.17347264
-0.21173666 0.15942103 0.04741099 0.13730727 0.033647925 0.1402009 -0.19925633 0.19828014
0.1062007 -0.052709226 -0.22323114 -0.20477612 0.26085553 -0.18357484 0.090139255 -0.121028565
0.170501 -0.11647754 0.19173673 -0.0270252 -0.045864377 0.17870048 -0.004804701 0.08438809
0.035783276 -0.110248215 -0.19771662 -0.28612387 0.0072286683 0.08028954 0.16003971 0.08246978
-0.13840836 -0.10915379 0.11427197 -0.047646455 -0.058464523 0.018223882 0.04088273 0.24278438
-0.053037286 0.07115911 -0.059569653 0.023400187 -0.12818186 -0.056378063 0.29322973 0.02024585
0.10508115 0.057482623 0.14953746 -0.031268146 0.12222202 0.016702617 -0.2109686 0.100712374
-0.13778749 -0.09102564 0.034080066 0.033290178 0.08056895 -0.07008682 -0.20363854 0.13190974
-0.13552049 0.10610227 -0.08521762 -0.1095455 -0.025668163 0.11766622 -0.13464968 -0.12114129
0.08530418 0.098783635 -0.18135881 -0.07378064 0.17145354 -0.0080106305 0.17065 0.055159915
-0.18311213 -0.21182434 0.1963383 0.0013023455 0.12219744 0.0915423 0.1746793 0.16826235
0.14649968 -0.14513588 -0.03737698 0.2012339 0.09356035 0.08199337 -0.10796004 -0.10844934
-0.18431836 0.10169627 0.12763159 -0.118117385 0.08550298 -0.1101823 -0.100023314 0.050322104
0.06329839 0.15559962 -0.08944805 0.060019046 0.13486326 0.09662302 0.23010491 0.14704444
0.158812 0.07483145 -0.23023134 -0.07204153 -0.039125 -0.105777256 -0.17181738 -0.02260081
0.18109842 -0.0636626 0.11810768 0.08022614 0.09231272 0.12827736 -0.123846695 0.21891508
-0.03338216 -0.09194415 -0.25402662 -0.19764683 -0.13783324 0.030550826 0.13337119 -0.009795371
-0.15428746 0.1135987 -0.024726255 0.09146524 0.083037615 0.0067966613 -0.2321301 -0.20476025
-0.058050852 -0.1662781 -0.03750975 -0.036189433 0.06744613 0.023986755 0.1899166 0.2345678
0.0533527 -0.116849974 -0.1796353 0.20547897 -0.08934594 -0.069756396 -0.219784 -0.113712564
-0.23003164 0.24592736 -0.1328513 -0.17259964 0.07858723 -0.1689151 -0.028731816 -0.05975928
-0.11619905 -0.02766937 0.26277977 -0.09782191 0.0371984 0.14371043 0.28621647 -0.09550174
0.11167698 -0.27558756 0.029326225 0.04200116 0.08281489 0.049629424 -0.08504687 0.053878617
0.116978966 0.14150691 0.19045693 0.092991225 -0.17093848 0.14317727 0.10954246 0.25969929
0.08477435 -0.38992673 -0.35353908 0.07338648 -0.09722256 0.12939699 0.004130827 -0.13808765
-0.014004499 -0.19408064 0.02781146 0.20595053 0.09732536 0.26576856 -0.07471457 -0.14306457
0.28308234 -0.059969537 -0.1252935 -0.075493105 -0.13122596 0.14789349 0.074231505 -0.1985447
-0.14760457 -0.07152524 0.20774597 -0.008562525 -0.08731057 -0.0069885137 -0.108683266 -0.14367
-0.16855647 0.28669533 0.11051259 -0.017344652 0.09517664 -0.06632246 -0.026571091 -0.15141098

fc.bias f4 [43]
00000000: 6efb cdbe 2f67 3ebd d1f5 d33d 0024 913d
00000010: 0a17 cc3c 67df 9c3d 2198 043a 5045 82bc
00000020: 7c95 4d3e a808 50bd ec0d 2dbe 3283 b5bd
00000030: e6d7 1b3e ff04 f8bd 23d4 5ebe 4bb7 6abd
00000040: 8024 acbe fa02 20be 078a b03e 4d88 c43b
00000050: db67 44bc 14a7 bbbd 8666 b0be 50d0 243c
00000060: 4654 e7bc c1ec 8b3d 945a 2cbe 5aa8 5bbe
00000070: 30b1 83bb c063 dabd d163 95bd a541 193e
00000080: 5186 313e a70c 03bd c8e7 99be ad68 d7bd
00000090: 71fa 99bd b747 22be 4075 463e 8522 1fbe
000000a0: e091 15be 8e9d 20be 872f e1be
-0.40230888 -0.046485122 0.1034962 0.070869446 0.02491333 0.07659798 0.00050580694 -0.015902191
0.20076555 -0.050789505 -0.16899842 -0.08862914 0.15219077 -0.12110328 -0.21760611 -0.057303708
-0.33621597 -0.15626135 0.34480307 0.0059976936 -0.011987652 -0.09162727 -0.3445322 0.010059431
-0.028238427 0.068322666 -0.16831428 -0.2145094 -0.004018925 -0.10663557 -0.07294429 0.14966448
0.17336394 -0.031994488 -0.30059648 -0.10518012 -0.07518471 -0.1584767 0.19380665 -0.15540512
-0.14606428 -0.15685102 -0.43981573
