saved_models/FADA-few-shot-retraining/gtsrb/classifier_gtsrb_15.pt (torch_old, 11724 bytes, 2 tensors)

fc.weight f4 [43, 64]
0	0x3c36bb98	0.011153124
1	0x3b5d1c76	0.0033738888
2	0x3c57e64f	0.013177468
3	0x3c6606a6	0.014039671
4	0xbeb5a819	-0.3547981
5	0x3ce2385f	0.02761477
6	0xbe002231	-0.12513043
7	0x3e35450e	0.17702124
8	0x3d8000bc	0.0625014
9	0xbd019e53	-0.03164513
10	0x3dcc44b6	0.09974043
11	0xbe35c522	-0.17750981
12	0x3d9efbe3	0.07762887
13	0xbe307775	-0.17233069
14	0xbdb39565	-0.08768729
15	0x3e140e83	0.14458661
16	0xbe50196d	-0.20322199
17	0x3cea6a85	0.028615246
18	0x3e7ee04c	0.2489025
19	0x3d824367	0.06360512
20	0x3df653b9	0.120276876
21	0xbe3ed47e	-0.18635747
22	0xbe01b992	-0.12668446
23	0xbe0f286e	-0.13980266
24	0xbe4aca55	-0.19803746
25	0x3e1ed29b	0.15510027
26	0x3d69747a	0.056995846
27	0x3e0b02fd	0.13575359
28	0x3cd2a428	0.025713041
29	0x3e07c967	0.13260423
30	0xbe383cee	-0.17991993
31	0x3e479058	0.19488657
32	0x3d9052a3	0.07047012
33	0xbd6024a6	-0.05472245
34	0xbe5c642e	-0.2152259
35	0xbe5158f9	-0.20444097
36	0x3e8aa55b	0.2707928
37	0xbe2aeae7	-0.1669117
38	0x3dcfd25a	0.10147543
39	0xbdd662fa	-0.10468097
40	0x3e448407	0.1919099
41	0xbddf799c	-0.10911867
42	0x3e36cfec	0.17852753
43	0xbce535dc	-0.027979784
44	0xbd933f5d	-0.0718982
45	0x3e2b7bfa	0.16746512
46	0xbccaadd5	-0.024741093
47	0x3d7471ac	0.05967872
48	0x3d254033	0.04034443
49	0xbe020ccb	-0.12700193
50	0xbe3e4ae3	-0.18583255
51	0xbe9d48ca	-0.30719596
52	0x3a628733	0.0008641362
53	0x3daec896	0.085343525
54	0x3e493849	0.19650377
55	0x3d7698cb	0.06020431
56	0xbdb5627a	-0.088566735
57	0xbe02db6a	-0.12779012
58	0x3e0d1e99	0.13781203
59	0xbd20225e	-0.039095275
60	0xbcf6f872	-0.030147765
61	0x3c5aee2c	0.013362449
62	0x3c4eb74e	0.012616945
63	0x3e6b6530	0.22987819
64	0xbd8c131a	-0.06839581
65	0x3e0fb7ce	0.1403496
66	0xbd5d3e97	-0.05401477
67	0x3c8ab6e8	0.01693292
68	0xbe29bfef	-0.16577123
69	0xbd1b6adb	-0.037943702
70	0x3e9aa8b7	0.30206844
71	0x3c1070b7	0.008815936
72	0x3e0f00fc	0.1396522
73	0x3d2be8e2	0.04197014
74	0x3e0d3a15	0.13791688
75	0xbc8ae003	-0.01695252
76	0x3e56ce7b	0.20977204
77	0xbb6aa43b	-0.0035803455
78	0xbe71593e	-0.235692
79	0x3dd629af	0.10457169
80	0xbe2d6d1b	-0.16936152
81	0xbde0b4a8	-0.109719574
82	0x3d1f1d77	0.03884646
83	0x3c88094b	0.016605994
84	0x3de4d163	0.1117275
85	0xbda04d41	-0.07827235
86	0xbe5c7005	-0.21527107
87	0x3e3ac8d0	0.18240666
88	0xbe04bfa4	-0.1296373
89	0x3e173e1d	0.14769788
90	0xbd253f05	-0.040343303
91	0xbda90f40	-0.08254862
92	0xbd8b5aff	-0.068044655
93	0x3e04dfc0	0.12975979
94	0xbd9b3dba	-0.07580133
95	0xbd5e70e9	-0.0543069
96	0x3dae7afa	0.0851955
97	0x3dcda8de	0.100419745
98	0xbe26de5b	-0.1629576
99	0xbe0f5a6d	-0.13999338
100	0x3e606e90	0.21917176
101	0xbd00cf1f	-0.031447526
102	0x3e35e523	0.1776319
103	0x3d8ed52d	0.06974254
104	0xbe4c272a	-0.19936815
105	0xbe7deda1	-0.2479768
106	0x3e559865	0.20858915
107	0x3d2326b2	0.039831825
108	0x3df45254	0.11929765
109	0x3da1d037	0.07901042
110	0x3e0809f6	0.1328505
111	0x3e452ca5	0.19255312
112	0x3e243f90	0.16039872
113	0xbe2528ac	-0.16128796
114	0xbd6f355e	-0.058400504
115	0x3e5ad8ce	0.21371767
116	0x3dfc1e5c	0.12310478
117	0x3e118ca3	0.14213805
118	0xbe2b8570	-0.16750121
119	0xbe1d825d	-0.15381761
120	0xbe3e13bc	-0.18562216
121	0x3da99e8e	0.08282195
122	0x3e33be83	0.17553143
123	0xbe20a5ea	-0.15688291
124	0x3dd6ec56	0.10494296
125	0xbe0b4dd1	-0.13603903
126	0xbddf854d	-0.10914097
127	0x3d86e42e	0.065864906
128	0x3d8b2c7c	0.06795594
129	0x3dc75beb	0.09734329
130	0xbdd5c8de	-0.10438703
131	0x3d845eca	0.06463392
132	0x3e37c260	0.17945242
133	0x3d9bcf2d	0.07607875
134	0x3e53633a	0.2064332
135	0x3e1ec60a	0.15505233
136	0x3e14628a	0.14490715
137	0x3d2faf4f	0.042891797
138	0xbe838f40	-0.2569523
139	0xbd8a884b	-0.06764277
140	0xbd935701	-0.07194329
141	0xbdd69288	-0.10477167
142	0xbe1e3919	-0.15451469
143	0x3c60eb60	0.013727993
144	0x3e4a6108	0.19763577
145	0xbd8e5f5c	-0.06951782
146	0x3e0644d5	0.13112195
147	0x3d688a18	0.05677232
148	0x3decb595	0.115580715
149	0x3cb91fa0	0.022598088
150	0xbdfb7d8e	-0.12279807
151	0x3e4a9dae	0.19786713
152	0xbd71ff18	-0.059081167
153	0xbdb074c6	-0.08616023
154	0xbe82bf09	-0.25536373
155	0xbe45c150	-0.19312024
156	0xbe222f07	-0.15838252
157	0xbb10a2bc	-0.0022069653
158	0x3e04b299	0.12958755
159	0xbd868abe	-0.06569432
160	0xbe27b4a9	-0.1637751
161	0x3d3c5f75	0.045989472
162	0xbbc8c72d	-0.006127259
163	0x3e059813	0.13046293
164	0x3d2d6756	0.042334877
165	0x3c6faa87	0.014628059
166	0xbe7050e8	-0.23468363
167	0xbe3012f9	-0.17194737
168	0xbd5888a8	-0.0528647
169	0xbe18f82d	-0.14938422
170	0xbdce8167	-0.10083275
171	0xbda01778	-0.07816976
172	0x3db59d0c	0.08867845
173	0x3d5b59d4	0.053552464
174	0x3e47269f	0.19448327
175	0x3e390d5e	0.18071505
176	0x3d0ff5f1	0.035146657
177	0xbddcd878	-0.10783476
178	0xbe1a6889	-0.1507894
179	0x3e35dcd5	0.17760022
180	0xbd9d829a	-0.07690926
181	0xbdb8405b	-0.0899665
182	0xbe5cf960	-0.21579504
183	0xbda50130	-0.08056867
184	0xbe754da8	-0.23955405
185	0x3e82fe55	0.25584665
186	0xbe1dc863	-0.15408473
187	0xbe340c2d	-0.1758277
188	0x3d4ed1d6	0.050493084
189	0xbe16ea63	-0.14737849
190	0x3c9aebbe	0.018911239
191	0xbda21339	-0.07913823
192	0xbdc56c9c	-0.09639856
193	0xbb5bea27	-0.0033556314
194	0x3e8771ce	0.26454014
195	0xbdd9ebef	-0.10640704
196	0x3dcf46ae	0.10120903
197	0x3e0713eb	0.13191192
198	0x3ea6bf93	0.32568035
199	0xbdf088e7	-0.11744862
200	0x3e0f5b2b	0.13999622
201	0xbe84d77f	-0.2594566
202	0xbaba4262	-0.0014210457
203	0x3da2d507	0.07950788
204	0x3dd3cb61	0.10341526
205	0x3d177176	0.03697344
206	0xbdd26cc0	-0.10274649
207	0x3d86a66d	0.06574712
208	0x3dff9010	0.124786496
209	0x3e41caf7	0.18925081
210	0x3e013a61	0.12619926
211	0x3e07a886	0.1324788
212	0xbe43361c	-0.1906361
213	0x3d88e76c	0.06684765
214	0x3df53943	0.119738124
215	0x3e8341a0	0.25636005
216	0x3d98468d	0.074353315
217	0xbec63eca	-0.3871978
218	0xbea6134e	-0.32436603
219	0x3d38f4fa	0.045155503
220	0xbe257da1	-0.16161205
221	0x3e105a25	0.14096887
222	0x3d37dace	0.044886403
223	0xbd650dd7	-0.0559214
224	0xbd2a2b87	-0.041545417
225	0xbe3ff94c	-0.18747443
226	0x3d5170e3	0.051133048
227	0x3e2f58f1	0.17123772
228	0x3dc57319	0.09641094
229	0x3e86fea4	0.2636615
230	0xbe001b41	-0.12510397
231	0xbdd37ca7	-0.1032651
232	0x3e97eece	0.2967438
233	0xbda3deb2	-0.0800146
234	0xbd9b5fda	-0.075866416
235	0xbd28486f	-0.041084703
236	0xbe1b3ccd	-0.15159912
237	0x3debf2f5	0.1152095
238	0x3de83d7a	0.11339851
239	0xbe543a6d	-0.20725413
240	0xbdf87ecf	-0.12133562
241	0xbd5524ad	-0.05203693
242	0x3e593969	0.21213306
243	0x3bfff5f5	0.007811303
244	0xbd9cde08	-0.076595366
245	0x3c088537	0.008332542
246	0xbdea038c	-0.11426458
247	0xbe238cde	-0.15971705
248	0xbe1219b4	-0.14267617
249	0x3e94f518	0.29093242
250	0x3ddd2607	0.10798269
251	0x3d57dbb0	0.052699745
252	0x3e163331	0.14667965
253	0xbc51ee35	-0.012813141
254	0xbca8f3a7	-0.020623995
255	0xbe283f50	-0.16430402

fc.bias f4 [43]
0	0xbec7b520	-0.39005375
1	0x3d34596e	0.0440306
2	0x3db3a6e3	0.087720655
3	0x3d8fea50	0.070271134
4	0x3c84f19e	0.016228493
5	0x3daa1e9c	0.083066195
6	0xbcb1f93e	-0.021725293
7	0xbce39e93	-0.027785575
8	0x3e0d550f	0.13801979
9	0x3c810683	0.015750175
10	0xbe3751e0	-0.17902327
11	0xbd82b55e	-0.06382249
12	0x3e0789de	0.13236186
13	0xbdb2cd68	-0.087305844
14	0xbe61f304	-0.2206536
15	0xbd90a1cb	-0.070621096
16	0xbe97f354	-0.29677832
17	0xbd95662a	-0.07294877
18	0x3e9c6024	0.305421
19	0xbd6643e7	-0.0562171
20	0x3d2b0536	0.041753016
21	0xbd8a7f75	-0.06762592
22	0xbeb04876	-0.34430283
23	0xbc19d20b	-0.009388457
24	0xbce79301	-0.02826834
25	0x3e0fdffc	0.14050287
26	0xbe1a445d	-0.15065141
27	0xbe7e7b5d	-0.24851747
28	0xbd3f5e17	-0.04672059
29	0xbdf1fa1c	-0.11815283
30	0xbdaaaa54	-0.08333269
31	0x3e28c389	0.1648084
32	0x3dfb8b35	0.12282411
33	0xbc76c4af	-0.015061541
34	0xbe8e739e	-0.27822584
35	0xbdcdc8f9	-0.10048098
36	0xbdc0357a	-0.093852
37	0xbe0befd0	-0.136657
38	0x3e72e95c	0.23721832
39	0xbe171c31	-0.14756848
40	0xbe179c83	-0.14805798
41	0xbe03d210	-0.12873101
42	0xbee2d954	-0.44306433
