saved_models/FADA-few-shot-retraining/gtsrb/classifier_gtsrb_4.pt (torch_old, 11724 bytes, 2 tensors)

fc.weight f4 [43, 64]
0	0x3d5a84cb	0.053349297
1	0x3aff0d47	0.0019458913
2	0xbc72685a	-0.014795387
3	0x3d00fe88	0.03149274
4	0xbebae90a	-0.3650592
5	0x3ced6d9d	0.028982932
6	0xbe109bbc	-0.14121908
7	0x3e25fe28	0.16210234
8	0x3d89cba9	0.06728298
9	0xbc5b0981	-0.013368965
10	0x3d93873e	0.0720353
11	0xbe523ae4	-0.20530277
12	0x3dd61842	0.104538456
13	0xbe33f902	-0.17575458
14	0xbdcab066	-0.098969266
15	0x3e05dd78	0.13072765
16	0xbe55eff4	-0.20892316
17	0x3cf83143	0.030296927
18	0x3e73be01	0.2380295
19	0x3c8075d1	0.01568118
20	0x3e22369e	0.15841147
21	0xbe32e472	-0.17469957
22	0xbe22c7c4	-0.15896517
23	0xbe23f8d0	-0.16012883
24	0xbe57d68c	-0.21077937
25	0x3e236e88	0.15960133
26	0x3d80b967	0.06285363
27	0x3e11f7d8	0.14254701
28	0x3d10d1d0	0.035356343
29	0x3e0970df	0.13421963
30	0xbe336b0c	-0.17521304
31	0x3e40da4f	0.18833278
32	0x3d8633e7	0.06552868
33	0xbd2032ca	-0.039110936
34	0xbe7fd89b	-0.24984972
35	0xbe6317fe	-0.22177121
36	0x3e88fa2f	0.26753375
37	0xbe385bd7	-0.18003784
38	0x3d99bb9c	0.07506487
39	0xbde71021	-0.11282373
40	0x3e295016	0.16534457
41	0xbdea4044	-0.11438039
42	0x3e4dff6e	0.2011697
43	0xbcb89ae3	-0.022534793
44	0xbd809175	-0.06277744
45	0x3e2551bc	0.1614446
46	0xbcce88c3	-0.025211697
47	0x3d9d580b	0.076828085
48	0x3d2e9211	0.04261977
49	0xbde56e9f	-0.1120274
50	0xbe53be2e	-0.20678017
51	0xbe9b68b9	-0.30353335
52	0x3d3cff4d	0.04614191
53	0x3da6bddd	0.08141682
54	0x3e420006	0.18945321
55	0x3d998499	0.07495994
56	0xbda14159	-0.07873792
57	0xbe17c9fc	-0.14823145
58	0x3dd87ee6	0.10571079
59	0xbd421b97	-0.047389593
60	0xbce9796a	-0.028500278
61	0x3b55881b	0.0032582346
62	0x3d4440ae	0.047913246
63	0x3e72c778	0.23708904
64	0xbdef29d5	-0.11677901
65	0x3dbc49dc	0.09193775
66	0xbd759727	-0.059958603
67	0x3d0119af	0.031518634
68	0xbe20c9f0	-0.15702033
69	0xbd8e491b	-0.069475375
70	0x3e95697c	0.2918204
71	0x3c72566a	0.0147911105
72	0x3dcdb9f6	0.10045235
73	0x3c9d9a65	0.01923866
74	0x3e22eb04	0.15909964
75	0xbb89393b	-0.0041877306
76	0x3e2d6109	0.16931547
77	0xbccaf5ed	-0.02477547
78	0xbe5af519	-0.2138256
79	0x3e045bcd	0.12925644
80	0xbe3802d5	-0.1796983
81	0xbd8c0a4c	-0.068379015
82	0x3cb2880a	0.021793384
83	0x3cbdd9d2	0.023175154
84	0x3d933b5b	0.071890555
85	0xbdce63e8	-0.10077649
86	0xbe723345	-0.2365237
87	0x3e326f75	0.1742533
88	0xbde44269	-0.11145479
89	0x3e13214a	0.14368168
90	0xbce4d38f	-0.02793291
91	0xbdba87ce	-0.09107934
92	0xbb9854d5	-0.0046487846
93	0x3e0ee73e	0.139554
94	0xbdc814aa	-0.09769566
95	0xbdbf64e8	-0.09345418
96	0x3dc8200b	0.09771737
97	0x3d81269c	0.06306192
98	0xbe13a643	-0.14418893
99	0xbe00cab1	-0.1257732
100	0x3e6defae	0.23235962
101	0xbd0a304d	-0.03373747
102	0x3e45ce6f	0.1931703
103	0x3da0ed53	0.07857766
104	0xbe571c52	-0.21006897
105	0xbe737537	-0.23775183
106	0x3e6c9acf	0.2310593
107	0x3b2b29e6	0.0026117503
108	0x3dfc214b	0.12311038
109	0x3d89c010	0.06726086
110	0x3df32824	0.118728906
111	0x3e4e6f87	0.20159732
112	0x3e33b513	0.17549543
113	0xbe2b6e3a	-0.16741267
114	0xbd80c5a7	-0.06287699
115	0x3e65b574	0.224325
116	0x3de3f31f	0.11130356
117	0x3df2014f	0.11816656
118	0xbe140190	-0.14453721
119	0xbe24ca40	-0.16092777
120	0xbe49aa88	-0.19693959
121	0x3d537a93	0.051630568
122	0x3e4f9a30	0.20273662
123	0xbe13c61c	-0.14431041
124	0x3d97f076	0.07418911
125	0xbdf00bff	-0.11721038
126	0xbdf8a0a0	-0.12140012
127	0x3dace8a8	0.08442813
128	0x3d0e7115	0.034775812
129	0x3e2f9255	0.17145665
130	0xbdca475b	-0.09876891
131	0x3da17e64	0.07885435
132	0x3e3b95c2	0.18318847
133	0x3dd22989	0.102618285
134	0x3e4ad26a	0.19806829
135	0x3e54805a	0.20752087
136	0x3e3bb0a7	0.18329106
137	0x3cf7d011	0.030250581
138	0xbe86234d	-0.26198807
139	0xbe206975	-0.15665229
140	0xbdbe1f7b	-0.09283348
141	0xbe19a456	-0.15004095
142	0xbdfa4b7d	-0.122214295
143	0x3d937beb	0.0720137
144	0x3e80c6c2	0.2515164
145	0xbcfa0259	-0.030518698
146	0x3e008f9a	0.1255478
147	0x3d908aa2	0.07057692
148	0x3d866190	0.06561577
149	0x3c82da46	0.015973222
150	0xbe15bbe5	-0.14622457
151	0x3e7d33bc	0.24726766
152	0xbd320234	-0.043459132
153	0xbd369120	-0.044571996
154	0xbe9786aa	-0.29594928
155	0xbe17b9c6	-0.1481696
156	0xbe33206a	-0.17492834
157	0x3d2a599f	0.041589376
158	0x3e2a73a9	0.16645683
159	0xbd018ff9	-0.031631444
160	0xbe155809	-0.14584364
161	0xbc0d7b83	-0.0086354045
162	0xbcb2bdac	-0.021818958
163	0x3de7b11a	0.11313076
164	0x3dcc5bfb	0.099784814
165	0x3c964287	0.01834227
166	0xbe8afdc6	-0.2714674
167	0xbe21816f	-0.15772031
168	0xbd49b1bf	-0.049241778
169	0xbe422a72	-0.18961504
170	0xbd86249a	-0.0654995
171	0xbda918d9	-0.082566924
172	0x3dcc2a1b	0.099689685
173	0x3c9ef8ef	0.01940581
174	0x3e65e643	0.22451119
175	0x3e63d34d	0.22248574
176	0x3dde5f05	0.10857967
177	0xbdf1f985	-0.1181517
178	0xbe455d6c	-0.19273919
179	0x3e567748	0.2094394
180	0xbdbf8e1f	-0.09353279
181	0xbde0b20c	-0.1097146
182	0xbe8124b7	-0.25223324
183	0xbe1a33a6	-0.15058765
184	0xbe88849c	-0.26663673
185	0x3e9396c5	0.28825966
186	0xbe02dbbf	-0.12779139
187	0xbe594f82	-0.21221736
188	0x3cb3ffef	0.021972625
189	0xbdb78319	-0.08960552
190	0x3b9a6e7d	0.0047128783
191	0xbd3e7205	-0.046495456
192	0xbe008ee8	-0.12554514
193	0xbd1362fc	-0.03598307
194	0x3e91492f	0.28376147
195	0xbdcff673	-0.10154428
196	0x3dc9483c	0.09828231
197	0x3dec8772	0.11549272
198	0x3eaed72b	0.34148535
199	0xbddf05b4	-0.1088976
200	0x3e151cb8	0.14561737
201	0xbe81fdbc	-0.25388896
202	0xbc9451b8	-0.018105373
203	0x3d8593c3	0.06522324
204	0x3e15e74c	0.14639014
205	0x3d855fce	0.06512414
206	0xbe041f00	-0.1290245
207	0xbb4f5ae7	-0.0031639875
208	0x3de3e176	0.11126988
209	0x3e1558c6	0.14584646
210	0x3e06f268	0.13178408
211	0x3e0da3ce	0.13832018
212	0xbe3f40c7	-0.18677054
213	0x3dd086a4	0.10181931
214	0x3dd5f235	0.10446588
215	0x3e8cd7fb	0.2750853
216	0x3d43d525	0.047810692
217	0xbecbfc97	-0.39841148
218	0xbea48c72	-0.321384
219	0x3d831bd9	0.06401796
220	0xbe0a3982	-0.134985
221	0x3dd5fa7f	0.10448169
222	0x3caad2a1	0.020852389
223	0xbd7b4862	-0.061348327
224	0xbc0a9753	-0.00845893
225	0xbe3e7be0	-0.18601942
226	0x3cbf0ca4	0.023321457
227	0x3e1f7da5	0.15575273
228	0x3dd741d9	0.10510606
229	0x3e8654ab	0.26236472
230	0xbdbd9b23	-0.092581056
231	0xbdb5e74d	-0.08882008
232	0x3e987f26	0.29784507
233	0xbd3f48ec	-0.046700403
234	0xbdae0485	-0.08496956
235	0xbcec7fea	-0.028869588
236	0xbe250f4f	-0.16119121
237	0x3e18d5f1	0.14925362
238	0x3db38b71	0.08766831
239	0xbe39d800	-0.18148804
240	0xbe13851c	-0.14406246
241	0xbd3ad309	-0.045611415
242	0x3e6db7cf	0.23214649
243	0x3cc9222e	0.024552431
244	0xbd7df940	-0.06200528
245	0x3bd2669b	0.006420923
246	0xbdb29922	-0.08720614
247	0xbe05a5c4	-0.13051516
248	0xbdf6af17	-0.120451145
249	0x3e96bf7c	0.29442966
250	0x3de2ac55	0.11068026
251	0x3c60bf23	0.013717446
252	0x3e1afcac	0.15135449
253	0xbd48220b	-0.04886059
254	0xbd188890	-0.03723961
255	0xbe3eda73	-0.1863802

fc.bias f4 [43]
0	0xbec59084	-0.3858682
1	0x3cf89aa1	0.03034717
2	0x3e11f86e	0.14254925
3	0x3d98d52f	0.074625365
4	0xbcbd068c	-0.02307441
5	0x3da95799	0.08268661
6	0xbc14e49b	-0.009087707
7	0xbd7de866	-0.06198921
8	0x3e256cb2	0.16154745
9	0x3b80fd15	0.0039364197
10	0xbe0d7b51	-0.13816573
11	0xbd86a471	-0.065743335
12	0x3e0dd948	0.13852417
13	0xbdda1004	-0.10647586
14	0xbe69dad9	-0.2283739
15	0xbd1711c8	-0.036882192
16	0xbea8566f	-0.32878444
17	0xbdf6d6b6	-0.120526716
18	0x3e94f3d4	0.29092276
19	0xbcb464dc	-0.02202075
20	0x3cbe8cf3	0.02326057
21	0xbd86d31b	-0.06583234
22	0xbeb9eec3	-0.36314973
23	0x3c96ebfd	0.018423075
24	0xbc683064	-0.0141716935
25	0x3db55d78	0.088557184
26	0xbe244a77	-0.16044031
27	0xbe849c97	-0.2590072
28	0xbcbac453	-0.022798693
29	0xbd55eacc	-0.052225873
30	0xbdbe5842	-0.092941776
31	0x3e2b9641	0.16756536
32	0x3e181d90	0.14855027
33	0xbba7765d	-0.0051105455
34	0xbe935824	-0.28778183
35	0xbd57fecf	-0.05273324
36	0xbdc4fda1	-0.096186884
37	0xbe27dbcd	-0.16392441
38	0x3e679792	0.22616413
39	0xbe67195f	-0.22568272
40	0xbe0fbc59	-0.14036693
41	0xbdfcf287	-0.12350946
42	0xbedbe9b9	-0.42951754
