saved_models/FADA-few-shot-retraining/gtsrb/classifier_gtsrb_8.pt (torch_old, 11724 bytes, 2 tensors)

fc.weight f4 [43, 64]
0.028765919 0.0002475529 -0.013655364 0.039185554 -0.36046153 0.06855106 -0.1392621 0.18732263
0.029326048 -0.06521292 0.0847148 -0.19713925 0.05308514 -0.18519214 -0.091829486 0.13259503
-0.19836666 0.05523092 0.26203507 0.027701676 0.13670059 -0.19234289 -0.1703505 -0.15989046
-0.21427338 0.15480602 0.058364812 0.13721932 0.043917213 0.14323844 -0.15357387 0.18558641
0.08510149 -0.054905266 -0.22801872 -0.21771093 0.26285627 -0.18846077 0.09477093 -0.102880426
0.16204932 -0.10798447 0.20701422 -0.034833867 -0.04844606 0.17693393 -0.03504352 0.0839999
0.04800747 -0.105709784 -0.19869654 -0.32479215 0.027103778 0.0652938 0.19113545 0.07698029
-0.10747052 -0.123904265 0.11977669 -0.05984158 -0.0598364 0.015262781 0.032510635 0.24071284
-0.081838496 0.10143661 -0.049847264 0.027719824 -0.15555187 -0.056721482 0.30194116 0.004975255
0.118502825 0.0372286 0.12363453 0.013697611 0.17480786 -0.0022665304 -0.21986836 0.070625834
-0.15996078 -0.082761124 0.032410156 0.037467115 0.08296089 -0.05740265 -0.20774627 0.17547582
-0.09487131 0.11234446 -0.066556856 -0.08757053 -0.03200947 0.11824142 -0.10475225 -0.099433295
0.08386996 0.09595738 -0.15301304 -0.10947465 0.19503765 -0.023101328 0.17393777 0.047905676
-0.19149654 -0.22309683 0.21454859 0.004632441 0.09663375 0.06760383 0.11433208 0.17576768
0.15481026 -0.13842228 -0.056057625 0.19235183 0.099330574 0.11200737 -0.1262311 -0.13740231
-0.16324629 0.07403047 0.16753563 -0.12400669 0.120868504 -0.10362118 -0.120152146 0.06794412
0.076272175 0.10791936 -0.10825333 0.04362616 0.16417362 0.07686037 0.18095876 0.15204738
0.14728658 0.0830052 -0.209148 -0.10341393 -0.06251824 -0.0919429 -0.12872957 0.010104135
0.20917627 -0.079545096 0.079978295 0.054557975 0.12951069 0.02947447 -0.11119642 0.2001186
-0.05029122 -0.077025086 -0.26635632 -0.1909524 -0.16274813 -0.0052998443 0.12258406 -0.026740443
-0.12464272 0.035697047 -0.040709734 0.10074356 0.05904662 0.016368276 -0.23569338 -0.16862938
-0.04138329 -0.15273285 -0.0930182 -0.029394435 0.08980022 0.007764286 0.22032715 0.18076448
0.04320508 -0.110768154 -0.1811697 0.20244905 -0.067361526 -0.10824193 -0.21255533 -0.09213548
-0.21737109 0.24194874 -0.14728582 -0.15992558 0.055130087 -0.13378656 0.0077484148 -0.09812689
-0.12510341 -0.0051355404 0.2981118 -0.039840937 0.13454555 0.122399785 0.27840632 -0.08785213
0.15553132 -0.24629034 0.015536561 0.08102762 0.13036604 0.10534385 -0.080548525 0.017589312
0.14565898 0.15881728 0.19169496 0.13776363 -0.19177431 0.0833329 0.14216241 0.2955902
0.09015292 -0.42305297 -0.30331063 0.00070749153 -0.14456393 0.13355914 0.038869936 -0.08224838
-0.03614748 -0.22879696 0.058949497 0.14328729 0.12718962 0.29116455 -0.12053656 -0.10134525
0.2869364 -0.06547545 -0.031832732 -0.010785666 -0.15657544 0.14524795 0.05839255 -0.22962223
-0.14750607 -0.050390717 0.19447422 0.017739002 -0.07956904 -0.022228774 -0.11081761 -0.16927724
-0.16142875 0.30810216 0.12978466 0.039975047 0.1485402 -0.059759934 -0.05607799 -0.15718304
00000000: 81a6 eb3c fdc9 8139 bfba 5fbc 0881 203d
00000010: 6a8e b8be 8064 8c3d b99a 0ebe 81d1 3f3e
00000020: 2e3d f03c 5a8e 85bd f47e ad3d dfde 49be
00000030: ce6f 593d 02a3 3dbe 1911 bcbd fec6 073e
00000040: a120 4bbe d139 623d 7629 863e a0ee e23c
00000050: 3dfb 0b3e 89f5 44be 5d70 2ebe 53ba 23be
00000060: 7b6a 5bbe 7885 1e3e f10f 6f3d 3983 0c3e
00000070: 89e2 333d 19ad 123e 7842 1dbe 5d0a 3e3e
00000080: b149 ae3d 58e4 60bd bd7d 69be 9def 5ebe
00000090: 1995 863e dcfb 40be 4317 c23d f9b2 d2bd
000000a0: 42f0 253e f626 ddbd 89fb 533e f5ad 0ebd
000000b0: 606f 46bd 2b2e 353e cb89 0fbd 2408 ac3d
000000c0: 7ba3 443d 5f7e d8bd 1b77 4bbe 284b a6be
000000d0: be08 de3c c1b8 853d 03b9 433e d8a7 9d3d
000000e0: 8119 dcbd 85c1 fdbd 7b4d f53d 721c 75bd
000000f0: 0317 75bd be10 7a3c df29 053d 6d7d 763e
00000100: f19a a7bd ffbd cf3d a52c 4cbd af14 e33c
00000110: fd48 1fbe c954 68bd 0898 9a3e 7707 a33b
00000120: 9cb1 f23d 047d 183d 1a34 fd3d f26b 603c
00000130: d500 333e 128a 14bb 2c25 61be 47a4 903d
00000140: c2cc 23be aa7e a9bd 83c0 043d 1e77 193d
00000150: 66e7 a93d 0b1f 6bbd 70bb 54be efaf 333e
00000160: e44b c2bd da14 e63d f64e 88bd 2e58 b3bd
00000170: 5d1c 03bd 8f28 f23d 5988 d6bd afa3 cbbd
00000180: 03c4 ab3d 4e85 c43d 73af 1cbe 3f34 e0bd
00000190: f3b7 473e ff3e bdbc be1c 323e be38 443d
000001a0: ab17 44be 7f73 64be a0b2 5b3e bbcb 973b
000001b0: eae7 c53d e073 8a3d f026 ea3d 71fc 333e
000001c0: 9586 1e3e 92be 0dbe ae9c 65bd e1f7 443e
000001d0: d46d cb3d 1f64 e53d ba42 01be 31b3 0cbe
000001e0: 092a 27be 499d 973d 768e 2b3e 38f7 fdbd
000001f0: e889 f73d 5737 d4bd 5412 f6bd 4926 8b3d
00000200: 9634 9c3d d304 dd3d ecb3 ddbd 58b1 323d
00000210: 211d 283e f868 9d3d 414d 393e 4fb2 1b3e
00000220: 4bd2 163e a1fe a93d e52a 56be afca d3bd
00000230: 9009 80bd 8f4c bcbd afd1 03be d08b 253c
00000240: 4e32 563e 8ae8 a2bd a9cb a33d 2f78 5f3d
00000250: 739e 043e 7274 f13c f3ba e3bd e4eb 4c3e
00000260: 2bfe 4dbd 54bf 9dbd db5f 88be 0789 43be
00000270: 72a7 26be 51aa adbb 5a0d fb3d c60e dbbc
00000280: af44 ffbd 1137 123d 40bf 26bd a452 ce3d
00000290: deda 713d c316 863c 9b59 71be 2ead 2cbe
000002a0: 8681 29bd 0066 1cbe 5380 bebd 99cc f0bc
000002b0: 2ee9 b73d 8d6b fe3b 719d 613e 531a 393e
000002c0: cff7 303d 6ada e2bd 8d84 39be ce4e 4f3e
000002d0: d7f4 89bd f2ad ddbd 1ba8 59be 87b1 bcbd
000002e0: 8796 5ebe 69c1 773e 18d2 16be 88c3 23be
000002f0: 16d0 613d 58ff 08be 6ae6 fd3b c0f6 c8bd
00000300: 1c1b 00be 0948 a8bb 1ca2 983e 4030 23bd
00000310: 4fc6 093e bdac fa3d 468b 8e3e d1eb b3bd
00000320: 9a43 1f3e 8933 7cbe 0f8d 7e3c cff1 a53d
00000330: ad7e 053e 84be d73d a0f6 a4bd 7617 903c
00000340: a127 153e ffa0 223e af4b 443e e911 0d3e
00000350: 7c60 44be 71aa aa3d 0693 113e 9957 973e
00000360: 18a2 b83d 669a d8be 884b 9bbe f476 393a
00000370: 9108 14be bac3 083e 1536 1f3d d771 a8bd
00000380: 610f 14bd c049 6abe 0775 713d e7b9 123e
00000390: ff3d 023e 8513 953e dfdb f6bd 198e cfbd
000003a0: 54e9 923e fe17 86bd 0a63 02bd 5db6 30bc
000003b0: 5055 20be e1bb 143e 072d 6f3d 1722 6bbe
000003c0: d50b 17be 7f66 4ebd 4024 473e 6251 913c
000003d0: 18f5 a2bd 1e19 b6bc 58f4 e2bd 0357 2dbe
000003e0: 944d 25be 91bf 9d3e 45e6 043e e0bc 233d
000003f0: ec1a 183e d5c6 74bd 09b2 65bd 97f4 20be

fc.bias f4 [43]
-0.38313237 0.0045543225 0.110120244 0.077279486 0.0043156333 0.10251916 -0.013218812 -0.07977214
0.14567855 -0.01514256 -0.16489297 -0.04223583 0.18267019 -0.12983535 -0.21128447 -0.053057548
-0.32838234 -0.07973801 0.2642811 0.00076039374 -0.0015610532 -0.06382797 -0.3470959 -0.042503946
-0.027111286 0.10936797 -0.12890375 -0.2639825 -0.02090808 -0.09511738 -0.07674089 0.13001779
0.18251535 -0.014382685 -0.2925296 -0.041659027 -0.049914192 -0.17052178 0.23171157 -0.1830948
-0.14945935 -0.14769416 -0.44803703
00000000: ed29 c4be 6d3c 953b b986 e13d b544 9e3d
00000010: 286a 8d3b 91f5 d13d b793 58bc 935f a3bd
00000020: c22c 153e 8018 78bc b4d9 28be 7aff 2cbd
00000030: e50d 3b3e 8ff3 04be f55a 58be df52 59bd
00000040: bb21 a8be af4d a3bd da4f 873e 2955 473a
00000050: 419c ccba 3db8 82bd 8eb6 b1be 9e18 2ebd
00000060: 7d18 debc 50fc df3d 58ff 03be b728 87be
00000070: 6c47 abbc e7cc c2bd 542a 9dbd 6223 053e
00000080: 4ee5 3a3e 5aa5 6bbc 71c6 95be a8a2 2abd
00000090: d372 4cbd 439d 2ebe cc45 6d3e 347d 3bbe
000000a0: df0b 19be 233d 17be 1c65 e5be
