saved_models/FADA-few-shot-retraining/gtsrb/classifier_gtsrb_12.pt (torch_old, 11724 bytes, 2 tensors)

fc.weight f4 [43, 64]
00000000: 1004 293d c3dc 163d a412 793c b9f3 6c3d
00000010: b1e9 d1be 9c89 3b3c c606 10be 299a 4c3e
00000020: 6e70 263d 36f1 6fbc f51a cb3d eaac 3bbe
00000030: 9df8 843d 50ff 5dbe 659f e4bd cd5c 203e
00000040: 3df9 42be 0ab2 a73d 275d 9b3e 103d 753d
00000050: c98a 173e 2c72 54be 12d4 23be f354 37be
00000060: 2f1a 67be d0eb 313e cd60 e83d da0b 0d3e
00000070: 6cff 603d df52 2a3e 76a2 03be ba41 623e
00000080: eaff 823d 4a52 ecbd dcf4 7cbe d4ce 7cbe
00000090: c11a 9a3e 5edf 44be 0dc1 8f3d b2bf 58bd
000000a0: a7f4 1e3e 4c45 0bbe 3345 7e3e e9ef 0fbd
000000b0: b0d3 dabc ad5d 3b3e afe2 1dbd 00a7 d33d
000000c0: e2c9 963d a39c b4bd b87a 62be 6353 93be
000000d0: 358f 653c 907f f33d 5b3b 533e dc9c 8d3d
000000e0: 8415 99bd a2d9 37be 6be4 003e abd9 4cbd
000000f0: dc80 08bd 5db8 8239 9663 ba3d ba25 823e
00000100: 544c 92bd 0a15 d23d 6c47 63bd 7e5a d13c
00000110: 1034 25be d06b bfbc 8f9b a03e 6f80 123a
00000120: 0025 eb3d 67bf 1d3d 293a 093e 178a 2a3a
00000130: 0a0c 483e e8fd a93c 075f 57be b432 c93d
00000140: 995d 29be 0aff a3bd 2c37 983c 0d55 1f3d
00000150: 4967 b13d 762b 74bd af74 49be e84e 0f3e
00000160: e197 d9bd f543 f13d c267 10bd fd92 5cbd
00000170: 7fce d3bc a556 ed3d 13ef f1bd 0267 adbd
00000180: e615 c03d 9d64 d63d e980 08be 9bf3 e3bd
00000190: 6870 503e 42a4 04bd 24fc 373e e40b 433d
000001a0: 26b4 49be 00db 5dbe f13e 5d3e 71e5 0f3d
000001b0: 6bbd c13d c5f0 c43d 5d36 0e3e 606c 333e
000001c0: 132f 223e 1f8f debd 5059 4fbd 23f2 453e
000001d0: b7f2 c03d f926 083e ba22 e2bd f1f4 ebbd
000001e0: 0913 2dbe 158b 803d aded 243e e69b 1bbe
000001f0: 376a 083e 5611 0dbe 66ed ddbd 1818 893d
00000200: a753 cb3c fc26 b73d 9442 1cbe fd57 a13d
00000210: b7bb 093e 593d 173e bc3a 423e b214 f43d
00000220: be4c bc3d d004 173d 972a 5abe dbc5 ddbd
00000230: 1c6e 86bd f66e 84bd facd 0bbe 905f 2c3d
00000240: 8baf 3b3e efcf 80bd 2ba0 fd3d d996 223d
00000250: 9ded 043e 3575 223d 39d7 ebbd b778 353e
00000260: ace2 b7bd 0532 c1bd b90d 89be 04de 2dbe
00000270: a319 e7bd 0ac2 01bd 239b d43d da5f 6cbd
00000280: ad50 b1bd 2434 8d3d aed2 edbc cdec a83d
00000290: 0798 3d3c 907a 64bb b00e 7bbe 8d48 65be
000002a0: f580 07bd 30ed ecbd 0fdf d4bd 2574 e5bc
000002b0: 1a94 533d 11fa 293d c260 303e 6e0d 373e
000002c0: 2d14 ac3c 897e aabd faa4 3cbe c47e 343e
000002d0: 42ec e5bd 7562 fcbd b9e4 39be 4059 c7bd
000002e0: f213 74be 78c7 8f3e 5335 38be f638 28be
000002f0: 7686 813d e0a5 00be cb58 963c e1c6 b5bc
00000300: bb57 dcbd 5b5c 313c 456d 8c3e bff8 cfbd
00000310: 5eb5 b93d 31d2 0b3e 9b32 a13e 864c fdbd
00000320: def3 273e 0051 8cbe 2729 903c 6973 723d
00000330: 8b61 003e 1a72 a03d efad c3bd 0580 683d
00000340: 30da e03d 7426 053e 7d1b 213e aff5 f53d
00000350: 899e 2fbe 759f a33d 94f3 d23d 23de 8a3e
00000360: 4171 a53d 98db c5be 83a4 a3be fd3f 8d3d
00000370: 96c1 04be 877d e93d 9cca de3c 882e 7fbd
00000380: abaa 0fbd 3ea4 4fbe d97f 8b3d 79f5 253e
00000390: 1771 e93d 8557 893e 0687 adbd ff3e b7bd
000003a0: 9d61 923e 4079 bdbd b0fa a0bd 6ebe e9bc
000003b0: b0b3 0fbe cbce 0a3e df84 cb3d ebe8 41be
000003c0: 764d d7bd 6160 74bd 5f41 523e 29fe 2f3d
000003d0: 3565 8cbd cf07 083d b027 dabd ed6c 0ebe
000003e0: 18ee 1ebe 775b 903e 1bab e93d 1cad aabc
000003f0: 8c32 103e aacf 68bd d76d 97bc 3962 37be
0.04126364 0.03683163 0.015202198 0.05784962 -0.40998605 0.011446383 -0.14065084 0.19980682
0.040634565 -0.0146449115 0.09917251 -0.1832768 0.06492732 -0.21679425 -0.111632146 0.156604
-0.1904039 0.08188255 0.30344507 0.059872687 0.14799036 -0.20746678 -0.15998867 -0.179035
-0.22568582 0.17375112 0.11346588 0.13774052 0.05493109 0.16633175 -0.12854943 0.22095385
0.06396468 -0.11539133 -0.24702781 -0.24688274 0.30098537 -0.19225833 0.070192434 -0.05291719
0.15523015 -0.13600653 0.24831085 -0.035140906 -0.026712269 0.18297453 -0.03854626 0.10334587
0.07362725 -0.088189386 -0.22117126 -0.28774557 0.014011194 0.11889565 0.20628111 0.06914684
-0.07474807 -0.17954114 0.12587135 -0.05001227 -0.033326015 0.00024932894 0.09101026 0.25419408
-0.07143465 0.10257919 -0.055488035 0.025555845 -0.16133142 -0.023366839 0.31368682 0.0005588596
0.114816666 0.038512614 0.13401093 0.00065055623 0.19535843 0.020750955 -0.21032344 0.09824124
-0.16539611 -0.08007629 0.018580996 0.03889947 0.08662278 -0.05961176 -0.19673418 0.13994944
-0.10624672 0.1178054 -0.0352552 -0.053851116 -0.025855301 0.11588792 -0.11813178 -0.08466913
0.09379177 0.10468409 -0.13330425 -0.111304484 0.2035538 -0.03238321 0.17967278 0.04761876
-0.19697627 -0.21665573 0.21606041 0.03513092 0.09459957 0.09616236 0.13887925 0.1752181
0.1583827 -0.10867142 -0.050622284 0.19330649 0.09421294 0.13296117 -0.1104178 -0.11521328
-0.16901793 0.06276528 0.16106291 -0.1519619 0.13321768 -0.13776144 -0.10836296 0.06694049
0.024820162 0.089429826 -0.15259773 0.078781106 0.13450514 0.14769496 0.18967718 0.1191801
0.09194325 0.036869824 -0.21305309 -0.108287536 -0.065639704 -0.064664766 -0.13652793 0.042083323
0.18328683 -0.0628966 0.12384065 0.03969464 0.12981267 0.03966256 -0.1151566 0.1772183
-0.08978781 -0.094333686 -0.26768282 -0.16979223 -0.11284187 -0.03167919 0.103811525 -0.0577086
-0.08657966 0.06894711 -0.029031124 0.08248291 0.011571891 -0.0034863092 -0.24517322 -0.22390957
-0.033081967 -0.115686774 -0.103941076 -0.028009484 0.051654913 0.041498248 0.1722441 0.17876217
0.021005714 -0.08324916 -0.18422309 0.17626482 -0.11226703 -0.12323467 -0.18153657 -0.0973382
-0.23835734 0.2808187 -0.17989092 -0.16427979 0.063244745 -0.12563276 0.018352887 -0.02218956
-0.10758921 0.010825242 0.27427116 -0.101548664 0.09067796 0.136544 0.3148392 -0.12368111
0.16401622 -0.27405548 0.017597748 0.059192095 0.1253721 0.07834263 -0.095546596 0.056762714
0.10979116 0.1300295 0.15733142 0.12009751 -0.1715032 0.079893984 0.10300365 0.27122602
0.08078242 -0.386441 -0.3196145 0.068969704 -0.12964472 0.114008956 0.027196221 -0.062300235
-0.03507487 -0.20277497 0.068114944 0.16206922 0.11398523 0.26824585 -0.08473019 -0.089475624
0.28590098 -0.09251642 -0.07860315 -0.028533187 -0.14033389 0.13555448 0.099374525 -0.18936507
-0.105128214 -0.059662227 0.2053275 0.042966995 -0.06855241 0.03321057 -0.10652101 -0.1390874
-0.15520513 0.28194782 0.11409589 -0.020834498 0.14081782 -0.05683867 -0.018484993 -0.17908563

fc.bias f4 [43]
00000000: 12a5 bdbe b00b d2bb 6178 6b3d 21d3 b63d
00000010: 1994 143d a1d1 d93d eb7b 60ba 5e14 14bd
00000020: 0ec8 2b3e a42f 3a3c 2cf4 55be 9e33 afbd
00000030: ae53 0d3e f929 24be 13e8 4ebe f22a 46bd
00000040: b66a 8bbe b4a8 d4bd baf9 9d3e 99bd 3cbc
00000050: 2267 bd3c 9329 81bd 78d4 babe 6ac3 08bd
00000060: 2cf7 a6bc dd9b fa3d cc62 1bbe 9eac 85be
00000070: 5bb4 4bbd 822d b9bd 9949 9abd 7268 123e
00000080: 77fb 193e 6fe4 f0bc da50 8abe 830f 8abd
00000090: f521 87bd 68fd 1cbe d0ba 523e 59c9 52be
000000a0: d9da 08be 3cdf febd e23a e7be
-0.3704 -0.0064100847 0.05748785 0.089269884 0.03627405 0.10635687 -0.0008563387 -0.036152236
0.16775534 0.0113638975 -0.20893925 -0.08554767 0.13801453 -0.16031636 -0.20205717 -0.0483808
-0.2722985 -0.1038374 0.3085459 -0.011519813 0.023120467 -0.06306758 -0.36490226 -0.033389486
-0.020381533 0.1223676 -0.15174407 -0.2610826 -0.049732547 -0.09041883 -0.07533569 0.14297655
0.15037332 -0.0294058 -0.2701481 -0.0674124 -0.06598274 -0.15331042 0.20579076 -0.2058462
-0.13364734 -0.12444922 -0.45162112
