saved_models/FADA-few-shot-retraining/gtsrb/classifier_gtsrb_6.pt (torch_old, 11724 bytes, 2 tensors)

fc.weight f4 [43, 64]
0	0x3cdec5f0	0.027193993
1	0x3cf6247b	0.030046692
2	0xbcd9f874	-0.02660773
3	0x3d27715b	0.04087959
4	0xbebf850d	-0.37406197
5	0x3ca445a1	0.020052733
6	0xbe07c4a3	-0.13258605
7	0x3e42dd20	0.19029665
8	0x3ce4b7c6	0.027919661
9	0xbd40422b	-0.046938103
10	0x3de74662	0.11292721
11	0xbe55956d	-0.20857783
12	0x3dc685c2	0.09693481
13	0xbe519fee	-0.20471165
14	0xbdb20068	-0.08691484
15	0x3e210b5a	0.15726987
16	0xbe458adf	-0.19291256
17	0x3d6a5dd6	0.057218395
18	0x3e9012ab	0.28139243
19	0x3d89b7b4	0.06724492
20	0x3e0cb178	0.13739574
21	0xbe5927e6	-0.21206626
22	0xbe2e746e	-0.17036602
23	0xbe3f5f30	-0.18688655
24	0xbe653fc6	-0.22387609
25	0x3e29e06b	0.16589515
26	0x3d30233a	0.043002345
27	0x3e1a1554	0.15047199
28	0x3d0afd2f	0.03393286
29	0x3e2020ba	0.15637484
30	0xbe2aebbc	-0.16691488
31	0x3e5b5d60	0.21422338
32	0x3d8ee901	0.06978036
33	0xbd30f5a1	-0.043203
34	0xbe755c04	-0.23960882
35	0xbe614d82	-0.22002223
36	0x3e9032ad	0.28163663
37	0xbe406be6	-0.1879116
38	0x3db154cc	0.08658752
39	0xbdb37ddd	-0.08764241
40	0x3e2e5dd0	0.17027974
41	0xbe01748a	-0.12642112
42	0x3e6e5bc5	0.23277195
43	0xbc95e3e0	-0.018297136
44	0xbd37ebec	-0.044902727
45	0x3e483d4c	0.19554633
46	0xbc534b55	-0.0128963785
47	0x3dac0cf4	0.08400908
48	0x3d5fe5b9	0.05466244
49	0xbde9636c	-0.11395916
50	0xbe585148	-0.21124756
51	0xbe9dee61	-0.3084593
52	0x3d0729e9	0.032998953
53	0x3d8fbc95	0.07018391
54	0x3e3faa1c	0.18717235
55	0x3da07710	0.07835209
56	0xbe028cdc	-0.12749046
57	0xbe1280da	-0.14306965
58	0x3df75017	0.12075823
59	0xbd9beff6	-0.07614128
60	0xbccb313f	-0.024803756
61	0x3cca916c	0.024727546
62	0x3d20f830	0.03929919
63	0x3e7f3072	0.24920824
64	0xbdad5896	-0.08464162
65	0x3dc52b85	0.09627441
66	0xbd78544c	-0.060627267
67	0x3cbf33df	0.023340164
68	0xbe1d356f	-0.15352415
69	0xbc5d8ea5	-0.013522779
70	0x3ea920c8	0.33032823
71	0xbacd8f28	-0.0015682923
72	0x3e04f6f2	0.12984827
73	0x3d3717e9	0.044700537
74	0x3e0fc224	0.14038903
75	0x3c8674db	0.016413143
76	0x3e554fee	0.20831272
77	0x3bc5db0b	0.006038075
78	0xbe5f68c2	-0.21817306
79	0x3daa7534	0.08323136
80	0xbe212e43	-0.15740304
81	0xbdbdbd3b	-0.092646085
82	0xb82b8ad7	-4.089888e-05
83	0x3d28439d	0.041080106
84	0x3d917fe7	0.071044736
85	0xbd887024	-0.06662014
86	0xbe4c0e04	-0.19927222
87	0x3e44c4a0	0.19215631
88	0xbe07e66c	-0.13271493
89	0x3df9aa1d	0.1219065
90	0xbd6bcb55	-0.05756696
91	0xbd9d1d71	-0.07671631
92	0xbd11087a	-0.035408475
93	0x3df24915	0.118303455
94	0xbde627b4	-0.112380415
95	0xbd81bcee	-0.063348636
96	0x3dbb2808	0.09138495
97	0x3ddc430a	0.10754974
98	0xbe1e8c88	-0.15483296
99	0xbdc6af68	-0.09701425
100	0x3e546943	0.20743279
101	0xbc7ffa5b	-0.015623654
102	0x3e3d8b3d	0.18510146
103	0x3d6dfdf9	0.058103535
104	0xbe482cff	-0.19548415
105	0xbe67b692	-0.22628239
106	0x3e57a6aa	0.21059671
107	0x3c5fdb9c	0.013663199
108	0x3db9d0c2	0.090730205
109	0x3da473d4	0.08029905
110	0x3e16013b	0.14648907
111	0x3e38a87a	0.18033019
112	0x3e23980a	0.15975967
113	0xbe1e1fea	-0.15441862
114	0xbd3c84df	-0.046025153
115	0x3e61deac	0.22057599
116	0x3dcbe444	0.099556476
117	0x3e00e6c1	0.12588026
118	0xbdfdacdb	-0.12386485
119	0xbe05bcca	-0.13060299
120	0xbe235074	-0.15948659
121	0x3d8dc43e	0.06922196
122	0x3e297d8c	0.16551799
123	0xbe0779e7	-0.13230096
124	0x3ddbefc3	0.1073909
125	0xbdd81737	-0.10551303
126	0xbdef595b	-0.11686965
127	0x3d6a27f6	0.057167016
128	0x3d9fab99	0.077964015
129	0x3d97c110	0.074098706
130	0xbdd30893	-0.1030437
131	0x3d7e568f	0.062094267
132	0x3e4c9468	0.19978487
133	0x3d2068c4	0.039162412
134	0x3e6bc900	0.23025894
135	0x3e24ff85	0.16113098
136	0x3df5188c	0.119675726
137	0x3e132ad2	0.14371803
138	0xbe4b6978	-0.19864452
139	0xbd98bf96	-0.07458417
140	0xbdb6fdf3	-0.08935156
141	0xbdac4cb1	-0.08413065
142	0xbe110b44	-0.14164454
143	0x3c147ce3	0.009062978
144	0x3e44256e	0.19154903
145	0xbd54ff88	-0.052001506
146	0x3dada4be	0.08478688
147	0x3cf52c81	0.029928448
148	0x3dcb3d13	0.09923758
149	0x3c19385b	0.009351815
150	0xbe0130f2	-0.12616327
151	0x3e50960c	0.20369738
152	0xbd0d0cda	-0.034436084
153	0xbdb5e102	-0.088808075
154	0xbe95c18c	-0.29249227
155	0xbe72f2e9	-0.23725475
156	0xbe2a3092	-0.1662009
157	0x3d233c76	0.039852582
158	0x3df59337	0.1199097
159	0xbd4bc74a	-0.049750604
160	0xbdfe46c0	-0.12415838
161	0x3c222ddf	0.009898632
162	0xbd2587bc	-0.04041265
163	0x3e28370c	0.16427249
164	0x3d7c80f3	0.061646413
165	0x3cbd362e	0.023097124
166	0xbe49db2e	-0.19712517
167	0xbe1a9c29	-0.15098633
168	0xbd19dbe6	-0.037563227
169	0xbe1ec52b	-0.15504901
170	0xbc40a7f2	-0.011758791
171	0xbcc5f278	-0.02416347
172	0x3dc894fa	0.0979404
173	0x3b4bf461	0.0031121003
174	0x3e8a3961	0.26996902
175	0x3e564009	0.20922865
176	0x3d97a8c7	0.074052386
177	0xbde6a933	-0.11262741
178	0xbe41d1fd	-0.1892776
179	0x3e5e5dc7	0.2171546
180	0xbdcfb9d4	-0.10142866
181	0xbddbb7f9	-0.107284494
182	0xbe628c16	-0.22123751
183	0xbdd448fd	-0.10365484
184	0xbe79c81f	-0.24392746
185	0x3e820335	0.25393072
186	0xbe14ec0f	-0.14543174
187	0xbe224d05	-0.15849693
188	0x3dd23af2	0.10265149
189	0xbe111a5e	-0.14170215
190	0x3c8ddcdd	0.01731723
191	0xbd61d2b1	-0.05513257
192	0xbe01180c	-0.1260683
193	0xbb160ac8	-0.002289461
194	0x3ea32f77	0.3187215
195	0xbdd3ec07	-0.10347753
196	0x3deaa1a6	0.11456613
197	0x3e0463f6	0.12928757
198	0x3e927718	0.28606486
199	0xbd5c8cf1	-0.05384535
200	0x3e3ad16c	0.1824395
201	0xbe9a5592	-0.3014341
202	0xbd017502	-0.031605728
203	0x3dd48df3	0.10378637
204	0x3e3564e2	0.17714265
205	0x3c10e76e	0.00884424
206	0xbe2672ab	-0.1625468
207	0xbca240ed	-0.01980635
208	0x3e0e3921	0.1388898
209	0x3e26ba50	0.1628201
210	0x3e09cba1	0.13456585
211	0x3e2ef48c	0.17085475
212	0xbe4c5bfd	-0.19956966
213	0x3dc84725	0.09779195
214	0x3dc3b9e0	0.09556937
215	0x3ea68320	0.32521915
216	0x3d91d6c6	0.07121043
217	0xbed8da7d	-0.42354193
218	0xbea4ae26	-0.32164115
219	0x3cbb104e	0.022834923
220	0xbe308ef9	-0.1724204
221	0x3e203de0	0.15648603
222	0x3db24588	0.08704668
223	0xbdb7fb4c	-0.08983478
224	0xbd46f811	-0.04857642
225	0xbe5c9fb8	-0.21545303
226	0x3d665a3d	0.0562384
227	0x3e2e374c	0.17013282
228	0x3e020279	0.12696256
229	0x3e9141c9	0.28370503
230	0xbdb76547	-0.08954864
231	0xbde4eb44	-0.11177686
232	0x3e8d893e	0.2764377
233	0xbdc053d4	-0.09390989
234	0xbdc76513	-0.09736075
235	0xbdabf3cd	-0.08396111
236	0xbdf1dd07	-0.11809736
237	0x3e1f4e03	0.15557103
238	0x3da4993e	0.08037041
239	0xbe6bfec8	-0.2304641
240	0xbe3de9ee	-0.18546268
241	0xbdacd9d4	-0.08439985
242	0x3e65a62a	0.22426668
243	0xbd0c9827	-0.03432479
244	0xbd6c5440	-0.057697535
245	0xbb99e83f	-0.0046968753
246	0xbdcc0e92	-0.099637166
247	0xbe0a2ace	-0.13492891
248	0xbdffd196	-0.12491147
249	0x3eaa9cc2	0.33322722
250	0x3e3c1f3c	0.1837129
251	0x3d0444fb	0.032292347
252	0x3e1aa0be	0.15100381
253	0xbdc205e0	-0.09473777
254	0xbd4f8615	-0.05066498
255	0xbe6d5ca9	-0.23179878

fc.bias f4 [43]
0	0xbec5e61f	-0.3865213
1	0xba0f341e	-0.0005462783
2	0x3dac70dc	0.08419964
3	0x3ded5715	0.11588875
4	0x3d4dc2fa	0.050234772
5	0x3d696348	0.056979448
6	0xbcf00172	-0.029297564
7	0xbcc51248	-0.024056569
8	0x3e0b2e2d	0.13591833
9	0x3c4b2c13	0.012400645
10	0xbe56d4cc	-0.20979613
11	0xbdbbdae0	-0.091726065
12	0x3d8d1a67	0.068898015
13	0xbe03d685	-0.12874801
14	0xbe29d0d6	-0.16583571
15	0xbdf13922	-0.11778475
16	0xbeb00874	-0.3438145
17	0xbdac925a	-0.08426352
18	0x3e985409	0.29751614
19	0x3c8efff2	0.017456029
20	0x3af13eb0	0.0018405523
21	0xbdab3c6e	-0.083611354
22	0xbeb94e06	-0.3619234
23	0x3c9fdf54	0.01951567
24	0xbd038d81	-0.03211737
25	0x3e291f5c	0.16515869
26	0xbe26200a	-0.1622316
27	0xbe7763fe	-0.24159238
28	0xbd048e86	-0.032362483
29	0xbddf4439	-0.10901684
30	0xbd8fb122	-0.07016207
31	0x3e424119	0.18970145
32	0x3e20c50d	0.15700169
33	0xbcfca5a9	-0.030840712
34	0xbe957789	-0.2919276
35	0xbdaf4397	-0.085578136
36	0xbda427ae	-0.08015381
37	0xbe32006a	-0.1738297
38	0x3e668ab7	0.22513853
39	0xbe3321a4	-0.17493302
40	0xbe032757	-0.12807976
41	0xbe06c624	-0.13161522
42	0xbee3aa1b	-0.44465718
