saved_models/FADA-few-shot-retraining/gtsrb/encoder_gtsrb_3.pt (torch_old, 318381 bytes, 6 tensors)

conv1.weight f4 [32, 3, 5, 5]
00000000: b1f5 1abd d5bb 0b3d 32c2 383d 7de2 98bd
00000010: d6ca 3abe ca50 373d 2ce4 e23b 5d32 cbbc
00000020: 5802 91bd c65f 703d 0a34 363d 4842 453d
00000030: fa80 703d f4c0 033e ddde c5bc d811 053d
00000040: d66e 93bd a3b2 f9bd d322 67bd 62c1 7dbc
00000050: 1a41 bbbc dc74 e53d 5493 a23d 7ffc fb3b
00000060: a552 6c3d 7f69 ea3d 2c6d 59bd 29a2 bc3b
00000070: 8807 2d3d ab8d 983d 79d9 81bd 59f4 c43d
00000080: 6997 21bc 7a0b 003d 35d8 8fbb 6b6b 63bd
00000090: f41d d4bc d672 c3bd 4e7a 993a e426 133d
000000a0: 2805 a5bd 7e7a 313d 2719 08be 28d3 6d3d
000000b0: df70 01be ea34 013c c6a1 de3d d164 81bd
000000c0: dafa 24bd 0818 bbbc 7f41 203b 5fca 64bd
000000d0: b381 963d 248d 95bd bdbb 693d 9141 45bd
000000e0: 0bb1 a6bc 4624 a8bd 4b48 55bd 8259 ecbc
000000f0: ac40 ff3c 9bc7 bb3d 0d4b 793d 98ef af3d
00000100: facb 0d3e 663c ad3a 99f1 f83d d473 dbbd
00000110: e9d3 1dbd ba02 9ebd dd99 88bd 7182 43bd
00000120: bd85 54bd 9a6d 3a3e 8d5f c63d 9346 c63d
00000130: 6185 26be 43cb 01be d228 ecbd 7b63 08be
00000140: c9da fcbd f747 59be 95ec 1abe 2cf4 b73d
00000150: 965a 3d3e 207a 0bbe eeb2 b9be e4a7 543c
00000160: 5a53 893e 6f56 c63e ec49 3fbe e748 a6be
00000170: 1c53 923d 55fa db3e dc26 943e edf6 adbe
00000180: 5b1d 92be 044d 223e 70fc a43e 7ca9 ae3e
00000190: 715e 98bd 4947 62be 7fba 26be c290 cf3d
000001a0: d883 20bd c47a 12be 999e cbbe 04b2 f0bd
000001b0: 6844 603e cc0d 323e fc5a b3be f809 9abe
000001c0: 99df 113e 1bbd d53e 476b 6f3e c478 a0be
000001d0: 6b79 b4be f2c5 353e d72d 973e 13b3 bc3e
000001e0: d5ad fcbe 7921 c3be 35e8 eb3c 0ed2 ae3e
000001f0: 4295 933e 093a 40bd 3ec3 c2bd 6f9c 1a3c
00000200: eb12 a5bd a9da 3d3e 665a 1abd 2824 7abe
00000210: 1154 f1bd c493 3c3e e979 853e 00bf 8fbe
00000220: 6f8d 96be b38c 9a3d a8ae 903e 800e 9f3e
00000230: 022a 95be afd1 73be 114f ac3e 004f c03e
00000240: 91c0 8b3e cacd bebe 2e4f 87be c0e4 623e
00000250: 1156 943e 8c1f 013e 6b2a c6bd b710 21be
00000260: 97bd 2abd ee06 0dbe 6ccb 63bd a916 8fbd
00000270: f2d4 3ebe 5bbf 653d dd07 4ebd 677d 0ebe
00000280: 4220 19be 9c99 52be e46d b9bd eea6 19bd
00000290: 9693 f83c 01b9 60bc cbb8 51be bb37 30be
000002a0: c93f f8bd 1683 8e3d be1c 0d3d 46cc cfbd
000002b0: 1ee4 3bbd cd47 c5bd 9f23 ea3c e055 bc3c
000002c0: 9d63 ffba cf5e e33d 451d a8bd 3785 003c
000002d0: 17f8 fcbc 086c 803c 45df 1fbd 7802 64bc
000002e0: ef02 803d 6269 82bd 8688 b4bd 835c 9c3c
000002f0: e10e 80bd 7775 71bd 2bbe 353c 0cd6 2cbd
00000300: 2758 1ebd dabd 39ba 3192 c5bd 2497 943d
00000310: 1b0a 52bd 12ea db3d 58a0 053e 5793 54bd
00000320: 02d2 8f3c ba9b 513e 0808 533e 43d6 0b3e
00000330: bb8b 86bb cbb6 f43d afe3 9f3d 9a90 7c3e
00000340: 74e8 523e 67e1 913d e353 193e a4d1 0cbd
00000350: fc21 343e 8109 883d b169 403e 5916 9b3d
00000360: e302 4ebc fce6 bf3a ec1c 7c3d 6c5f cf3d
00000370: d691 363e 3e85 533e 626a 443d a65f 483d
00000380: 9e31 db3d fbee 22be d537 1ebe 541e 0fbe
00000390: b491 70be a83e 88be 2a0b 99bd f52e ac3d
000003a0: 05d0 053e 181f 3cbe 6123 d1be 13f5 92bd
000003b0: 76a1 9e3e 67a5 c23e 494b bcbd c054 bdbe
000003c0: 7bbd e0bd c320 283e 57e4 483e 16e7 b8bc
000003d0: ac48 adbe b6a4 82be e741 3a3e 77ad 533e
000003e0: f415 29bd acf0 72be 2c18 76bd bb64 90bd
000003f0: a730 3fbd 14e6 3dbe 6764 82be 34a6 8a3c
-0.037831966 0.034114677 0.045107074 -0.07465074 -0.18241438 0.04475478 0.006924173 -0.024804289
-0.07080525 0.058685087 0.044483222 0.048158914 0.05871675 0.12866575 -0.024154121 0.03248772
-0.07198875 -0.121922754 -0.056429695 -0.015488001 -0.022858191 0.1120393 0.07938257 0.007690012
0.057696003 0.11445903 -0.05308263 0.0057566357 0.04224351 0.07448896 -0.06340308 0.09616918
-0.009862759 0.031260945 -0.0043897876 -0.055522364 -0.025893189 -0.095433876 0.0011709423 0.03592576
-0.08057624 0.04332971 -0.13290845 0.058062702 -0.12640713 0.007886151 0.108706996 -0.06318057
-0.040278293 -0.022838607 0.0024453101 -0.05585706 0.07348957 -0.07302311 0.057063807 -0.048158232
-0.020348093 -0.082100436 -0.052070897 -0.028851274 0.031158768 0.09168931 0.06086259 0.08590621
0.13847342 0.0013216853 0.12155456 -0.10715452 -0.03853217 -0.07715364 -0.06669972 -0.04773182
-0.051885355 0.18205872 0.096861936 0.0968143 -0.16261818 -0.12675194 -0.11531223 -0.13319199
-0.123464175 -0.21218859 -0.15129311 0.08982119 0.18491587 -0.13620806 -0.36269325 0.012979481
0.26821405 0.3873782 -0.18680543 -0.32477495 0.07144758 0.42964426 0.28935897 -0.33977452
-0.2853802 0.15849692 0.32223845 0.3411368 -0.07439888 -0.22097506 -0.1628208 0.10135032
-0.039188236 -0.14304644 -0.39769438 -0.11752704 0.21901095 0.17388076 -0.35030353 -0.3008573
0.14245452 0.4174584 0.23380767 -0.31342137 -0.35248885 0.17751291 0.2952716 0.36855373
-0.49351373 -0.38111475 0.028797248 0.34144634 0.28824812 -0.046930347 -0.09509896 0.009436711
-0.08060249 0.18540443 -0.037683867 -0.24427855 -0.117836125 0.18415743 0.26069573 -0.2807541
-0.2940478 0.075463675 0.28258252 0.3106575 -0.29133612 -0.23810457 0.33654073 0.37560272
0.27295354 -0.3726638 -0.26427597 0.22157574 0.28971913 0.1260969 -0.09676059 -0.15729032
-0.041684713 -0.13772175 -0.05561392 -0.06986744 -0.1863592 0.056090694 -0.050300468 -0.13915025
-0.14953712 -0.2056641 -0.09054163 -0.037512712 0.030343812 -0.013715983 -0.20480649 -0.1720876
-0.12121541 0.069585964 0.03445124 -0.10146384 -0.045871846 -0.096328355 0.028581439 0.022990167
-0.0019484643 0.11102068 -0.08208708 0.007844261 -0.030880017 0.015676513 -0.039031286 -0.013916604
0.062505595 -0.063677564 -0.08815102 0.019087082 -0.06252838 -0.058949914 0.011092703 -0.04219632
-0.038658287 -0.000708548 -0.096470244 0.0725539 -0.05127917 0.10738005 0.13049448 -0.051898327
0.017556194 0.20469561 0.20608532 0.13655953 -0.0041060126 0.119489275 0.07807099 0.24664536
0.20596486 0.0712307 0.14973406 -0.034379616 0.17591089 0.06642438 0.18790318 0.07572622
-0.01257393 0.0014640982 0.06155102 0.10125622 0.1782907 0.20656297 0.047953017 0.048919342
0.10702823 -0.15911476 -0.15450986 -0.13976413 -0.23493081 -0.26610303 -0.074728325 0.08407394
0.13067634 -0.18371236 -0.40847304 -0.071756504 0.3098256 0.38016817 -0.09194047 -0.36978722
-0.109736405 0.16418748 0.19618355 -0.022571128 -0.33844507 -0.2551629 0.18189202 0.2067164
-0.0412807 -0.23724622 -0.060081646 -0.07050463 -0.046677258 -0.18544799 -0.25467226 0.016924955

conv1.bias f4 [32]
00000000: 0988 96be 0b66 f23d 9cf8 56be 503e 9c3d
00000010: 69c4 db3c 9ef9 703d 8239 093d 047c 90be
00000020: 9b36 c93d 1f48 b7be 6313 10be bf9b 5bbe
00000030: abf8 91bd 2ee5 acbe b36d b2bd e132 3cbd
00000040: ca02 94bd e831 a6be 2f39 95bc 9596 ccbe
00000050: 108a 68be 411e 81be 2302 0dbe 2bca 583d
00000060: 509b 3dbc bb64 44be f2dc 953d d409 19be
00000070: d5eb c23c 13af 3ebe 9e6f b83d 0097 86bd
-0.29400662 0.118358694 -0.20993274 0.07629073 0.026827054 0.058831804 0.03350211 -0.28219616
0.09824868 -0.35797212 -0.14069895 -0.21446131 -0.07127508 -0.337686 -0.0871233 -0.04594696
-0.072270945 -0.3245995 -0.018215744 -0.39958635 -0.22708917 -0.25218394 -0.13770346 0.052927177
-0.011572674 -0.1917905 0.073175326 -0.14945155 0.023794094 -0.18621473 0.09005664 -0.0657177

conv2.weight f4 [32, 32, 5, 5]
00000000: 6ad1 b33c 98b3 da3c ec47 173c 2076 b4bc
00000010: 1aa0 01be 1cdf 28bd 5f6e 2abd 74b6 a8bb
00000020: 14e1 88bc dd6e 5bbd b111 053d 2561 963c
00000030: 800b c03b f228 e73b 8c0d b2bb be7c d3bc
00000040: 57b9 173d 8efb 393b 0f80 c0bc edba 613c
00000050: 5530 d83c 7c30 e139 c245 14b7 9c77 2fbd
00000060: 0e08 62bd ca5b b1bb 0828 48be e1dc 3e3e
00000070: 6f49 4e3e ee4c cfbd 083b e8bd 799d 8ebe
00000080: 6e85 2f3e 5ccb 1f3e 837b c2bd 2ac2 49be
00000090: 8970 84be 9a10 813d f057 8d3d 487e 0cbe
000000a0: 987b 47bc e950 39bd 27cb 3dbd db42 33bd
000000b0: 74cb 23be ddec d43c 78d8 e0bc 3f8c d9bc
000000c0: 5a9a d4bd 09f1 93bd f1e1 e3bd 1e47 8fbd
000000d0: 7259 3abd 4fc7 cdbd 031e c0bd 0855 3ebd
000000e0: 79e0 80bd 20a8 7ebc bc3c b9bd c0fb 03bc
000000f0: 4a1f ac3d 6526 9b3c 0b01 54bd afb7 34bd
00000100: aec6 c43b c2ce cf3d ee56 a93c fc37 08bd
00000110: c7a8 89bd eb3d 7ebd 3fd0 2c3e bd4d f43d
00000120: e1a1 d43d d3ab 16ba a394 85bd bdb6 5a3e
00000130: 8d69 9f3d a3b4 e7be 80a1 2ebe 64fe 273e
00000140: 5534 593e 1677 533e 839b f5be b3f7 8dbe
00000150: 09da 923d 91d1 933d 1a81 283e d09b 84be
00000160: 1c13 adbe 3cf3 12be 5169 8abd 251c 41bd
00000170: ac0b d63c 5406 bf3c dcdd 2c3d 67fe 07be
00000180: f327 9dbd ca41 1ebd bbda 99bc f0f5 a03d
00000190: b64f 563e 2adc 53be 0078 5abe ae3d 193d
000001a0: cfe5 793d 897e 193d 88aa d1bd a9eb 98be
000001b0: cef0 e4bd ec90 80be 81b6 73be 7cf3 68be
000001c0: f4fb 34bd 6ed4 04be 368d 80be 7174 233d
000001d0: c335 043e fa86 db3d 5d22 c23b 4641 8c3c
000001e0: 994e 71bc 406d 573c d6c8 2abd fe4f 03bd
000001f0: 228e 333d 2580 cfbe fa04 3abe f941 4dbd
00000200: bbdc 02bd 3a91 3abe 99b3 c03d 3ed5 90be
00000210: 74c9 36bd 5099 bc3c c4c6 613d d880 9d3e
00000220: 08f1 72bd a975 f1bd 27ee 7d3d c114 b63d
00000230: 9ae7 0a3e 185d 6dbd 5c38 cabe 20f4 40be
00000240: 4fcc e7bd 043b 763e 34c3 a93e fa45 673e
00000250: 2c03 9b3c 37a4 a2bc 90ae 5c3e b66d a73d
00000260: d2a3 a7be a55e d83b b726 143e c667 d63d
00000270: 2c26 003e 708b 12be 7cd0 8bbe 73a2 d5bd
00000280: 30d7 3fbd ce34 3d3c 4688 43be 8894 84be
00000290: 4a40 33be 0aab 5b3c dee9 a13c 39d6 f53c
000002a0: 099f 813d e2bf 0a3e 2c02 21bc 424e f53d
000002b0: 4705 663d e045 213d c212 333e 2597 99bd
000002c0: a076 283c f2d6 113d 3855 d8bc 7f53 c6bd
000002d0: c6cd 343c 201a 253c bea4 9e3b 84d9 85bc
000002e0: 210c 1bbe c9a2 9f3d a14d 5f3d 5059 293d
000002f0: 2105 bdbc 5fb2 72bd 7df9 4e3d 8d58 1ebd
00000300: 2752 ecba 47f9 c0bd ae66 153b c84a aebc
00000310: 31d0 0f3c 335c d03c 41fc 6d3c e2bb 99bb
00000320: 6061 213e f2d4 cc3d 5cdd 52be b59b f8bd
00000330: 17e8 1ebd 55df d13d e419 423e a1a0 0c3c
00000340: 9aa1 d0be 4d88 79be a2cf 13be 7e30 983d
00000350: a089 5ebd 0fb6 1cbe c5d2 bebd e26d 1cbe
00000360: 7c7f 63bd 7616 b3bd 4406 e23c f5bf f73d
00000370: edd7 adbd 2ae1 4dbe 3c3f 0cbe bb75 d7bd
00000380: ece2 583c 9bf3 c83b 78b5 733c a743 12bd
00000390: df68 22be 7863 ea37 eb35 97bd 1b8a 973d
000003a0: 2024 f7bd 4dd5 3cbe 217b 1bbd 1ab0 c73d
000003b0: 75a6 8bbb 9deb 01bd ccc5 eebd adb5 d9bb
000003c0: 145c a53d a0ef b33d d790 f63c 64f3 85bd
000003d0: 06df 123d 4340 ce3d c0d4 1b3e 28d2 d43c
000003e0: 7eb1 c03c 753e 6b3d c98f 613d 8fb9 cebc
000003f0: ed7a 0b3d 1a58 7b3d b330 35be 9ae5 41bd
0.021950442 0.026696965 0.009233456 -0.022028983 -0.1265873 -0.0412284 -0.041609164 -0.005148703
-0.016708888 -0.053572524 0.032487575 0.018356869 0.005860746 0.0070544416 -0.005433744 -0.025816318
0.03704199 0.0028378698 -0.023498563 0.013777477 0.026390234 0.00042951468 -8.837729e-06 -0.042838678
-0.055183463 -0.0054125534 -0.1954652 0.18638946 0.201452 -0.10122095 -0.11339384 -0.27854517
0.17140743 0.15604919 -0.09496214 -0.19702974 -0.25867108 0.063019946 0.06901538 -0.13720047
-0.012175463 -0.045243178 -0.04633632 -0.04376493 -0.1599558 0.025991851 -0.02744697 -0.026556132
-0.10381003 -0.07223708 -0.11127079 -0.069959864 -0.045495458 -0.10047781 -0.09380724 -0.04646781
-0.06292815 -0.015543014 -0.09044787 -0.008055627 0.084044054 0.018939206 -0.051758807 -0.044120487
0.00600513 0.10146858 0.020671334 -0.033256516 -0.06721645 -0.06207077 0.16876315 0.1192889
0.103824385 -0.00057476497 -0.06522491 0.21358772 0.07783804 -0.45255002 -0.17053795 0.16405636
0.2121137 0.20650896 -0.4797021 -0.27728042 0.07170493 0.07217706 0.16455498 -0.25900126
-0.33803642 -0.14350599 -0.06758369 -0.04714598 0.026128612 0.023318447 0.04220377 -0.1328064
-0.07673635 -0.03863696 -0.018781057 0.07859409 0.20928845 -0.20689455 -0.21334839 0.037412338
0.06101018 0.03747419 -0.102376044 -0.29867294 -0.11178742 -0.25110567 -0.23800088 -0.22749132
-0.044185594 -0.1297166 -0.25107735 0.03990597 0.12911133 0.10719104 0.0059245066 0.017120969
-0.014728212 0.013148606 -0.04169544 -0.03205871 0.04383672 -0.40527454 -0.18165961 -0.050111745
-0.031948786 -0.18219462 0.094092555 -0.2828769 -0.044625714 0.023022324 0.0551212 0.30762362
-0.059311897 -0.1179002 0.061994698 0.08890677 0.13564911 -0.05795011 -0.39496124 -0.18843126
-0.11318266 0.2404595 0.3315674 0.22585288 0.01892241 -0.019853694 0.21550965 0.081752226
-0.32742172 0.0066030794 0.14467894 0.10469012 0.12514561 -0.14311004 -0.27307498 -0.10431375
-0.04683608 0.011548234 -0.19094953 -0.2589457 -0.17504993 0.013407478 0.019764837 0.030009376
0.06329162 0.1354976 -0.009827178 0.11977817 0.056157377 0.03937328 0.17487624 -0.07499532
0.010282189 0.03560538 -0.026407823 -0.09683894 0.011035388 0.0100770295 0.004841416 -0.016339071
-0.15141346 0.07794721 0.054517392 0.04134494 -0.023073735 -0.05925214 0.0505309 -0.038658667
-0.0018029854 -0.09422546 0.0022796798 -0.021275893 0.008777664 0.025434589 0.014525474 -0.004691587
0.15759802 0.100015536 -0.20592254 -0.12139074 -0.038795557 0.10247675 0.18955189 0.008583219
-0.40748292 -0.24368401 -0.14434674 0.07431124 -0.05433047 -0.15303825 -0.09317545 -0.15276292
-0.0555415 -0.087445185 0.027590878 0.1209716 -0.0848845 -0.20105425 -0.13695997 -0.10520502
0.013237696 0.0061325557 0.0148748085 -0.03570905 -0.15860318 2.7941293e-05 -0.07383331 0.073993884
-0.12067437 -0.18440743 -0.03795922 0.097503856 -0.0042617866 -0.03171884 -0.116588205 -0.006643972
0.08074203 0.08785939 0.030098362 -0.06540564 0.035857223 0.10070851 0.15217876 0.025979117
0.023522135 0.05743261 0.055068765 -0.025234966 0.034052778 0.061363317 -0.17694359 -0.047338106

conv2.bias f4 [32]
00000000: b80e de3d a7b6 773c 7f83 613d a9f5 0fbd
00000010: daed 8ebc 59b1 243e 6ed7 003e 45ce 6d3e
00000020: 348a d03c e39c 383e 041c e23d 6f26 4f3d
00000030: db95 c63d d324 ac3c 051f fc3d 2ada e23d
00000040: 0a41 d13d c934 973e b4ce cdbb 99cc b03d
00000050: dde7 f33d 7057 593e 7d04 f23d 7c9d 713e
00000060: 67f9 ee3d 87d9 613b 8a6a 2ebb e3cb ad3d
00000070: b0c1 ff3d 63a6 2f3e 1b45 1b3c ada5 2d3e
0.10842651 0.015119231 0.055057045 -0.03514639 -0.0174474 0.16083278 0.1258218 0.23223217
0.025456525 0.18028598 0.110405 0.050573763 0.096965514 0.021013653 0.12310604 0.11076768
0.10217483 0.2953246 -0.0062807444 0.08632774 0.11909459 0.21224761 0.11817262 0.23595232
0.116686635 0.0034461932 -0.0026613795 0.08486154 0.12488115 0.17153315 0.009476925 0.16957732

fc.weight f4 [64, 800]
00000000: 9167 2f3c c7eb dc3d 06bc 8a3d 0f37 a43d
00000010: 996c c43c 9702 9f3c e2b4 5d3e c2b6 0abc
00000020: 95c9 5bbc cf55 46bd ee6b 583d 1a95 7f3e
00000030: 30f6 61be 123d bebe f9bf 9ebc 302b fd3b
00000040: 19f2 ad3c d58c 1dbe b102 22be 8476 dc3d
00000050: ebdd 8abd 9824 23bd 265c ccbe 394a a5bd
00000060: a80d 043d f4f6 5c3e e6c8 043e 834b 8abd
00000070: db64 b6bc 0010 eb3d 399e 6d3c 3efd c8bc
00000080: fcff 0bbe d930 edbd 78ab d7bd 1d52 c7bc
00000090: 20b9 51bd a530 17be 2958 afbd 0839 07be
000000a0: b457 b93d 29e9 3dbd f0ba b8bb 12ae c33d
000000b0: d2a5 53be 2af7 febd f043 9ebd 7017 50bd
000000c0: 2c0e 0fbe 8d48 29be aced 79ba fb2f a6b9
000000d0: 2071 85bd 668c 133e de1b 4b3e 3f78 6c3d
000000e0: c6a7 15be 9dac 5bbe cb5e e0bc 655b c73d
000000f0: c70d 0b3d e427 d8bd 858e 3bbe 2210 00be
00000100: 7e68 853c 7690 78bd d44f f3bd 73fe cc3e
00000110: 709e ab3d 1061 3d3c 00f2 5cbd 68bb b5bd
00000120: 7f1e 51bc 4372 ba3d 43c3 513d 79f1 febc
00000130: 768c 69bc e4ca 20bd 5ed3 0bbb 684f d23b
00000140: c36d 4f3c 1085 083c b738 2fbb 9792 b33c
00000150: 6920 08bd 7aa3 09bc f2ee 993b 6a7b c2bc
00000160: 1207 45bb 5f89 9dbc 14e2 a4bc cc4a 433c
00000170: 8ca7 09b8 7714 30b7 7c86 073b 2d35 33bc
00000180: 1218 70bb 7e7b 133a b756 373c 3864 14bc
00000190: 4341 bd3b 5fe7 c73c 614c 823c 4263 94ba
000001a0: d9d3 cb3c e274 ccbc 7405 273d 3c64 0b3d
000001b0: dfa1 193c fbea b7bc d3d7 bcbb 5708 2739
000001c0: 60e2 c23c bc47 2bbc 8f1c 963c 9c49 783c
000001d0: f7c4 6c3b 6291 d2bc 99f9 953c dde6 f43c
000001e0: 5fdc d43b 444a 40bb aafc dabb 240b 813b
000001f0: 1748 24bc 2aad 833c 2659 8ebd 8861 13be
00000200: 6f91 11be 9cde 1fbd 340e 49bd 86b0 06be
00000210: 3854 a33d 00c8 5d3c 14a0 9d3d ae0a 5dbe
00000220: bdc2 c3be c8fc 05be 2a06 173d 8498 32be
00000230: 9463 d83c 51be c53c b3b2 c43e 40a2 823d
00000240: c4f5 21be 0e39 5dbd 363e 14be c141 bc3d
00000250: 16c0 7d3d f7d1 22bc e215 443e c3f5 1e3e
00000260: 58c6 243c 4f7a 2c3d 993a 063e 30bc be3d
00000270: 1460 2ebc 356a 02bd 06f6 7e3d e9ff a73d
00000280: 8bee 3dbe be54 0c3e e20d 923d 66d3 e1be
00000290: b26b 99bd 0782 3a3d 7dcf a23e 3a78 753e
000002a0: 5ac8 0dbd 9652 2cbe dba8 91bd e1bf d5bd
000002b0: 04d9 80be 8ead b8bc c8cf a23d b644 543d
000002c0: 2022 613d ecab d2bd 84a1 403d ba22 b93d
000002d0: f3d9 c83d 9427 0dbe a632 24bd 6d37 85bd
000002e0: 9ad7 32be 4723 0a3e 6d2e 5ebd 6e89 893c
000002f0: f9c0 153c 87b6 273d 2898 923d 26f0 c5bc
00000300: 4813 16bb cf1b eb3c 5c6e 653d ed70 133d
00000310: a5f3 433e 4169 ad3d 8386 883d 8735 00be
00000320: 4b9e 723e a9ed 1b3e 553b 20be 4ecf 0fbd
00000330: ef02 2c3e 2e5f 003e fae4 dabc a83a 9cbd
00000340: b863 c33c e33f bc3c c00d 83bd 81ef 003e
00000350: 97f5 a43d 2a03 e6bd 6300 c2bd 15cb 813d
00000360: 6ef3 0a3d 5450 9f3d 70cb 29be 725c e0bd
00000370: d3a8 ce3c 2efe f1bd fbd1 ccbd 7555 22be
00000380: 4df0 6e3c da47 6c3e 8880 123e a708 833e
00000390: f76f b4bc 94f0 ee3c 3912 45bd d8a6 66bd
000003a0: 0fe4 24bd 7328 d0bc 5d0b 683d fa2b ed3c
000003b0: 6e4f 063d 29b8 15be 35e2 9ebc 0d6c d1bd
000003c0: 050b ddbd 0ecc 173d e09f 18bd 348f 3fbd
000003d0: 5947 1c3e 271d e8bd 3532 17be b1e4 843c
000003e0: 93bf 6b3d fbfc 923c f95a 563c e925 0dbd
000003f0: 317c a3bd cd5e 4d3d e1c0 8e3d c2b8 5cbc
0.0107058445 0.107871585 0.06774144 0.08018314 0.023977565 0.019410415 0.21651033 -0.008466424
-0.01341476 -0.048421677 0.052837305 0.24959221 -0.2206657 -0.37155968 -0.01937865 0.0077260956
0.021233605 -0.15385754 -0.15821339 0.107647926 -0.06780609 -0.03982982 -0.39914054 -0.080707975
0.032239586 0.2157858 0.12967262 -0.06752684 -0.022264889 0.11477661 0.014503055 -0.024534818
-0.13671869 -0.115815826 -0.10530752 -0.024331147 -0.05120194 -0.1476465 -0.08561737 -0.1320535
0.09049931 -0.046364937 -0.005637519 0.09554686 -0.20668724 -0.124494866 -0.07727802 -0.0508036
-0.1397025 -0.16531582 -0.0009534012 -0.00031697736 -0.065157175 0.14409027 0.19834849 0.057731863
-0.14614782 -0.21452565 -0.02738895 0.09734229 0.033948686 -0.105544835 -0.18316086 -0.12506154
0.016285177 -0.060684644 -0.118804604 0.4003788 0.08379829 0.011558786 -0.053941727 -0.088736355
-0.0127636185 0.09103825 0.051211607 -0.031121003 -0.01425468 -0.03925599 -0.0021335701 0.0064181574
0.012660447 0.008332506 -0.0026736686 0.021920485 -0.033234034 -0.008400792 0.004697674 -0.023740489
-0.0030064029 -0.019230543 -0.020127334 0.011919688 -3.2819386e-05 -1.0495182e-05 0.0020679524 -0.010937971
-0.003663544 0.0005626007 0.011190108 -0.009057097 0.005775602 0.024402319 0.01590556 -0.0011321085
0.02488129 -0.024958078 0.040776685 0.034031138 0.009376972 -0.022450915 -0.005763033 0.00015929468
0.023789585 -0.0104541145 0.018324165 0.015154269 0.0036128142 -0.02570409 0.018307494 0.02989524
0.006495997 -0.002934114 -0.006682952 0.0039380956 -0.010026953 0.016073782 -0.069505975 -0.14392674
-0.14215635 -0.039030656 -0.04908581 -0.13153276 0.07975048 0.013536453 0.07696548 -0.21586105
-0.3823451 -0.1308471 0.036871113 -0.17440993 0.02641467 0.024138601 0.38417587 0.06378603
-0.15816408 -0.05400949 -0.14476857 0.09192229 0.061950766 -0.009937755 0.19148973 0.15523438
0.010057054 0.04210883 0.1310829 0.09313238 -0.010643024 -0.03183957 0.062246345 0.08203108
-0.18548028 0.13704202 0.07131554 -0.44106597 -0.074912444 0.04553416 0.31798926 0.23971644
-0.0346149 -0.16828379 -0.07112285 -0.104369886 -0.2516557 -0.022543695 0.079497874 0.05182334
0.054964185 -0.10286698 0.047029033 0.09039827 0.098071955 -0.13784629 -0.040087365 -0.06504712
-0.17465058 0.1349002 -0.054243494 0.016789164 0.009140247 0.040945556 0.07157928 -0.024162363
-0.0022899676 0.028699784 0.05601345 0.035996366 0.19135912 0.08467341 0.06666281 -0.12520419
0.23693196 0.15227379 -0.15647633 -0.03510981 0.16797994 0.12536308 -0.026720513 -0.07628375
0.02385126 0.022979682 -0.06399107 0.12591363 0.08054655 -0.11231072 -0.0947273 0.06337563
0.03392356 0.07778993 -0.16581511 -0.109551325 0.025226986 -0.11816059 -0.10000988 -0.15852912
0.014583659 0.23074284 0.14306843 0.2559254 -0.022026045 0.029167451 -0.04811308 -0.05631146
-0.040256556 -0.025409913 0.056651462 0.028951634 0.032790594 -0.14621033 -0.019394973 -0.10225687
-0.107931174 0.037059836 -0.037261844 -0.04676743 0.15261592 -0.11333685 -0.14765246 0.01622233
0.057555746 0.017942896 0.013083213 -0.034459982 -0.07982672 0.050139237 0.069703825 -0.013471784

fc.bias f4 [64]
00000000: f6d9 0fbe 41c6 10bd 4385 343d 1e17 94bd
00000010: 9b8c 7e3e 67bb ed3d 3c33 f53d 6beb 3bbc
00000020: f42a 983c 0fb0 e83b a828 f1bb f4d0 133d
00000030: 96c3 163e ce7e da3b 6c52 d53c 791e 463e
00000040: e9a6 8e3d 1d81 60be 60af c23d 6ff7 b4bd
00000050: 773a 11be 9018 03bc dcf0 37bd f958 3d3e
00000060: 03c1 d33d 877a ff3d b4b0 f3bd 6689 35bd
00000070: 3d41 f2bd 8c9b 8c3e 27de 0e3e a655 bcba
00000080: 4728 7ebc 8fe0 993c 0000 fe3c 5f59 c2bd
00000090: 7587 7b3e 880a 443e 10cb 3dbe 193f f6bd
000000a0: 7993 583d 2ffd 24be 0dfe b3bd f082 90bc
000000b0: 8cd4 063d 3400 24be edfd 1abe 0725 01bd
000000c0: 0043 cb3d 4f86 543e b95f 123e 912f 803e
000000d0: 563f b6bd 4ed9 46be a0b5 07be cc66 1cbe
000000e0: bd68 a7be 0df0 faba f562 00bd 56f4 b13c
000000f0: 6b94 85bc 2d4e 8e3d 1ab1 5e3d 1347 d23d
-0.14047989 -0.03534532 0.0440724 -0.07230972 0.24858324 0.1160801 0.11972663 -0.011469702
0.01857517 0.007101066 -0.007359583 0.036087945 0.14723048 0.0066679483 0.026040278 0.19347562
0.06965429 -0.21924253 0.095061064 -0.08836257 -0.14182459 -0.008001462 -0.044907436 0.18490972
0.103395484 0.12474542 -0.11898938 -0.044320486 -0.118288495 0.27462423 0.13951932 -0.0014368787
-0.015512533 0.018783836 0.03100586 -0.094897024 0.24563392 0.19144642 -0.18534493 -0.12023754
0.052875016 -0.16112207 -0.08788691 -0.01764056 0.032917544 -0.16015702 -0.15135927 -0.031529453
0.099248886 0.2075436 0.14294328 0.2503629 -0.08898799 -0.19418833 -0.13252878 -0.15273589
-0.32697096 -0.0019145027 -0.031344373 0.021722954 -0.016306123 0.069485046 0.054368116 0.102674626
