saved_models/FADA-few-shot-retraining/gtsrb/encoder_gtsrb_11.pt (torch_old, 318379 bytes, 6 tensors)

conv1.weight f4 [32, 3, 5, 5]
0	0xbd118b17	-0.035533037
1	0x3d2ac9f9	0.041696522
2	0x3d4ee3fe	0.0505104
3	0xbda0eef5	-0.078580774
4	0xbe3527da	-0.17690983
5	0x3d359484	0.04433109
6	0x3bf7ba1c	0.0075600278
7	0xbc993b54	-0.018705048
8	0xbd8f2afb	-0.0699062
9	0x3d382baf	0.044963535
10	0x3d0097f8	0.03139493
11	0x3d2588d3	0.04041369
12	0x3d464002	0.048400886
13	0x3df19732	0.11796416
14	0xbd2c8b8b	-0.042125266
15	0x3cc391db	0.02387326
16	0xbd99380a	-0.07481392
17	0xbded8350	-0.115973115
18	0xbd98e405	-0.07465366
19	0xbd1951dc	-0.037431583
20	0xbd0a71c5	-0.033799905
21	0x3ddaab73	0.106772326
22	0x3d75380f	0.059867915
23	0xbca310fd	-0.019905562
24	0x3d2ffcaa	0.04296557
25	0x3ddb158b	0.10697468
26	0xbd626e80	-0.055281162
27	0x3c0c2282	0.008553149
28	0x3d2327ea	0.039832987
29	0x3d962c81	0.07332707
30	0xbd8bf436	-0.06833689
31	0x3db8c158	0.090212524
32	0xbbbb84ba	-0.0057226093
33	0x3d106053	0.035248112
34	0xbc872423	-0.016496724
35	0xbd9e713d	-0.07736442
36	0xbc7268bb	-0.0147954775
37	0xbda43fbc	-0.08019969
38	0xbb9872b1	-0.004652344
39	0x3caf446f	0.021394936
40	0xbdb8400d	-0.08996592
41	0x3d373c86	0.044735454
42	0xbe010140	-0.12598133
43	0x3d486a94	0.048929766
44	0xbe14ce52	-0.1453183
45	0x3c735990	0.014852896
46	0x3dd7ed4d	0.105433084
47	0xbda93451	-0.08261932
48	0xbd6021f0	-0.054719865
49	0xbce4f5a2	-0.027949158
50	0xbb513eb8	-0.0031928252
51	0xbd71a7fd	-0.058998097
52	0x3da0395f	0.07823443
53	0xbd905a68	-0.070484936
54	0x3d75b78f	0.05998951
55	0xbd333287	-0.04374936
56	0xbccfc7de	-0.025363859
57	0xbd9eaa9d	-0.07747386
58	0xbd3671b2	-0.044542022
59	0xbd16b0a2	-0.036789544
60	0x3c4f921a	0.012669111
61	0x3dd28042	0.102783695
62	0x3d9d1e70	0.07671821
63	0x3db18c90	0.08669388
64	0x3e05b922	0.13058904
65	0xbc036ece	-0.008022023
66	0x3dfb71fb	0.122775994
67	0xbdc934af	-0.09824502
68	0xbd0ad1e8	-0.03389159
69	0xbda590a7	-0.08084231
70	0xbd5e59ac	-0.054284737
71	0xbd4c71df	-0.049913283
72	0xbd85c10c	-0.065309614
73	0x3e347eba	0.17626467
74	0x3dd92195	0.106021084
75	0x3dbba895	0.09163014
76	0xbe272b38	-0.1632508
77	0xbdfbca86	-0.12294488
78	0xbde1cd56	-0.11025493
79	0xbe04512a	-0.12921587
80	0xbe002e82	-0.12517741
81	0xbe553d23	-0.20824103
82	0xbe17af9f	-0.14813088
83	0x3dc16bd0	0.09444392
84	0x3e3be70e	0.18349859
85	0xbe0f805d	-0.1401381
86	0xbebad73d	-0.3649234
87	0x3c032145	0.008003538
88	0x3e88d687	0.2672617
89	0x3ec43c01	0.3832703
90	0xbe40abea	-0.1881558
91	0xbea596ec	-0.32341707
92	0x3d8ca50b	0.06867417
93	0x3ed84b03	0.4224473
94	0x3e917586	0.28409976
95	0xbeaf963f	-0.34294316
96	0xbe924cd1	-0.2857423
97	0x3e16c92a	0.14725175
98	0x3e9d1e91	0.30687383
99	0x3eab157c	0.3341483
100	0xbda3b2e7	-0.07993107
101	0xbe625dd6	-0.22106108
102	0xbe203365	-0.15644605
103	0x3de2740c	0.110572904
104	0xbceeebce	-0.029165175
105	0xbe167e1c	-0.14696544
106	0xbeca91c2	-0.3956433
107	0xbddf7ca0	-0.10912442
108	0x3e6a5116	0.22882494
109	0x3e37fadf	0.17966793
110	0xbeb6db9c	-0.35714424
111	0xbe9bda06	-0.30439776
112	0x3e1149f5	0.14188369
113	0x3ed77238	0.4207933
114	0x3e71b996	0.23605952
115	0xbea29f9e	-0.31762403
116	0xbeb3e580	-0.35136032
117	0x3e3533f6	0.17695603
118	0x3e94d2a4	0.29066956
119	0x3ebd9296	0.370259
120	0xbefef9f2	-0.49800068
121	0xbec487b6	-0.3838479
122	0x3c938009	0.018005388
123	0x3ea9ca2a	0.3316205
124	0x3e93c3a2	0.28860193
125	0xbd62c6ca	-0.05536536
126	0xbdc0a361	-0.09406162
127	0x3ca53650	0.0201675
128	0xbd8d1a78	-0.06889814
129	0x3e4aaa83	0.19791608
130	0xbd321ca2	-0.043484338
131	0xbe78945c	-0.24275345
132	0xbdda9680	-0.10673237
133	0x3e4a1f0c	0.19738406
134	0x3e897c63	0.26852712
135	0xbe9377ca	-0.2880233
136	0xbe991d24	-0.29905045
137	0x3d9856ef	0.07438456
138	0x3e93eae4	0.28890145
139	0x3ea276c5	0.3173124
140	0xbe96b2f6	-0.2943341
141	0xbe721ea5	-0.23644502
142	0x3eac666c	0.33671892
143	0x3ec03798	0.37542415
144	0x3e8f0037	0.2792985
145	0xbec0cedf	-0.3765783
146	0xbe89c47f	-0.26907727
147	0x3e585535	0.21126254
148	0x3e9236e3	0.285575
149	0x3e07c1fa	0.1325759
150	0xbdc0486a	-0.09388812
151	0xbe1eb97d	-0.15500446
152	0xbd12313e	-0.035691492
153	0xbdff8766	-0.12476997
154	0xbd431872	-0.047630735
155	0xbd9b1dc1	-0.075740345
156	0xbe3f3035	-0.18670733
157	0x3d55bf8c	0.052184626
158	0xbd444fa3	-0.04792751
159	0xbe0b3d54	-0.13597614
160	0xbe25941d	-0.16169782
161	0xbe577e11	-0.21044184
162	0xbdcbe575	-0.09955875
163	0xbd1a6c76	-0.037701093
164	0x3d01c840	0.031685114
165	0xbcdeb27a	-0.027184714
166	0xbe4d4a10	-0.20047784
167	0xbe3846f7	-0.17995821
168	0xbdf79f76	-0.12090962
169	0x3d913aa2	0.070912614
170	0x3cb2d46b	0.021829804
171	0xbdcd51ab	-0.100253426
172	0xbd5ad8da	-0.053429462
173	0xbdd28a86	-0.102803275
174	0x3d04317e	0.032273762
175	0x3cbcc1a0	0.023041546
176	0xbc1b3cdb	-0.009474958
177	0x3de06a7a	0.10957809
178	0xbd9ac63b	-0.07557341
179	0x3c29b5c9	0.010358282
180	0xbd37154f	-0.044698056
181	0x3b77ca16	0.0037809662
182	0xbd4bfc06	-0.049800895
183	0xbc9e09ea	-0.019291837
184	0x3d8079dd	0.062732436
185	0xbda07930	-0.07835615
186	0xbdca1fab	-0.098693214
187	0xb92b88cd	-0.00016358793
188	0xbd8d12ac	-0.06888327
189	0xbd7369d6	-0.059427105
190	0xbbc020ff	-0.0058633084
191	0xbd32b5f3	-0.04363055
192	0xbd4342d1	-0.047671143
193	0xbbc2057f	-0.0059210653
194	0xbdc9cdab	-0.09853681
195	0x3d6886cc	0.056769177
196	0xbd690872	-0.05689282
197	0x3dbcfc53	0.092278145
198	0x3df1f4bd	0.11814258
199	0xbd652350	-0.05594188
200	0x3ca09333	0.01960144
201	0x3e40e7d1	0.18838431
202	0x3e481703	0.19540028
203	0x3e0a6750	0.13515973
204	0xbc0fad84	-0.008769397
205	0x3dc7112f	0.097200744
206	0x3d6500ff	0.055909153
207	0x3e694832	0.22781447
208	0x3e464afb	0.1936454
209	0x3d7b3a7a	0.061335064
210	0x3e03ddec	0.12877625
211	0xbd494e6e	-0.049147062
212	0x3e1605a0	0.14650583
213	0x3d584c30	0.052807033
214	0x3e3960df	0.1810336
215	0x3d5fb848	0.054619104
216	0xbc6af6a4	-0.01434103
217	0xbc11d62c	-0.00890116
218	0x3d5e0698	0.054205507
219	0x3dc1bde4	0.09460047
220	0x3e270772	0.16311434
221	0x3e4dd382	0.20100215
222	0x3d0195eb	0.031637114
223	0x3d1588bc	0.036507353
224	0x3dc16753	0.09443536
225	0xbe23c0da	-0.15991536
226	0xbe1fab5b	-0.1559271
227	0xbe0b941e	-0.13630721
228	0xbe61c9b9	-0.22049607
229	0xbe83ff35	-0.25780645
230	0xbda2a680	-0.079419136
231	0x3d9f79db	0.07786914
232	0x3e04f994	0.12985831
233	0xbe38e0fa	-0.18054572
234	0xbecdcd32	-0.40195614
235	0xbda19f30	-0.07891691
236	0x3e9f2647	0.3108389
237	0x3ec3abe8	0.38217092
238	0xbdcb17fb	-0.09916683
239	0xbebaeb30	-0.3650756
240	0xbdd70a8c	-0.105000585
241	0x3e36a012	0.178345
242	0x3e58b526	0.21162853
243	0xbca125b8	-0.019671306
244	0xbeac32dd	-0.33632556
245	0xbe84fafe	-0.25972742
246	0x3e3efc97	0.18651043
247	0x3e587af2	0.2114065
248	0xbd3a2831	-0.045448486
249	0xbe777525	-0.24165781
250	0xbd65a0cd	-0.056061555
251	0xbd8ae7c1	-0.06782485
252	0xbd213b3c	-0.03936313
253	0xbe2e70fb	-0.17035286
254	0xbe79b7f3	-0.24386577
255	0x3c90c8b3	0.017673826

conv1.bias f4 [32]
0	0xbe94b5c5	-0.2904493
1	0x3dd2bb12	0.10289587
2	0xbe68113e	-0.22662827
3	0x3dd52d6d	0.10409055
4	0x3c41d860	0.011831373
5	0x3d884ac9	0.06654889
6	0x3cb497fc	0.022045128
7	0xbe8d274f	-0.27569053
8	0x3dfcac0b	0.12337502
9	0xbeab4595	-0.33451524
10	0xbe073048	-0.13202012
11	0xbe4e5ae8	-0.20151865
12	0xbd94f104	-0.072725326
13	0xbeac0680	-0.3359871
14	0xbd550801	-0.052009586
15	0xbc8ea3d2	-0.0174121
16	0xbe01bb4f	-0.12669109
17	0xbea6578c	-0.32488668
18	0xbc79012e	-0.015198035
19	0xbece7f62	-0.4033156
20	0xbe690de9	-0.22759213
21	0xbe737e22	-0.23778585
22	0xbe13000d	-0.14355488
23	0x3d4393d9	0.04774842
24	0xbcae5d65	-0.021284768
25	0xbe51a3f1	-0.20472695
26	0x3da0c1a4	0.07849434
27	0xbe007935	-0.12546237
28	0x3c0ebffd	0.008712766
29	0xbe336b6e	-0.1752145
30	0x3dd6fb71	0.104971774
31	0xbd7d1f26	-0.061797284

conv2.weight f4 [32, 32, 5, 5]
0	0x3ca47521	0.020075383
1	0x3d12cfc4	0.035842672
2	0x3c15c110	0.009140268
3	0xbc057d43	-0.0081475405
4	0xbdbbf9fc	-0.0917854
5	0xbd408588	-0.047002345
6	0xbcdbb18e	-0.026818063
7	0xbbc48dad	-0.0059983344
8	0xbcb84d14	-0.022497691
9	0xbd5ff009	-0.054672275
10	0x3d882386	0.066474006
11	0xbcbfb3d3	-0.023401177
12	0x3cd7b481	0.026331188
13	0xbbff1120	-0.007784024
14	0x3b86b5c7	0.004111025
15	0xbc63997b	-0.013891573
16	0xbc37db09	-0.011221656
17	0xbc5ff0a4	-0.013668213
18	0xbca60ff1	-0.020271273
19	0x3c9b5a8d	0.018964076
20	0x3d2decaf	0.042462047
21	0xbc129207	-0.008945948
22	0x3c8b803b	0.017028918
23	0xbd3b03e7	-0.04565802
24	0xbd534ba3	-0.051585805
25	0x3afa6367	0.001910311
26	0xbe411999	-0.18857421
27	0x3e52be64	0.20580441
28	0x3e3adec6	0.18249044
29	0xbe0ed2cb	-0.13947599
30	0xbdd5261e	-0.10407661
31	0xbe7b8089	-0.24560751
32	0x3e4ac04a	0.19799915
33	0x3e1658ed	0.1468236
34	0xbdd1627f	-0.10223865
35	0xbe260f6c	-0.1621682
36	0xbe812b6e	-0.25228447
37	0x3d5a29d8	0.05326256
38	0x3d54c048	0.051941186
39	0xbe06de8f	-0.13170837
40	0xbb814687	-0.003945175
41	0xbd2cf040	-0.042221308
42	0xbda1234c	-0.078680605
43	0xbcc626bc	-0.024188392
44	0xbe21bc3e	-0.15794465
45	0x3d0466a0	0.032324433
46	0xbd3ecffe	-0.046585076
47	0xbcf1758d	-0.029474998
48	0xbd867d7d	-0.06566904
49	0xbd886382	-0.066596046
50	0xbd30ec2d	-0.043193985
51	0xbcb02913	-0.02150396
52	0xbc8e1c1d	-0.01734739
53	0xbdb15902	-0.08659555
54	0xbd98b735	-0.07456819
55	0x3c1e4f48	0.009662457
56	0xbd083c1d	-0.033260453
57	0x3ca1b407	0.019739164
58	0xbd871acb	-0.06596907
59	0x3d2ac08c	0.041687533
60	0x3e01255f	0.12611912
61	0x3cd385ec	0.025820695
62	0xbd063e4e	-0.032774262
63	0xbca9a9be	-0.020710822
64	0x3c9a1c12	0.018812213
65	0x3e27be1c	0.16381115
66	0x3d3a78a1	0.045525197
67	0xbcf8f324	-0.030389376
68	0x3c07275f	0.008249133
69	0xbc274d83	-0.010211351
70	0x3e5b257c	0.21401018
71	0x3e13511e	0.14386413
72	0x3e15a396	0.14613184
73	0x3d7126a7	0.058874752
74	0x3c376a99	0.011194848
75	0x3e56bf81	0.2097149
76	0x3d4cd0c8	0.050003797
77	0xbefa0cf5	-0.4883801
78	0xbe0e0bdb	-0.1387171
79	0x3e33d28a	0.17560783
80	0x3e5ba92b	0.21451251
81	0x3e2ef7ab	0.17086665
82	0xbefec294	-0.49757826
83	0xbe831eae	-0.25609344
84	0x3da5c31f	0.08093857
85	0x3d7b1340	0.061297655
86	0x3e190856	0.14944586
87	0xbe90589f	-0.28192613
88	0xbea1a726	-0.31572837
89	0xbdf56ddc	-0.11983845
90	0xbdf8674e	-0.12129079
91	0xbd7391da	-0.059465267
92	0xbbb77f96	-0.005599926
93	0xbbc92c5a	-0.0061393203
94	0x3d5c3825	0.05376448
95	0xbe12e934	-0.14346772
96	0xbd92d6e5	-0.07169894
97	0xbd5f58a2	-0.054527886
98	0xbd057721	-0.032584313
99	0x3db3fe65	0.08788756
100	0x3e5e125e	0.21686694
101	0xbe703707	-0.23458491
102	0xbe6214ba	-0.22078219
103	0x3c25e437	0.010125211
104	0x3ce32249	0.02772631
105	0x3cfb774a	0.03069653
106	0xbe0da94b	-0.13834111
107	0xbe96366e	-0.29338402
108	0xbe11fc9f	-0.14256524
109	0xbe850469	-0.25979927
110	0xbe40b4c2	-0.18818954
111	0xbe646f27	-0.22308026
112	0xbd91f14e	-0.07126103
113	0xbe253329	-0.16132797
114	0xbe76fb2c	-0.24119252
115	0xbc1dc495	-0.009629388
116	0x3dcd0e63	0.1001251
117	0x3d8e23d2	0.06940426
118	0x3a8872fb	0.0010410243
119	0x3cb743eb	0.022371253
120	0xbbbd6fff	-0.0057811732
121	0x3b0119af	0.0019699147
122	0xbd449b8c	-0.047999904
123	0xbb3e44c1	-0.002903268
124	0x3d98ec6d	0.0746697
125	0xbebde5aa	-0.37089282
126	0xbe0295da	-0.12752476
127	0x3ad42165	0.0016184269
128	0xbc0daa4a	-0.008646557
129	0xbe36a8b6	-0.17837796
130	0x3dd2c875	0.102921404
131	0xbe8669c5	-0.2625257
132	0xbc0223f1	-0.007943139
133	0x3d170ba3	0.036876332
134	0x3d551d51	0.05202991
135	0x3ea264f3	0.31717643
136	0xbdb3553d	-0.08756492
137	0xbdb610ee	-0.08889948
138	0x3dafc611	0.085827
139	0x3dd696b3	0.10477962
140	0x3e233516	0.1593822
141	0xbd274cbd	-0.040844668
142	0xbece8ac0	-0.40340233
143	0xbe33fbbc	-0.17576498
144	0xbdbbf5dd	-0.09177754
145	0x3e6b392b	0.22971027
146	0x3eaad9c4	0.33369267
147	0x3e668fdb	0.22515814
148	0x3cd151c6	0.025551688
149	0xbcdca04d	-0.026931906
150	0x3e51e2b0	0.2049663
151	0x3d4c8137	0.049927916
152	0xbeaec81e	-0.34137052
153	0xbaddb69f	-0.0016915387
154	0x3e287db5	0.16454203
155	0x3dae6bd6	0.08516662
156	0x3daa92ce	0.08328782
157	0xbe329499	-0.17439498
158	0xbe88d371	-0.26723817
159	0xbdb089e6	-0.08620052
160	0xbd8eb0ec	-0.06967339
161	0xba8b9ad3	-0.0010651
162	0xbe4a4517	-0.19752918
163	0xbe800441	-0.25003245
164	0xbe2a0f6a	-0.16607442
165	0xbd859f10	-0.065244794
166	0xbcb62826	-0.022235941
167	0xbc979c9d	-0.018507296
168	0x3cf87a80	0.03033185
169	0x3dec5da4	0.11541298
170	0xbcd1dce3	-0.025618022
171	0x3ddd3463	0.108010076
172	0x3d605f08	0.05477813
173	0x3d4f0a14	0.05054672
174	0x3e4793b5	0.1948994
175	0xbd463949	-0.048394475
176	0x3d829ee4	0.06377962
177	0x3d9bd394	0.07608715
178	0xbd1169f8	-0.03550145
179	0xbe3442a6	-0.1760355
180	0x3d1fcfc0	0.039016485
181	0x3ccfbb03	0.025357729
182	0x3d02e40d	0.031955767
183	0x3c20328e	0.009777678
184	0xbe51c879	-0.2048663
185	0x3dccf2da	0.10007258
186	0x3d0ebbd6	0.034847103
187	0x3cfc2817	0.030780835
188	0x3baca4f2	0.0052686865
189	0xbda034e7	-0.0782259
190	0x3db6ed85	0.08932022
191	0xbd5ab14f	-0.05339175
192	0xbd58ee80	-0.052961826
193	0xbdcbe430	-0.09955633
194	0xbccc9b74	-0.02497647
195	0xbbb91db1	-0.0056492914
196	0xbd1646f1	-0.03668875
197	0xbc1f8343	-0.009735885
198	0xbc34aaa1	-0.011027009
199	0x3cde0471	0.027101727
200	0x3e184c70	0.14872909
201	0x3d97ec66	0.07418136
202	0xbe837395	-0.2567412
203	0xbdcdadc2	-0.10042907
204	0xbc28bf12	-0.010299461
205	0x3dbf3f97	0.09338301
206	0x3e21c916	0.15799364
207	0xbd1cad2d	-0.03825109
208	0xbec7a959	-0.3899639
209	0xbe60282f	-0.21890329
210	0xbe1c53f4	-0.152664
211	0x3da3e7ab	0.080031715
212	0xbd8a4919	-0.067522235
213	0xbe35b957	-0.17746483
214	0xbd8785f7	-0.06617349
215	0xbe49c658	-0.19704568
216	0xbd85efec	-0.06539902
217	0xbdbce1b7	-0.09222739
218	0x3c5c6acd	0.013453198
219	0x3e0928ea	0.13394514
220	0xbd99c3ee	-0.07508074
221	0xbe2f200f	-0.17102073
222	0xbe037d44	-0.12840754
223	0xbdd57ab6	-0.10423796
224	0x3d33b98a	0.043878116
225	0xbd0f569c	-0.034994707
226	0xbd9cf974	-0.07664767
227	0xbd9248d9	-0.07142801
228	0xbe125d9a	-0.14293519
229	0x3c47203e	0.012153683
230	0xbd8897ad	-0.06669555
231	0xbbf9e983	-0.0076267137
232	0xbe082fb9	-0.13299455
233	0xbe372689	-0.17885794
234	0xbd5e7a52	-0.054315872
235	0x3cc47f1f	0.023986397
236	0xbd213909	-0.039361034
237	0xbd6fcac3	-0.058542978
238	0xbe383d5b	-0.17992155
239	0xbc8bd462	-0.017069045
240	0x3cea9555	0.02863566
241	0x3d5ea0c1	0.054352526
242	0xbbb1b51e	-0.005423202
243	0xbdd02986	-0.1016417
244	0xbd0ace92	-0.033888407
245	0x3d91313e	0.0708947
246	0x3df511b3	0.119662665
247	0x3cfe3e8f	0.03103569
248	0xbbb93ac9	-0.0056527597
249	0xbcdffe05	-0.027342806
250	0x3d8ec595	0.069712795
251	0xbcb67118	-0.022270724
252	0x3d04f340	0.032458544
253	0x3d3019de	0.04299342
254	0xbe337947	-0.17526732
255	0xbd7073c8	-0.058704168

conv2.bias f4 [32]
0	0x3de8872e	0.113539085
1	0x3c6c0c4f	0.0144072315
2	0x3d3714a4	0.04469742
3	0xbd0ff5a9	-0.03514639
4	0xbc3b8702	-0.011445763
5	0x3e3237de	0.17404124
6	0x3e11f44d	0.1425335
7	0x3e795eab	0.24352519
8	0x3c9ade24	0.018904753
9	0x3e43c96c	0.19119805
10	0x3dba4318	0.09094828
11	0x3d550793	0.052009176
12	0x3da6bfe8	0.08142072
13	0x3ba466b9	0.0050171283
14	0x3e0c0092	0.13672093
15	0x3de4800b	0.11157235
16	0x3dd30494	0.103036076
17	0x3e9b2c2d	0.3030714
18	0xbbcdceb4	-0.0062807444
19	0x3da7e21c	0.08197424
20	0x3de6e189	0.11273486
21	0x3e582f1a	0.21111718
22	0x3dd1ff7f	0.1025381
23	0x3e666765	0.2250038
24	0x3de071a7	0.109591775
25	0x3b61d987	0.0034461932
26	0xbb2e6a8a	-0.0026613795
27	0x3db3ba03	0.08775713
28	0x3e0f2ea6	0.13982639
29	0x3e33575d	0.17513795
30	0x3c18c376	0.009323945
31	0x3e221d31	0.15831448

fc.weight f4 [64, 800]
0	0xbd136251	-0.035982434
1	0x3dcf7b90	0.101309896
2	0x3d8a41ad	0.06750808
3	0x3e0c1e7c	0.13683504
4	0x3cc38089	0.023865001
5	0x3bbc24f2	0.005741709
6	0x3e1f59b8	0.15561569
7	0xbcc63b13	-0.02419809
8	0x3c924e8a	0.017859716
9	0xbce5702c	-0.02800759
10	0x3d050344	0.032473817
11	0x3e9734de	0.29532522
12	0xbe80f749	-0.25188664
13	0xbeb5d594	-0.3551451
14	0x3bd365b8	0.006451335
15	0x3d3fe6cf	0.046850976
16	0x3dc11f71	0.09429825
17	0xbe1345f1	-0.1438215
18	0xbe2377cb	-0.15963666
19	0x3daaa65b	0.08332511
20	0xbd852552	-0.06501259
21	0xbc616b95	-0.01375856
22	0xbec595bc	-0.385908
23	0xbd795c8a	-0.060879268
24	0x3c7f2913	0.015573758
25	0x3e7369dd	0.23770852
26	0x3e06410e	0.13110754
27	0xbd6ace33	-0.057325553
28	0xbd61598e	-0.055017047
29	0x3e093202	0.13397983
30	0x3c7062c7	0.014671988
31	0xbc94bc28	-0.018156126
32	0xbe3019e1	-0.17197372
33	0xbe156a73	-0.14591388
34	0xbd93232f	-0.07184445
35	0xbd3a5335	-0.04548951
36	0xbca43c0c	-0.020048164
37	0xbdce8af0	-0.10085094
38	0xbd852dc5	-0.065028705
39	0xbdea0c69	-0.11428148
40	0x3d9c841f	0.076423876
41	0xbdeaa1e5	-0.1145666
42	0x3d61cae3	0.05512513
43	0x3dc161db	0.094424926
44	0xbe6d6357	-0.23182426
45	0xbde64a3a	-0.11244626
46	0xbd3d5c10	-0.046230376
47	0xbdffd6dd	-0.12492154
48	0xbdd752fe	-0.105138764
49	0xbe235b0b	-0.15952699
50	0x3b5f6ec1	0.0034093114
51	0xbc37d9a2	-0.011221321
52	0xbd56ac50	-0.052410424
53	0x3e08e9e1	0.13370468
54	0x3e4dd86f	0.20102094
55	0x3d729387	0.059222724
56	0xbe128e29	-0.14312042
57	0xbe5911cd	-0.21198197
58	0xbcf011e7	-0.029305412
59	0x3db2ac65	0.08724288
60	0x3d428db5	0.047498424
61	0xbdb19423	-0.08670833
62	0xbe4da274	-0.20081502
63	0xbe07ce3a	-0.13262263
64	0x3adcb6f4	0.0016839192
65	0xbd930399	-0.071784206
66	0xbe25bb4a	-0.16184726
67	0x3eb79f98	0.35863948
68	0x3d0badb6	0.03410121
69	0xbc7c6fe3	-0.015407535
70	0xbd0ae77c	-0.033912167
71	0xbd7a2354	-0.061068848
72	0xbd05fd2b	-0.032712143
73	0x3dd5bd90	0.10436547
74	0x3cab9fbe	0.020950194
75	0xbcfef179	-0.031121003
76	0xbc698c76	-0.01425468
77	0xbd20cae4	-0.03925599
78	0xbb0bd35e	-0.0021335701
79	0x3bd24f68	0.0064181574
80	0x3c4f6dc3	0.012660447
81	0x3c088510	0.008332506
82	0xbb2f38b7	-0.0026736686
83	0x3cb39297	0.021920485
84	0xbd082069	-0.033234034
85	0xbc09a37a	-0.008400792
86	0x3b99eef2	0.004697674
87	0xbcc27b6a	-0.023740489
88	0xbb450712	-0.0030064029
89	0xbc9d895f	-0.019230543
90	0xbca4e214	-0.020127334
91	0x3c434acc	0.011919688
92	0xb809a78c	-3.2819386e-05
93	0xb7301477	-1.0495182e-05
94	0x3b07867c	0.0020679524
95	0xbc33352d	-0.010937971
96	0xbb701812	-0.003663544
97	0x3a137b7e	0.0005626007
98	0x3c3756b7	0.011190108
99	0xbc146438	-0.009057097
100	0x3bbd4143	0.005775602
101	0x3cc7e75f	0.024402319
102	0x3c824c61	0.01590556
103	0xba946342	-0.0011321085
104	0x3ccbd3d9	0.02488129
105	0xbccc74e2	-0.024958078
106	0x3d270574	0.040776685
107	0x3d0b643c	0.034031138
108	0x3c19a1df	0.009376972
109	0xbcb7eafb	-0.022450915
110	0xbbbcd7d3	-0.005763033
111	0x39270857	0.00015929468
112	0x3cc2e260	0.023789585
113	0xbc2b47bc	-0.0104541145
114	0x3c961c8f	0.018324165
115	0x3cad5696	0.021159451
116	0x3b6cdb52	0.0036141467
117	0xbcd29162	-0.02570409
118	0x3c95f999	0.018307494
119	0x3cf4e6dd	0.02989524
120	0x3bd4dc5f	0.006495997
121	0xbb404a44	-0.002934114
122	0xbbdafcaa	-0.006682952
123	0x3b810b24	0.0039380956
124	0xbc244817	-0.010026953
125	0x3cbe30c7	0.023216618
126	0xbdc713f9	-0.09720606
127	0xbe0aba09	-0.1354753
128	0xbe00cc53	-0.12577944
129	0xbcbb936b	-0.022897443
130	0xbd993aa3	-0.07481887
131	0xbde795f2	-0.11307897
132	0x3df283bb	0.11841532
133	0x3d52a100	0.051423073
134	0x3d671ace	0.056422047
135	0xbe3bfbe9	-0.18357815
136	0xbeb45522	-0.352212
137	0xbdffdbdd	-0.124931075
138	0x3c92563d	0.017863387
139	0xbe227f7e	-0.15868947
140	0x3da93089	0.082612105
141	0x3d22d0de	0.039749973
142	0x3ecab8a1	0.39593986
143	0x3d55cb7a	0.052196003
144	0xbdf6b601	-0.12046433
145	0xbda41248	-0.08011299
146	0xbe341592	-0.17586353
147	0x3de70761	0.11280704
148	0x3d788424	0.060672894
149	0x3b926bbb	0.004468409
150	0x3e3e134d	0.1856205
151	0x3e23989b	0.15976183
152	0x3cabee45	0.02098764
153	0x3d707897	0.058708753
154	0x3df629d4	0.12019697
155	0x3d381b2c	0.044947788
156	0xbc18ba96	-0.009321829
157	0xbc2a6201	-0.0103993425
158	0x3d8d8e8d	0.06911955
159	0x3d86c97e	0.065814
160	0xbe09b897	-0.13449322
161	0x3e346e8b	0.17620294
162	0x3da1ef1e	0.07906936
163	0xbeca11f1	-0.39466813
164	0xbd9f747c	-0.077858895
165	0x3d820c15	0.06349961
166	0x3ea523dd	0.32253924
167	0x3e887002	0.26647955
168	0xbcd667c7	-0.026172532
169	0xbe11d09b	-0.14239733
170	0xbda09536	-0.0784096
171	0xbe0bb2f0	-0.13642478
172	0xbe7fa771	-0.24966218
173	0xbccc633c	-0.024949662
174	0x3d93c286	0.07214837
175	0x3d6dee47	0.058088567
176	0x3ca43557	0.020044966
177	0xbda6c7db	-0.08143588
178	0x3d40ac2e	0.047039203
179	0x3d54b309	0.051928554
180	0x3ddfd402	0.10929109
181	0xbe0f839d	-0.1401505
182	0xbd2f0683	-0.04273082
183	0xbd9a8acf	-0.07546007
184	0xbe2cf8b7	-0.16891752
185	0x3e2403c8	0.16017067
186	0xbd13cb9f	-0.03608286
187	0x3a5f1dc8	0.00085112127
188	0x3b12db16	0.0022408417
189	0x3d33e68b	0.043921035
190	0x3db532d4	0.08847585
191	0xbccaef95	-0.024772445
192	0x3cd33ef1	0.025786849
193	0x3cc7c26a	0.024384696
194	0x3d8da23b	0.06915709
195	0x3d0c9342	0.034320123
196	0x3e32f46b	0.1747605
197	0x3dd64ec2	0.104642406
198	0x3d6ade00	0.057340622
199	0xbe08b2d3	-0.13349466
200	0x3e47b84a	0.19503894
201	0x3de9c22f	0.11413991
202	0xbe221359	-0.15827693
203	0xbd3c022a	-0.0459005
204	0x3e3f17fb	0.18661492
205	0x3ddcb4f8	0.107767045
206	0xbd8f5636	-0.06998865
207	0xbd9ece86	-0.07754235
208	0xbca7e77f	-0.020496128
209	0x3bc475ee	0.0059955036
210	0xbd9735ae	-0.073832855
211	0x3e03f6b6	0.12887082
212	0x3d57fdc3	0.05273224
213	0xbe0e20f9	-0.13879766
214	0xbe1e5614	-0.15462524
215	0x3d38cee2	0.045119174
216	0x3cce3a79	0.025174366
217	0x3d8a5d10	0.067560315
218	0xbe2dde8d	-0.16979428
219	0xbdd60982	-0.10451032
220	0x3d0eea30	0.034891307
221	0xbe276980	-0.16348839
222	0xbe180392	-0.14845112
223	0xbe1f3881	-0.15548898
224	0xbcd82965	-0.026386926
225	0x3e6a374d	0.22872658
226	0x3e3b006d	0.18261881
227	0x3e8fc9ef	0.2808375
228	0x3b4be9a0	0.0031114593
229	0x3d2d6457	0.04233202
230	0xbd081749	-0.03322533
231	0x3befd868	0.007319499
232	0x3c33ac8b	0.01096643
233	0x3d009a62	0.03139723
234	0x3bfe509c	0.007761074
235	0x3dae1754	0.08500543
236	0x3d579de3	0.052640807
237	0xbe2484c5	-0.16066273
238	0xbd0046e5	-0.03131761
239	0xbdc3f1a7	-0.09567576
240	0xbda8d6a8	-0.082440674
241	0x3d4bb798	0.049735636
242	0x3ad70843	0.001640566
243	0xbd9bf920	-0.07615876
244	0x3e0031ae	0.12518951
245	0xbdf62ec7	-0.12020641
246	0xbdd67e17	-0.104732685
247	0x3dbd8ad1	0.09254993
248	0x3d9afe89	0.0756808
249	0x3d134117	0.035950746
250	0x3ba3457c	0.0049826484
251	0xbdb52b7a	-0.08846183
252	0xbdf3db4a	-0.119070604
253	0xbc856408	-0.01628305
254	0x3dbaed2f	0.091272704
255	0xbd1ce246	-0.03830173

fc.bias f4 [64]
0	0xbde23abd	-0.1104636
1	0xbc4fbd5e	-0.012679426
2	0x3d3b604a	0.045746125
3	0xbe047907	-0.12936793
4	0x3e798707	0.24367915
5	0x3df03bee	0.11730181
6	0x3dc3fc91	0.095696576
7	0x3cf570cb	0.02996101
8	0x3d2ae397	0.041720953
9	0x3d81646f	0.06317984
10	0x3d123d9c	0.035703287
11	0xbd6b0be1	-0.057384375
12	0x3e052f47	0.13006316
13	0x3d0d1e82	0.034452923
14	0x3cadeea5	0.021231959
15	0x3e532d59	0.20622768
16	0x3d832502	0.06403543
17	0xbe721b6c	-0.23643273
18	0x3e2aee4f	0.1669247
19	0xbdbb5b2c	-0.09148249
20	0xbdcc4840	-0.09974718
21	0xba698e4a	-0.00089094474
22	0xbd144b30	-0.036204517
23	0x3e3c6c3d	0.18400665
24	0x3dd71c77	0.10503476
25	0x3dffa7ae	0.12483154
26	0xbe2d31c0	-0.1691351
27	0xbd55e4cb	-0.052220147
28	0xbe0105b8	-0.12599838
29	0x3e807f8a	0.25097305
30	0x3de73d76	0.112910196
31	0x3cafdd4d	0.02146783
32	0xbd44a8fd	-0.048012722
33	0x3c3fc138	0.011703782
34	0x3d22baba	0.039728858
35	0xbd2af793	-0.04174001
36	0x3e596e26	0.21233425
37	0x3e5c4e3a	0.21514216
38	0xbe2b6962	-0.16739419
39	0xbdafcc22	-0.08583857
40	0x3d23daea	0.040003695
41	0xbe4b701d	-0.19866987
42	0xbe02050f	-0.12697242
43	0xbcda7ffc	-0.026672356
44	0x3cd66e38	0.026175603
45	0xbdf26c1a	-0.11837025
46	0xbe13919f	-0.14411019
47	0xbd71cd71	-0.059033815
48	0x3d9fe349	0.07807023
49	0x3e36f74e	0.17867777
50	0x3e2175b1	0.15767552
51	0x3e8e9501	0.27848056
52	0xbdbfa84a	-0.093582705
53	0xbe0a8ac5	-0.13529499
54	0xbe0de1dc	-0.1385569
55	0xbdddd40b	-0.108314596
56	0xbead39d8	-0.33833194
57	0xbc36b133	-0.011150646
58	0xbd318f2b	-0.043349426
59	0x3cc31486	0.023813497
60	0xbd807ab7	-0.06273406
61	0x3dad08be	0.08448933
62	0x3d4098dd	0.04702078
63	0x3dcc669a	0.09980507
