saved_models/FADA-few-shot-retraining/gtsrb/encoder_gtsrb_7.pt (torch_old, 318381 bytes, 6 tensors)

conv1.weight f4 [32, 3, 5, 5]
00000000: f00e 40bd 1458 173d 9671 343d 420d 92bd
00000010: 63ec 42be aa8a 283d dd89 0ebb 79fa fdbc
00000020: 7990 99bd fdf8 463d 97d7 153d 1b13 0b3d
00000030: f75c 923d 5896 f23d 3942 36bd 3de0 aa3c
00000040: 24e7 a4bd e681 c7bd d519 85bd 3c5b 09bd
00000050: 87ab f7bc 3e90 ed3d 500b a93d 9f21 7bbc
00000060: d467 4a3d e57a d83d aa98 72bd 6b62 783b
00000070: 7fab 343d 33cc 853d 81bb 81bd eb1f a43d
00000080: 62b9 6cbc 6833 f63c de11 febb 663a 8ebd
00000090: 8e3a 3fbd dfc2 a6bd 8471 9fba 823a 853c
000000a0: bf38 b2bd 2df9 fe3c 01d6 ebbd 9562 683d
000000b0: 6d6e 10be 3ffb 373c 0b65 e83d 8e7a 85bd
000000c0: 7ce7 44bd 211b e0bc 6d84 d0bb f4d9 81bd
000000d0: e87a 953d 1996 86bd 2792 5a3d 6eda 44bd
000000e0: fe0a 12bd 2bb8 adbd 61b6 4bbd 99e6 d5bc
000000f0: 26f0 9a3c 7224 963d ad7a 9f3d 8f49 b83d
00000100: f9fd 003e 534b 2039 4e7b e03d c498 b4bd
00000110: 1ce4 e1bc ff77 9ebd 6954 76bd 7e48 30bd
00000120: eeaf 53bd 463c 3b3e 9015 d13d 9a46 a93d
00000130: 8ef6 2fbe 0cd4 07be c311 ebbd 5c8d 01be
00000140: 77ed 01be 3e50 5abe 3ad8 1dbe 17bb b83d
00000150: 5c50 413e 4c12 0cbe ed7e babe 7df0 c93b
00000160: bcd9 873e 84e6 c83e 7d56 39be 5d78 a3be
00000170: 5fe2 8e3d 6c3a da3e cdce 963e 29c9 acbe
00000180: f158 90be 47aa 1f3e 65cd a13e 9004 b03e
00000190: 5228 aabd 35ea 64be bd93 26be fc0b db3d
000001a0: fd2c fbbc 5d3d 12be d906 cabe 24ea eabd
000001b0: c351 643e 53fc 363e 51b3 b3be 95cd 9abe
000001c0: 18f6 0e3e e7db d43e a9e3 743e cd59 9ebe
000001d0: 461f b3be c0ea 333e 968d 953e 690f c03e
000001e0: bdfa fdbe 1334 c3be 82c0 d73c cb0a ad3e
000001f0: 12fb 953e b14d 6dbd 2ed2 c5bd c99b 563c
00000200: d4cf 96bd f004 473e 287d 2abd b036 79be
00000210: 82ed eabd dab6 413e 0cfa 873e 3ceb 91be
00000220: ddac 98be ccc0 913d ca53 923e c2ef a33e
00000230: 36db 94be e879 73be af63 ab3e 7423 c23e
00000240: 44a3 913e d416 c2be 41cf 88be 70b5 5f3e
00000250: 581d 953e 4995 0b3e aedd c8bd ff20 23be
00000260: 6709 21bd f24d 0abe 475b 51bd 70f2 a0bd
00000270: 8c8f 43be 8d6f 523d c4be 51bd 1425 0abe
00000280: ee13 2cbe 12a3 5dbe 2783 c8bd 80e3 27bd
00000290: 33c3 0e3d 1c5b fdbc 9175 53be 617f 32be
000002a0: e886 f5bd 0bed 9e3d b97d 893c 5027 dbbd
000002b0: 9eb6 31bd 6dde c4bd e908 153d 4387 8a3c
000002c0: f91d 8ebc 2fff d53d 3ce7 a8bd 3c21 e03b
000002d0: 15a2 2abd c4fa 803a 2569 5bbd 7a6b a0bc
000002e0: b7cd 843d e213 a4bd 4acf d2bd bfe7 873b
000002f0: 36e2 89bd 268c 5fbd 0bc9 b4bb 21e0 3abd
00000300: 628f 1ebd 99eb cbba c70e b8bd 4a18 5f3d
00000310: 1d71 71bd aa53 d83d 91cd 023e 7430 50bd
00000320: d187 003c 1e52 3b3e 4193 433e 19d9 063e
00000330: 7d21 f0bb 08ef cd3d d293 553d a349 633e
00000340: 60c2 473e b2bf 893d 66ec 023e 08a0 64bd
00000350: 570f 163e 9653 5d3d f77b 3f3e 6be1 623d
00000360: c330 a2bc 4023 72bb fd53 673d 8e7f d23d
00000370: 0377 223e e6dc 483e ecfb 283d 9110 313d
00000380: 9b20 ca3d 19f9 21be 2e17 19be 2e15 05be
00000390: d0ac 5fbe cfa4 82be e538 a2bd fb29 a93d
000003a0: f73b 093e 732e 31be 9ce7 cabe 5f73 8fbd
000003b0: e01b 9e3e 82e2 c33e 3475 b7bd c829 b8be
000003c0: 2dda d9bd 67b2 2e3e 58b0 573e 7926 3cbc
000003d0: 499e a5be 610a 84be 8faa 3b3e aa3d 5e3e
000003e0: d854 e0bc 9280 66be 8cc1 84bd c582 92bd
000003f0: 2fde 21bd fbd8 33be 2b60 7ebe 6d8c 253c
-0.046889246 0.036949232 0.044053636 -0.07131435 -0.19035487 0.041147865 -0.0021749653 -0.031003224
-0.07498259 0.048577297 0.036582556 0.033953767 0.07146638 0.11845082 -0.04449675 0.020858878
-0.08051899 -0.09741573 -0.06499068 -0.033534274 -0.030233158 0.11599778 0.08254111 -0.01532784
0.049415424 0.10570315 -0.059227623 0.0037900459 0.044108864 0.065330885 -0.06334592 0.080139
-0.014448496 0.03005381 -0.007753595 -0.06944732 -0.0466867 -0.081426375 -0.0012164568 0.01626325
-0.0870223 0.031124676 -0.115154274 0.05673464 -0.14104624 0.011229335 0.113473974 -0.06517516
-0.048072323 -0.027356686 -0.0063634426 -0.063403994 0.07298833 -0.065715976 0.053362038 -0.048059873
-0.035655014 -0.08482393 -0.049734477 -0.026110934 0.01891334 0.0733117 0.077870704 0.08998405
0.12596883 0.0001528685 0.109610185 -0.088182 -0.027574591 -0.07737731 -0.060139094 -0.043037884
-0.05168145 0.18284711 0.10209191 0.08265419 -0.17183897 -0.13264483 -0.11477997 -0.1265158
-0.12688242 -0.21319672 -0.15414515 0.090200596 0.18878311 -0.13678855 -0.36424962 0.0061627016
0.26533306 0.3923837 -0.18099399 -0.31927767 0.069767706 0.42622697 0.2945465 -0.33747223
-0.28192857 0.155923 0.31602016 0.3437848 -0.08308472 -0.22354968 -0.16267295 0.10695645
-0.0306611 -0.1428122 -0.3945835 -0.1147044 0.22296815 0.17869692 -0.35097745 -0.30234972
0.13961065 0.41574022 0.2391497 -0.30927888 -0.34984797 0.17570019 0.29209584 0.37511757
-0.4960536 -0.38125667 0.026336912 0.33797297 0.29293114 -0.05793542 -0.09659229 0.0130986655
-0.07363859 0.19435477 -0.041623265 -0.24337268 -0.11471082 0.18917409 0.26557958 -0.28499782
-0.29819384 0.07116851 0.2857955 0.32018858 -0.29073495 -0.23776972 0.3347449 0.37917674
0.28444874 -0.3790804 -0.26720622 0.21846557 0.2912395 0.13631167 -0.09807907 -0.15930556
-0.039315607 -0.13506296 -0.05111244 -0.07858741 -0.19097728 0.051375914 -0.05120732 -0.13490707
-0.16804478 -0.21644238 -0.0979064 -0.040988445 0.034854125 -0.030927233 -0.20650317 -0.17431404
-0.11988622 0.07760056 0.016783582 -0.10700858 -0.043387048 -0.09612737 0.03638545 0.016910201
-0.017348276 0.10449063 -0.082472295 0.0068398993 -0.04165848 0.0009840359 -0.05356707 -0.019582499
0.064845495 -0.08011605 -0.102934435 0.0041474993 -0.067325994 -0.054577015 -0.0055171303 -0.045623902
-0.03871096 -0.0015557884 -0.089871936 0.054466523 -0.058945764 0.10562833 0.1277373 -0.05082746
0.007844881 0.18293044 0.19099142 0.13168754 -0.007328211 0.10055357 0.052142926 0.22196059
0.19507742 0.06726016 0.12785491 -0.05581668 0.14654289 0.054034792 0.18699633 0.055390757
-0.019798642 -0.003694728 0.05647658 0.102782354 0.15865712 0.19615516 0.041255876 0.04322869
0.098695 -0.1581768 -0.14950249 -0.1299636 -0.21843266 -0.25516364 -0.07921008 0.0825996
0.13401781 -0.17302875 -0.3962983 -0.07004427 0.30880642 0.3825875 -0.089579016 -0.35969377
-0.10637317 0.17060243 0.21063364 -0.011483782 -0.32347324 -0.25789168 0.18326782 0.2170321
-0.027384207 -0.22509983 -0.06482229 -0.071538486 -0.03951853 -0.1756324 -0.24841373 0.010104281

conv1.bias f4 [32]
00000000: e9af 96be a081 0a3e 2bee 5dbe 009e 9d3d
00000010: cd55 453d 2fd5 813d 757b 263c 9faf 90be
00000020: a783 dc3d 5111 adbe 8c15 e1bd b588 4abe
00000030: bae9 21bd f676 aebe ee9d 41bd 88ec 00bd
00000040: b3c4 a6bd 3b91 a9be 42ce 55bc 997d ccbe
00000050: e913 68be a787 72be a8a2 0abe c774 483d
00000060: d426 9fbc d540 2bbe cc89 8c3d fcfd 06be
00000070: f0d9 723c eed9 30be 01c7 dd3d 45bc 4dbd
-0.29431084 0.1352601 -0.21672885 0.07696152 0.04817753 0.0633949 0.01016127 -0.28258988
0.10767298 -0.33802274 -0.10990438 -0.19778712 -0.03952954 -0.34075135 -0.047269754 -0.031475574
-0.08142986 -0.33118615 -0.013049664 -0.39939573 -0.22663845 -0.2368456 -0.13538611 0.048939493
-0.019427694 -0.1672395 0.0686222 -0.13182825 0.014822468 -0.17270634 0.108289726 -0.050228376

conv2.weight f4 [32, 32, 5, 5]
00000000: 4886 873c e77c b23c ba5f 263c c6cc 65bd
00000010: afa7 c3bd 471f 2abd 7a97 02bd 223c 1dbc
00000020: 13a8 95bb 2e81 0fbd 5f13 833d 4fbd 0abc
00000030: 8d61 d83a c91e 19bb 6821 453c b53e afbc
00000040: d5e3 07bd d1b5 0dbc f10f a6bc aa5a 9b3c
00000050: de09 173d 8172 ecbc 6a92 533b c70c b3bc
00000060: bec0 6ebd 1c96 97bb 6788 63be ba53 423e
00000070: 4765 333e e57a 0fbe 5717 ffbd c4cc a0be
00000080: f86f 333e f4cb 033e 73f7 febd 9a91 5cbe
00000090: eca3 adbe 5d6e 3c3d 61ef 323d f6d5 0bbe
000000a0: c945 29bd 5d80 fbbd a52e d1bd 3e3c 1ebd
000000b0: de03 24be db6e 86bc c4b7 cabd 629f 86bd
000000c0: 8b5b adbd 191a 95bd 5bd4 b2bd 5f35 31bd
000000d0: 6762 b339 91fc a3bd babd d9bd c7fc 19bd
000000e0: b3a8 ffbc a55e 103d 4cc2 51bd ce7b ba3b
000000f0: 6fa5 9b3d c244 4c3c bf0c c0bc e66a 92bc
00000100: 0400 943c cbb3 c83d 9cfe f03b c4e1 b5bc
00000110: 9088 b0bc 0359 01bd 8863 2a3e 952e cf3d
00000120: d391 8a3d 5311 003b ae2f 3ebd e031 523e
00000130: 6458 923d fc89 f0be f1e6 26be 177e 223e
00000140: ef88 553e 5239 443e 60f2 fbbe f8d9 80be
00000150: 71d8 433d 4b37 943d d652 203e 979a 8dbe
00000160: 5027 97be e548 19be 998f d2bd 178f 4fbd
00000170: 917d bbbc ab62 23bc 1242 043d 04f5 12be
00000180: 33d0 b1bd 3bb3 b8bd b241 75bd a1a1 543d
00000190: a4c5 543e a33c 6fbe 415a 62be 4f37 0d3b
000001a0: 8991 633c be0a 233d ab36 0ebe 915d 9bbe
000001b0: 7fc3 1dbe a355 9abe ab38 64be 83c6 6dbe
000001c0: 0137 9dbd 4e6e 06be 5b16 7cbe 8d8f 20bc
000001d0: 1cba a83d 2cf0 453d 0180 6fbc 2680 213c
000001e0: d34a 57bd bd9e 36bd 9b80 96bd 7286 f8bc
000001f0: 55d1 2f3d 30c7 c0be 0cfb 1cbe 4c95 ccbc
00000200: 6781 b3bc 510a 47be 28af 903d 9cd4 92be
00000210: 669e debc b6c1 bd3c 3352 173d 4763 963e
00000220: f201 b2bd fd35 c4bd cf48 833d 49d7 a03d
00000230: 06ee 0b3e 0f57 86bd d7fb bbbe 39cc 25be
00000240: 4781 bfbd 996e 663e 66ad 9b3e 0569 3d3e
00000250: 6a84 4e3c 9a22 d1bc 8b89 463e 438d 733d
00000260: 1a77 acbe 70a0 c1bb d028 0c3e 8ed0 b53d
00000270: 6e2f db3d e01c 1bbe 719b 8ebe 2c2e 06be
00000280: 97d6 21bd 31d5 163d c2e2 18be 7f27 53be
00000290: 133a 22be 1607 f3bc c226 283b 6b24 56bc
000002a0: dbc6 093d 37d3 003e 1551 1cbd 2536 cd3d
000002b0: 0147 c03c a742 383c 9a89 1e3e 3756 a2bd
000002c0: 2f6c 603d 8188 8b3d cadf bebc d5f1 2bbe
000002d0: 514d dcbc bbcc 033d eaa9 343c 3401 aebb
000002e0: 6dd3 3ebe c5c6 103d b249 8a3c 88d1 c53b
000002f0: 34f5 0b3b 3348 7dbd 7df6 abbb ea05 d2bd
00000300: 5acf 66bd ffd8 b3bd 68bd ccbc 9aed 66bd
00000310: de3e 81bd 4de0 06bd 4744 dfbc f60a b53c
00000320: 4f26 0b3e a33a ba3d bf8a 7fbe 8230 08be
00000330: 9d8c 22bd f56f d83d 1cb3 3b3e 6d58 e7bb
00000340: e175 c8be f493 89be 281a 11be 7de4 b93d
00000350: 8fc4 85bd 4393 36be 47c0 8dbd cfb5 40be
00000360: f224 48bd 55ed dabd 2191 35bc c55f e33d
00000370: 7fe2 c0bd 416e 38be 47d9 12be b11f f4bd
00000380: f4db 823c d0c3 83bc 4bd7 28bd 152d 43bd
00000390: 8db3 08be a63a 1a3d 7948 0abd 4e02 0abc
000003a0: 4c8b 02bd 5dc6 0abe 0034 5bbd cb98 133d
000003b0: 31e9 1fbc d628 dabc 23d0 41be 10ba 50bd
000003c0: 71f0 da3c 74ca 333d f69c bfbc 25fd a9bd
000003d0: ba12 04bd b14d 9e3d 270e ff3d 5ac5 283d
000003e0: bf58 4c3c d2e2 233a c0a8 723d a59e 30bd
000003f0: 3df2 173b 0b11 0a3d c76e 51be 2001 52bd
0.016543522 0.021788074 0.010154659 -0.05610349 -0.095534675 -0.041533735 -0.03188274 -0.009596856
-0.004567155 -0.035035305 0.06400179 -0.008467986 0.0016508565 -0.0023364297 0.01203189 -0.021392206
-0.033176262 -0.008649305 -0.020271273 0.01896413 0.036874644 -0.028863193 0.0032283315 -0.021856679
-0.058289282 -0.0046260487 -0.22220002 0.18977252 0.17519103 -0.14011724 -0.124556236 -0.31406224
0.17523181 0.1287077 -0.12449541 -0.21539918 -0.33914125 0.046003688 0.04368532 -0.13655838
-0.041326318 -0.12280343 -0.10213975 -0.03863167 -0.160171 -0.016410282 -0.09898332 -0.065733686
-0.08464726 -0.07280368 -0.0873191 -0.04326379 0.00034214856 -0.080071576 -0.106318906 -0.037594583
-0.031208372 0.03524651 -0.051210687 0.005691028 0.07599913 0.012467565 -0.023443578 -0.017873239
0.018066414 0.09799918 0.0073545706 -0.02220238 -0.021549493 -0.03157903 0.1663953 0.10116307
0.06766095 0.0019541576 -0.04643219 0.20526838 0.071457654 -0.46980274 -0.16299035 0.15868412
0.20853017 0.19162491 -0.49208355 -0.25166297 0.047813836 0.07237109 0.156566 -0.27657005
-0.2952218 -0.14969213 -0.10281295 -0.05067357 -0.022887023 -0.009972255 0.032289572 -0.14351279
-0.08682289 -0.090185605 -0.059877105 0.051911954 0.20778519 -0.23362975 -0.22104742 0.002154786
0.013889679 0.039805166 -0.13888042 -0.30344823 -0.15406607 -0.3014346 -0.22287242 -0.23220257
-0.07676507 -0.13128015 -0.24617903 -0.00979985 0.082386225 0.04832475 -0.014617921 0.009857213
-0.052561592 -0.04458498 -0.07348748 -0.030337546 0.042924244 -0.37651968 -0.15330142 -0.024973534
-0.02191229 -0.19437529 0.070646584 -0.28677833 -0.02717514 0.023163658 0.036943626 0.29372618
-0.08691777 -0.0958061 0.064103715 0.078535624 0.13665017 -0.06559574 -0.36715576 -0.16191186
-0.093508296 0.22503127 0.3040573 0.18497093 0.012604812 -0.025529195 0.19388406 0.05946089
-0.33684617 -0.005909018 0.13687444 0.08877669 0.10702406 -0.15147734 -0.27852967 -0.1310355
-0.03951129 0.03682441 -0.14930251 -0.20620535 -0.15842466 -0.029666465 0.0025657867 -0.013070206
0.03363691 0.12580572 -0.038163263 0.10020093 0.023471357 0.01124636 0.15482178 -0.079266004
0.054790672 0.068131454 -0.02330007 -0.1679147 -0.026892336 0.032177668 0.011026839 -0.005310202
-0.1863534 0.03534581 0.016880844 0.006036941 0.002135587 -0.061836433 -0.0052478896 -0.10255034
-0.05635009 -0.08781623 -0.02499266 -0.05637894 -0.06310819 -0.032928754 -0.027254237 0.022099953
0.13588832 0.09093215 -0.24955271 -0.13299754 -0.03968488 0.10568229 0.18330044 -0.0070601017
-0.39152434 -0.26870692 -0.14170134 0.09076784 -0.06531631 -0.17829613 -0.069214396 -0.18819354
-0.04886336 -0.10689799 -0.011081965 0.11102251 -0.09418201 -0.18010809 -0.14340697 -0.11920107
0.015974022 -0.016084582 -0.041220944 -0.047650415 -0.13349743 0.037653588 -0.03376052 -0.008423401
-0.031871125 -0.13552232 -0.053516388 0.036034387 -0.009760187 -0.0266308 -0.18927054 -0.050958693
0.02672598 0.043894246 -0.023390274 -0.083002366 -0.03224442 0.07729662 0.12453871 0.041203834
0.012472331 0.00062517554 0.059242964 -0.043120045 0.0023185157 0.03370766 -0.20452414 -0.051270604

conv2.bias f4 [32]
00000000: 6b8c d93d 541e 6f3c d79a 273d a9f5 0fbd
00000010: daed 8ebc 956f 123e 8d81 143e 4994 703e
00000020: f07a 803c acbc 3d3e 7cdf a73d 64c9 233d
00000030: a0f0 9e3d ac83 52bc 1917 003e db53 063e
00000040: 7693 d93d f9fd 8e3e b4ce cdbb a52d 893d
00000050: 3720 f33d 5431 583e cf6b e83d 4873 6c3e
00000060: 6dde dd3d 87d9 613b 8a6a 2ebb e74d b83d
00000070: 922b 183e a991 293e 72b1 19bc a8ad 2f3e
0.10622486 0.014594633 0.04091915 -0.03514639 -0.0174474 0.14300378 0.14502545 0.23494066
0.015683621 0.18529004 0.08196923 0.039986983 0.07760739 -0.012848776 0.12508811 0.13117926
0.10623829 0.2792814 -0.0062807444 0.06698159 0.11871379 0.21112567 0.11348688 0.23090851
0.1083344 0.0034461932 -0.0026613795 0.08999234 0.14860371 0.16559471 -0.009380685 0.17156088

fc.weight f4 [64, 800]
00000000: fc35 1b3c b0c0 e73d 6284 653d 603f f53d
00000010: 1891 af3c 82a9 953c 87e7 203e 39e1 26bd
00000020: b5d1 ad3c ce4f 2cbd a9d3 b8bb 5ea6 663e
00000030: e116 7cbe ede4 91be b368 96bc 4865 273d
00000040: 2292 e73c cc7f 1fbe 661b 03be 0fc8 ee3d
00000050: 3bf5 43bd ad74 dbbb 53dc c2be 07f5 a1bd
00000060: 5889 453c 06b9 823e 2960 063e 0413 9bbd
00000070: 3f68 f9bc 4d0b 003e d25a 0c3d b009 79bb
00000080: d526 55be 591a 11be 74ce 92bd 83e1 0bbc
00000090: b792 80bd b9e7 30be b31d 83bd 8f95 03be
000000a0: 54a0 053e 9573 27bd 2082 2d3c eff3 c73d
000000b0: 0bce 52be 648d e6bd 97ff 4cbd bd55 b4bd
000000c0: 14b3 dbbd bbe5 09be a1b8 f73b aab3 48ba
000000d0: 7366 3abd b198 0d3e 9c1b 3c3e fb21 323d
000000e0: 2736 28be 6493 3bbe 42d8 f4bc 5e5a a33d
000000f0: b3ca 193d aebc ddbd 33bf 3ebe 47f8 0abe
00000100: b968 15bc 7855 68bd 0603 e4bd 693c e43e
00000110: 69b5 883d 2232 493b aca3 4fbc 787a acbd
00000120: 37f7 49bd 8de3 c03d 4a46 803d 79f1 febc
00000130: 768c 69bc e4ca 20bd 5ed3 0bbb 684f d23b
00000140: c36d 4f3c 1085 083c b738 2fbb 9792 b33c
00000150: 6920 08bd 7aa3 09bc f2ee 993b 6a7b c2bc
00000160: 1207 45bb 5f89 9dbc 14e2 a4bc cc4a 433c
00000170: 8ca7 09b8 7714 30b7 7c86 073b 2d35 33bc
00000180: 1218 70bb 7e7b 133a b756 373c 3864 14bc
00000190: 4341 bd3b 5fe7 c73c 614c 823c 4263 94ba
000001a0: d9d3 cb3c e274 ccbc 7405 273d 3c64 0b3d
000001b0: dfa1 193c fbea b7bc d3d7 bcbb 5708 2739
000001c0: 60e2 c23c bc47 2bbc 8f1c 963c ca4b 783c
000001d0: f7c4 6c3b 6291 d2bc 99f9 953c dde6 f43c
000001e0: 5fdc d43b 444a 40bb aafc dabb 240b 813b
000001f0: 1748 24bc bd32 843d 07a6 a9bd 05f4 16be
00000200: 1429 ddbd 3e0f 33bd 80e1 a4bd 72a9 e5bd
00000210: ae08 a03d 9e69 e03a 67c0 9e3d 9a6f 50be
00000220: 9e5d ccbe e2f7 00be ce8f 083d 6b76 2ebe
00000230: b656 103d 87ea 213d 268c cc3e 0e6a 973d
00000240: 95d8 e9bd 4d13 8bbd ac75 0dbe 98d6 a93d
00000250: d766 0f3d 5d2c 10bc d0ef 383e 3be8 253e
00000260: 9638 77bc 552b 353d 342a 123e eff4 d13d
00000270: 0ff3 083d 65de 2bbc 08bc 113d 34c2 b63d
00000280: 6aa8 26be 2c8f 0e3e c2b6 ac3d 581a cdbe
00000290: cca4 69bd 98a8 3c3d 3217 9d3e 416b 713e
000002a0: 5b47 95bc 1a71 2abe c3ba 53bd e8c9 e3bd
000002b0: a52e 76be ee1a acbc b764 973d ff04 fc3d
000002c0: 817a 233d a1fe b4bd 7780 6f3d 39de 853d
000002d0: 9b3f ce3d 5618 25be 1338 74bd 7c7d a5bd
000002e0: fd72 0fbe 472f 073e 1a03 87bd c18b a1ba
000002f0: 66ac a13c 6be1 bd3c fd33 953d 15db 8abc
00000300: 4128 d23c da25 de3c ef81 273d a29f 393d
00000310: dbf3 523e d6b9 a53d e2e0 713d 9f4d ecbd
00000320: ef30 663e c94f fb3d 021d 47be d008 4fbd
00000330: bb3e 313e f04e 163e 9dbd 12bd 6fea 8dbd
00000340: d7f7 14bc e407 7bbc 22f7 ddbc f1fd d33d
00000350: c374 a63d b5e0 e3bd a2e0 1bbe f60e 653d
00000360: 46bb 383d a47a 813d 7539 1ebe c31c 1fbe
00000370: 7341 e03c 40d0 f1bd aa1e edbd 6fdc 37be
00000380: 9377 61b9 d351 743e 28d3 373e 7d9e 813e
00000390: 2358 e13b 749c 303d f65e 55bd 8c14 6d3c
000003a0: 0b80 00bd 6b5e babc b72d debc d11f 5a3d
000003b0: cec7 933d cc4f f4bd 8558 e7bc 741b c2bd
000003c0: 64e4 acbd ffb5 1e3d 9fd8 143d cdfc e5bc
000003d0: faeb 0a3e f4fb 05be f4a2 dbbd 00ab 603d
000003e0: 0fc8 553d d34f d53c c994 463b 143f 7fbd
000003f0: 4921 87bd e2f9 dc3c f8e2 753d 4728 42bd
0.00947332 0.11316049 0.056034453 0.119749784 0.02143149 0.018269304 0.1571332 -0.040742133
0.02121816 -0.042068295 -0.005640466 0.22524402 -0.24618103 -0.2849497 -0.018360471 0.040868074
0.028267924 -0.15576094 -0.1280342 0.11659252 -0.047841292 -0.0066972584 -0.3805872 -0.079080634
0.012056671 0.25531787 0.1312262 -0.07571986 -0.030445216 0.12504311 0.0342663 -0.003800016
-0.20815594 -0.14170207 -0.07168284 -0.008537653 -0.06277984 -0.17275895 -0.06402149 -0.12850021
0.13049442 -0.040881712 0.010590106 0.097633235 -0.20586412 -0.11257437 -0.050048437 -0.08805416
-0.10727516 -0.13466541 0.0075598513 -0.00076561666 -0.04550786 0.13827778 0.18369907 0.043489438
-0.16426907 -0.18317944 -0.029888276 0.079762205 0.037546825 -0.108270034 -0.18627624 -0.13571273
-0.009119206 -0.056722134 -0.11133389 0.4457734 0.06675226 0.0030700048 -0.0126733 -0.084217966
-0.049308028 0.09418402 0.062634066 -0.031121003 -0.01425468 -0.03925599 -0.0021335701 0.0064181574
0.012660447 0.008332506 -0.0026736686 0.021920485 -0.033234034 -0.008400792 0.004697674 -0.023740489
-0.0030064029 -0.019230543 -0.020127334 0.011919688 -3.2819386e-05 -1.0495182e-05 0.0020679524 -0.010937971
-0.003663544 0.0005626007 0.011190108 -0.009057097 0.005775602 0.024402319 0.01590556 -0.0011321085
0.02488129 -0.024958078 0.040776685 0.034031138 0.009376972 -0.022450915 -0.005763033 0.00015929468
0.023789585 -0.0104541145 0.018324165 0.015154788 0.0036128142 -0.02570409 0.018307494 0.02989524
0.006495997 -0.002934114 -0.006682952 0.0039380956 -0.010026953 0.0645499 -0.0828362 -0.14741524
-0.10798851 -0.043715708 -0.08050823 -0.1121396 0.078141555 0.001712132 0.077515416 -0.20355073
-0.39915174 -0.1259456 0.033340268 -0.1703736 0.035238944 0.039530303 0.39950675 0.07393275
-0.11418263 -0.06790791 -0.1381442 0.08292884 0.035010185 -0.0087996395 0.18060231 0.1620187
-0.015089175 0.044230778 0.14273912 0.102517955 0.033434924 -0.010490035 0.03557971 0.0892376
-0.16275182 0.13921803 0.08433296 -0.4005916 -0.05704193 0.04605922 0.3068176 0.2357607
-0.018222502 -0.16644707 -0.05169178 -0.11122495 -0.24041231 -0.021008935 0.07392257 0.123056404
0.03991175 -0.08837629 0.058472123 0.06536526 0.100707255 -0.16122565 -0.05962379 -0.08080575
-0.14008708 0.13201629 -0.065923885 -0.0012324975 0.019735526 0.023178777 0.072853066 -0.01695017
0.02565396 0.027117658 0.0408954 0.045318253 0.20600836 0.08092086 0.059052356 -0.115382425
0.22479604 0.12271077 -0.1944466 -0.050545514 0.17309086 0.1467855 -0.03582536 -0.0692948
-0.009092293 -0.0153217055 -0.027095381 0.1035117 0.08127739 -0.11126844 -0.1522241 0.05592247
0.045100473 0.0632222 -0.15451606 -0.15538315 0.027374959 -0.11807299 -0.11578114 -0.17955182
-0.00021502217 0.23859338 0.17951643 0.2531623 0.006876962 0.043117955 -0.052092515 0.014470231
-0.03137211 -0.0227501 -0.027121408 0.053253 0.07215844 -0.119292825 -0.028240452 -0.094778925
-0.084419996 0.038747784 0.0363394 -0.028074646 0.1356658 -0.13084394 -0.1072444 0.05485058
0.052192744 0.02603904 0.0030301085 -0.062316015 -0.065981455 0.026974622 0.060030907 -0.047401693

fc.bias f4 [64]
00000000: 9166 ebbd 1874 22bd 044d 0e3d 568c c1bd
00000010: f814 8f3e a2a4 a03d 6f5a d13d d2fe 413d
00000020: 93e1 0a3d 0ba6 7b3c bd10 8c3b 851b 72bd
00000030: 3441 133e d06d 9d3c 6048 083d ed19 3a3e
00000040: 41f9 a23d f584 7abe b175 eb3d a1eb d3bd
00000050: ce0c 99bd 2797 cfbc 2864 b43b bdaa 383e
00000060: 9be7 f93d 5cc7 d23d f3f6 03be 9585 40bd
00000070: 562b f1bd 950c 863e 3556 9e3d eb4e 07bd
00000080: c8fb 39bd 65ca c73c a276 b13c c65c 3fbd
00000090: 78a6 493e 02a2 613e 1679 43be 751d 0ebe
000000a0: 8cd1 633d e330 2ebe 9a6c 1cbe a822 19bd
000000b0: 1594 a83c 4219 10be 207a 24be 1d8b 80bd
000000c0: 0b28 7c3d de60 223e 5ae3 073e 292f 7d3e
000000d0: 0e5d bcbd 92b0 49be 6e3b 1ebe acd3 b7bd
000000e0: 3001 a4be b688 d33c 040a 65bd ae9a 3e3d
000000f0: 085f 21bd 6353 bd3d 1d6b 553d 0620 863d
-0.11494172 -0.039661497 0.034741417 -0.09450595 0.27945685 0.07843901 0.10222327 0.047362156
0.03390653 0.015359412 0.0042744563 -0.059108276 0.14380342 0.019217402 0.033272147 0.18173952
0.07957698 -0.24464782 0.11497057 -0.10347677 -0.074731454 -0.02534063 0.0055051036 0.18033881
0.12202378 0.10291931 -0.12887172 -0.047002394 -0.11775844 0.26181474 0.077312864 -0.033034246
-0.045406133 0.024388501 0.021663014 -0.046719335 0.19692409 0.22034457 -0.1908916 -0.13878424
0.05561976 -0.17010836 -0.15275803 -0.037386566 0.020578424 -0.14072135 -0.16062212 -0.06276534
0.061561625 0.15857264 0.13270321 0.24725021 -0.09197436 -0.19696262 -0.15452358 -0.0897592
-0.32032156 0.025822025 -0.055917755 0.046534233 -0.03939727 0.092444204 0.052104104 0.06549077
