saved_models/FADA-few-shot-retraining/gtsrb/encoder_gtsrb_4.pt (torch_old, 318379 bytes, 6 tensors)

conv1.weight f4 [32, 3, 5, 5]
000000 23 0f 04 bd af 88 4c 3d 9e e4 4a 3d dd 01 9b bd
       -0.032240998 0.04993504 0.049534433 -0.07568715
000010 fe 4c 40 be 64 87 4d 3d 9a f8 84 3c b0 6d b9 bc
       -0.1877937 0.050177947 0.016231824 -0.02263531
000020 8a 1a a4 bd 1e 59 57 3d 63 fa 37 3d a2 de 4f 3d
       -0.080128744 0.052575223 0.04491652 0.05074943
000030 db ba a1 3d 1d 73 0a 3e 38 c4 f4 bc 87 d2 00 3d
       0.07896968 0.13520475 -0.02987872 0.031450775
000040 c2 3c 8e bd c6 39 c6 bd a9 e7 91 bd e5 eb c2 bc
       -0.069451824 -0.09678988 -0.07124264 -0.023794124
000050 b5 5c 27 bd af f6 fc 3d b9 ca bf 3d 3e fe 67 3c
       -0.040859897 0.12351739 0.09364838 0.014159737
000060 48 53 7c 3d 88 40 e1 3d 89 56 33 bd 06 86 88 3b
       0.06160286 0.109986365 -0.0437837 0.0041663675
000070 23 06 21 3d 3e 08 8c 3d dc 56 81 bd e1 8c ce 3d
       0.039312493 0.068375096 -0.06315395 0.10085464
000080 ee cd 99 bb c5 1e f1 3c 05 33 e8 bb 67 89 4e bd
       -0.004693738 0.029433617 -0.00708616 -0.050424006
000090 bc 7b c8 bc 7b 9a 91 bd f9 68 3c 3c a7 9d 0c 3d
       -0.024473064 -0.07109543 0.011499637 0.034330036
0000a0 77 dd b7 bd f6 4c be bb 0f 6f f1 bd a0 f0 51 3d
       -0.08977788 -0.0058075143 -0.11788761 0.05125487
0000b0 18 a6 16 be e1 a8 de b9 d1 d0 ed 3d ff d3 66 bd
       -0.14711797 -0.00042468964 0.11612094 -0.05635452
0000c0 d8 78 07 bd a0 ff 8f bc 28 39 39 3b c2 38 22 bd
       -0.03307423 -0.017577946 0.0028262828 -0.03960491
0000d0 ad 54 97 3d 61 2c 90 bd 65 d2 65 3d 48 10 44 bd
       0.073891975 -0.070397146 0.05610885 -0.04786709
0000e0 2c 25 73 bc ac ca 9a bd 9c e2 35 bd 43 c7 e1 bc
       -0.014840405 -0.07558188 -0.044405565 -0.027560836
0000f0 8a 45 17 3d 92 39 c6 3d 4f d0 a2 3d 2a b5 cf 3d
       0.036931552 0.096789494 0.07949888 0.10141976
000100 0a e7 10 3e d0 49 f3 bb 1f 9b 9d 3d af d8 bd bd
       0.14150634 -0.0074245706 0.076956026 -0.09269845
000110 e7 b2 14 bd 0a 0d bc bd 59 2b 8b bd da 43 1f bd
       -0.036303427 -0.091821745 -0.06795377 -0.038883068
000120 61 bb 3a bd 51 3e 46 3e 87 2a dc 3d 4c e5 aa 3d
       -0.045588855 0.1935971 0.10750299 0.08344516
000130 5f 02 2d be ad 31 05 be da 7b ee bd 12 17 01 be
       -0.16895436 -0.13007231 -0.116447166 -0.12606457
000140 a2 cf 05 be f8 a2 5d be bd 1a 1f be 2c 09 bc 3d
       -0.13067487 -0.21644199 -0.15537544 0.09181437
000150 b8 52 3f 3e 6c 2f 11 be af 0d bb be f6 df 08 3c
       0.18683898 -0.14178246 -0.36533877 0.008354178
000160 22 9d 8a 3e 21 cb c7 3e a8 34 41 be 26 e3 a4 be
       0.27073008 0.39022163 -0.18867743 -0.3220455
000170 4c bd 95 3d 52 99 dc 3e 71 4d 94 3e e9 0f b1 be
       0.07311496 0.43085724 0.28965333 -0.3458245
000180 f6 c7 93 be 5d 1b 1a 3e fa ff a0 3e 2b 68 ad 3e
       -0.28863496 0.15049501 0.31445295 0.33868536
000190 4a 58 b9 bd f0 40 68 be 17 5e 28 be 0c 18 d3 3d
       -0.09050043 -0.22681022 -0.16442142 0.10307321
0001a0 0f d7 f8 bc bf 71 1c be 8e 4e ce be d0 63 f7 bd
       -0.030375985 -0.15277766 -0.40294307 -0.120795846
0001b0 a4 b1 62 3e 6a a5 35 3e 84 f8 b7 be 99 d1 9c be
       0.22138077 0.17738882 -0.3593179 -0.3062866
0001c0 35 8e 0c 3e 90 d7 d6 3e 48 35 73 3e db d5 a2 be
       0.13726123 0.41961336 0.23750794 -0.31803784
0001d0 66 86 b5 be 47 5e 33 3e 7d f8 96 3e 11 a5 bd 3e
       -0.354541 0.17516433 0.29486457 0.37039998
0001e0 29 10 00 bf dd 88 c6 be 45 1f 9e 3c 66 a0 ac 3e
       -0.5002466 -0.38776293 0.01930202 0.33716124
0001f0 ec 26 95 3e bb bf 88 bd d0 c6 cd bd ea 81 1d 3c
       0.29131258 -0.06677195 -0.10047686 0.009613493
000200 5f 28 9e bd 10 fd 48 3e 39 ca 50 bd 92 3d 80 be
       -0.07722544 0.19627786 -0.050974105 -0.25046974
000210 07 a3 fa bd 43 92 40 3e a9 23 88 3e 45 38 95 be
       -0.12238126 0.18805794 0.26589707 -0.29144493
000220 33 4d 9a be 24 b2 8a 3d 21 56 92 3e 86 5c a2 3e
       -0.30137023 0.06772259 0.28581336 0.31711215
000230 f8 90 98 be 47 14 76 be f7 b2 aa 3e 9d 94 c1 3e
       -0.29798102 -0.24031173 0.33339664 0.37808695
000240 62 60 8e 3e d6 2c c3 be 14 bc 8b be 9d 04 58 3e
       0.2780791 -0.38120145 -0.2729193 0.2109551
000250 77 8f 93 3e ba 7e 09 3e c0 44 b9 bd ca 0e 20 be
       0.28820392 0.13427249 -0.09046316 -0.15630642
000260 96 ae 21 bd 6b 68 09 be b6 53 5d bd 62 14 a7 bd
       -0.03947314 -0.13418739 -0.05403491 -0.081581846
000270 8d 77 4e be a7 43 4f 3d ec 6b 5f bd 47 ba 14 be
       -0.20162793 0.050601628 -0.05454628 -0.14524184
000280 7b 8c 2c be 4a 6c 60 be c2 4d d5 bd 69 fd 4a bd
       -0.16850464 -0.21916309 -0.10415222 -0.049558077
000290 4e d0 7a 3c cb be 91 bc 13 75 51 be 98 25 3d be
       0.015308453 -0.017791172 -0.20454817 -0.18471372
0002a0 a6 4a 02 be 80 f2 80 3d 8f c8 13 3d be 56 dd bd
       -0.12723789 0.06296253 0.03607994 -0.108075604
0002b0 dd 62 3d bd f0 3b c9 bd 81 ec c6 3c e6 44 e3 3c
       -0.04623686 -0.09825885 0.024282696 0.027742814
0002c0 b9 48 23 bc e1 f6 d7 3d ca 64 a9 bd 17 3a 49 3b
       -0.009966069 0.10545135 -0.08271177 0.003070479
0002d0 f8 f5 08 bd 44 a5 ec bb 11 7b 5a bd 27 40 c8 bc
       -0.0334377 -0.0072218496 -0.05334002 -0.024444653
0002e0 db 25 59 3d 11 ee a9 bd 7e 04 d8 bd f8 fb 38 bc
       0.053014617 -0.08297361 -0.10547732 -0.011290543
0002f0 cc 4f aa bd 8c 77 9d bd 77 6d a7 3b 9d 44 43 bd
       -0.08316001 -0.076888174 0.005109485 -0.047672857
000300 ac 50 5d bd f7 cf 72 bc cd 42 db bd 10 ec 88 3d
       -0.054032013 -0.0148200905 -0.107061006 0.0668565
000310 87 19 8f bd b5 8a c7 3d 40 96 f8 3d 2a 99 81 bd
       -0.06987291 0.09743253 0.12138033 -0.06328042
000320 b6 98 80 3c 09 60 3b 3e ba 23 41 3e 02 b7 01 3e
       0.015697818 0.18298353 0.18861285 0.12667468
000330 ae 16 85 bc 5a 54 d5 3d 40 f4 17 3d ab 28 5e 3e
       -0.016246166 0.104164794 0.03709817 0.21695201
000340 06 11 3d 3e e8 e6 45 3d 4f af f0 3d 59 eb 7f bd
       0.18463525 0.048315912 0.117521875 -0.062480304
000350 df 96 ff 3d 6a aa f8 3c 42 28 24 3e 72 35 80 3d
       0.12479948 0.030354697 0.16030982 0.06260194
000360 f3 f6 d1 bc 93 1c c9 bc 71 e1 1c 3d 0d 28 ab 3d
       -0.02563045 -0.024549758 0.038300935 0.083572485
000370 b4 0d 29 3e 16 b5 35 3e ac 96 e9 3c 5a 0a 08 3d
       0.16509134 0.1774486 0.028514229 0.033212997
000380 69 ca a7 3d 74 a6 1e be 20 d1 18 be ea 45 fe bd
       0.081929035 -0.15493184 -0.14923525 -0.12415679
000390 6b d8 61 be e4 c9 87 be 22 7b a3 bd 82 5b ae 3d
       -0.22055213 -0.26521218 -0.0798247 0.085135475
0003a0 e7 ae 0e 3e 0d ed 30 be e9 ba cc be 9c ff a1 bd
       0.13933907 -0.17277928 -0.3998635 -0.07910082
0003b0 a6 a0 a0 3e 68 cc c5 3e 71 61 b7 bd ac 2f b9 be
       0.31372565 0.38632512 -0.08954132 -0.36169183
0003c0 0f 2d f7 bd d6 09 2c 3e e6 92 53 3e 1d e7 9c bc
       -0.12069141 0.16800627 0.20661506 -0.019153172
0003d0 fa b1 a9 be 97 70 90 be 8f 03 31 3e ee 31 53 3e
       -0.33143598 -0.282109 0.17286514 0.20624515
0003e0 42 09 33 bd a1 8c 76 be 99 cb 6e bd d2 eb 8d bd
       -0.04371 -0.24077083 -0.058299635 -0.06929745
0003f0 6c da 19 bd 76 f8 33 be 8e d1 83 be f7 ef 38 3c
       -0.03756182 -0.17575249 -0.25745815 0.011287681

conv1.bias f4 [32]
000000 08 73 93 be 07 d7 f8 3d 46 31 5c be bd 00 d2 3d
       -0.287987 0.12150388 -0.21503171 0.10254047
000010 52 f3 2c 3d 73 2a 80 3d 3b dd 01 3d 7c 61 a0 be
       0.042224236 0.062580965 0.031705122 -0.31324375
000020 03 30 ee 3d d9 ed b5 be aa 5a fe bd 49 d7 56 be
       0.11630251 -0.35533026 -0.124196365 -0.20980562
000030 b9 64 a5 bd 87 c6 af be 3f bd b3 bd f3 db ea ba
       -0.08075852 -0.34331152 -0.0877633 -0.0017918333
000040 0e 5b b7 bd b0 3a a4 be ab c0 03 bd dd 6b d0 be
       -0.08952914 -0.32076025 -0.032166164 -0.40707293
000050 dc 8e 67 be c2 38 6a be 4c 76 05 be 4b 72 0f 3d
       -0.2261309 -0.22873214 -0.13033408 0.035021108
000060 93 de 09 bc 50 d4 41 be 2d 77 cb 3d aa ce 02 be
       -0.008414882 -0.18928647 0.0993484 -0.12774149
000070 6b 43 f3 3c b0 8a 2f be ff b5 b9 3d 2d a9 2a bd
       0.029695233 -0.17142749 0.09067916 -0.041665245

conv2.weight f4 [32, 32, 5, 5]
000000 db 00 38 3d 66 36 85 3c 5a ff 46 3c d4 3a 3e bd
       0.04492269 0.01626129 0.0121458415 -0.04644282
000010 c4 11 1d bd 36 7f 2c bd f3 de 14 bd ef d2 2f 3a
       -0.03834702 -0.042113505 -0.036345433 0.0006707152
000020 7b 02 6f bd 53 be 4a bd d0 2b 12 3d aa a4 77 bd
       -0.058351975 -0.049497914 0.035686314 -0.06045977
000030 ad cd 5c 3a 2e 88 4a 3c 7b 82 7e 3d f5 85 0f bd
       0.0008422982 0.012361569 0.062136155 -0.03503986
000040 89 04 37 bd e4 d0 1e 3c 5c fa ea bc 05 49 9e 3d
       -0.04468206 0.009693358 -0.028683834 0.07728771
000050 97 b0 c1 3d ad 88 02 3d e5 bf f4 3c 41 1b a0 bb
       0.0945751 0.031868625 0.029876659 -0.0048860614
000060 ba 3f 95 bc 1b 75 01 bc 50 8a 4b be 30 0f 55 3e
       -0.018218864 -0.007901455 -0.19876981 0.20806575
000070 05 30 4c 3e b1 48 09 be 62 08 0f be ab d3 9c be
       0.19940193 -0.13406636 -0.13968042 -0.3063024
000080 0e ee 3c 3e 75 e9 15 3e f5 da f5 bd 5f e5 6d be
       0.18450186 0.14639838 -0.12004653 -0.2323203
000090 30 97 a1 be 18 87 1f 3d f7 38 80 3d 03 c1 0c be
       -0.3156066 0.038947195 0.06260865 -0.13745503
0000a0 dc 58 40 bd d9 6f e1 bd 92 5f ba bd eb 08 15 bd
       -0.046959743 -0.11007661 -0.0910026 -0.036385458
0000b0 a3 e2 23 be 6b 75 4b bc c7 43 bb bd ca 2f 8a bd
       -0.16004424 -0.012418131 -0.09143787 -0.06747396
0000c0 85 08 cc bd c2 68 94 bd 24 5f b2 bd d8 54 53 bd
       -0.099625625 -0.072465435 -0.08709553 -0.051594585
0000d0 a0 5e 7f bc 1b ab a8 bd cc c7 ff bd 8c e5 f1 bc
       -0.015586525 -0.08235761 -0.1248928 -0.029528402
0000e0 fb 36 ad bd 01 c1 e5 ba 74 59 77 bd f8 fe 64 bc
       -0.08457752 -0.0017528833 -0.060388044 -0.013976805
0000f0 b9 33 c0 3d 6a 90 b9 bc 20 97 29 bd 69 09 fa bc
       0.09384865 -0.02265187 -0.04140389 -0.030522065
000100 2d 4d f0 bb 8c af c8 3d 8b 71 4a bc 27 05 69 bd
       -0.007333419 0.09799108 -0.012356172 -0.05688968
000110 12 5a 2e bd 05 f9 39 bd 3c 49 16 3e c0 6a cd 3d
       -0.042566366 -0.0454035 0.14676374 0.100301266
000120 f6 c2 bf 3d 59 d8 5f 3b 6e 47 38 bd c3 ab 4b 3e
       0.09363358 0.0034156053 -0.044989996 0.1988974
000130 23 26 73 3d 93 66 f1 be c6 bc f7 bd 63 30 40 3e
       0.059362542 -0.4714857 -0.120965526 0.18768458
000140 ff 35 4a 3e 50 85 2d 3e 6f 5d 09 bf b0 0d 78 be
       0.1974716 0.16945386 -0.53658193 -0.24223971
000150 9c 2d d8 3d 92 40 80 3d 17 a8 f6 3d 3d 25 9f be
       0.10555574 0.06262316 0.12043779 -0.31083098
000160 30 c3 bb be 71 cf cb bd 34 32 d5 bd f4 cc 31 bd
       -0.36672354 -0.09951676 -0.10409966 -0.04340835
000170 c2 15 aa bc d9 32 23 bc 73 e7 11 3d 58 68 19 be
       -0.020762328 -0.0099608535 0.035621118 -0.1498121
000180 23 ea 9d bd 4f 00 b7 bd 4d b4 32 bd b8 7a 74 3d
       -0.07710674 -0.08935606 -0.04362898 0.059687346
000190 72 9f 43 3e cd 6d 69 be 6d 76 41 be 82 93 40 3d
       0.19103792 -0.22795792 -0.18892832 0.047015674
0001a0 0c 46 02 3d e6 f5 7f 3c 40 4f 1f be 08 74 a5 be
       0.031805083 0.015622592 -0.15557575 -0.32315087
0001b0 0b 55 19 be 7d 99 9d be 0e 23 68 be e4 84 68 be
       -0.14973848 -0.30781165 -0.22669622 -0.22706944
0001c0 ae 81 a0 bd 3d c4 0d be e1 c2 75 be cf 04 b2 ba
       -0.078372344 -0.1384439 -0.24000122 -0.0013581755
0001d0 60 a4 cd 3d d2 2f 78 3d b6 f3 80 bc 6e 0a 1a bc
       0.10041118 0.06059248 -0.01574121 -0.009401901
0001e0 fc 34 1a bd 75 7e fa bc e7 2f a6 bd 94 ad 59 bd
       -0.037648186 -0.030577878 -0.081146054 -0.053144053
0001f0 93 d1 bf 3c a2 46 c6 be b9 35 11 be bd 89 18 bc
       0.023415362 -0.38725764 -0.1418065 -0.009310183
000200 ed 58 22 bc e0 3e 3f be 48 69 84 3d c8 91 87 be
       -0.009908897 -0.18676329 0.06465393 -0.2647841
000210 22 0c 64 3b e0 cb 4b 3d 0e 4d 73 3d 89 11 88 3e
       0.003479727 0.049754977 0.059399657 0.26575878
000220 19 22 bc bd 1d 4e b5 bd 37 6e 99 3d e7 2d ac 3d
       -0.09186191 -0.088527896 0.07491725 0.08407193
000230 44 54 bf 3d 21 e0 91 bd ab ca b0 be 8e a7 11 be
       0.09342244 -0.07122827 -0.34529623 -0.14224073
000240 db 66 9f bd a8 66 70 3e a9 50 9c 3e 3c f0 4c 3e
       -0.0778329 0.2347666 0.3053029 0.20013517
000250 ae b9 c5 3c 85 85 3e bb 65 8e 3b 3e b5 3b 61 3d
       0.02413639 -0.0029071283 0.18316038 0.05498858
000260 93 2d a7 be 21 61 89 3c 6d bc 24 3e 8d 6c b2 3d
       -0.32651958 0.016769947 0.16087504 0.08712111
000270 da bc c5 3d f7 2f 34 be 61 0a 94 be 80 fd dd bd
       0.09655161 -0.17596422 -0.28914168 -0.10839367
000280 af e0 97 bd ac 0b 65 bc 71 a3 63 be 01 53 97 be
       -0.07415902 -0.013979834 -0.22230317 -0.29555514
000290 0a 6c 42 be 45 ff d2 bc 9f ea 02 bb da 3b 36 bb
       -0.18986526 -0.025756488 -0.001997627 -0.002780667
0002a0 a3 d8 e5 3c 59 b0 d1 3d c1 c2 f8 bc c1 ec b6 3d
       0.028057402 0.10238714 -0.030366303 0.08931876
0002b0 03 16 96 3c fc 9d 73 3b 14 76 12 3e ed 43 fb bd
       0.018321043 0.0037173023 0.14302856 -0.12268815
0002c0 e7 41 6c 3d e3 94 4c 3d 2e 9a 4d bc f3 d7 15 be
       0.057680037 0.049946677 -0.012548966 -0.1463316
0002d0 c1 40 26 bd 01 b4 ab bc 88 e4 0d 3c 4d b5 78 3c
       -0.040589098 -0.020959856 0.008660443 0.015179944
0002e0 48 29 24 be 7f 5e 4b 3c 9e 6c 4d 3c d2 c4 03 3c
       -0.16031373 0.012412666 0.012538103 0.008042531
0002f0 ec d8 b4 3b 05 d0 57 bd 4a fc 1e bd 2d dc d8 bd
       0.005519023 -0.052688617 -0.03881482 -0.1058887
000300 6f 44 c8 bd 79 2b b0 bd df e6 8d 3c a9 5a 5f bd
       -0.09778678 -0.08602042 0.017322002 -0.05452982
000310 a9 8a 41 bd 98 a1 4e bc ed 15 f6 bc b5 88 68 3d
       -0.047251377 -0.012611769 -0.030039752 0.056771
000320 6f 53 0b 3e fa 20 b2 3d f9 73 7f be 0f 03 c6 bd
       0.13606046 0.08697696 -0.24946584 -0.09668552
000330 41 fb 90 ba cb 10 cb 3d 40 35 2a 3e 55 20 fa bc
       -0.0011061208 0.099153124 0.16621876 -0.030532995
000340 3c f8 d4 be a7 bb 61 be f3 7e 17 be 7e 88 89 3d
       -0.41595638 -0.2204424 -0.14794521 0.06715487
000350 6e 9a 86 bd 8b e8 3f be aa d6 84 bd e6 eb 3d be
       -0.06572424 -0.18741052 -0.064862564 -0.1854702
000360 94 8b 75 bd 08 ca cf bd cd 5a 6f bc d6 5d d1 3d
       -0.059947565 -0.10145956 -0.014609051 0.10222976
000370 b6 49 ec bd 2a 1f 44 be ec 91 1b be b8 c1 03 be
       -0.11537497 -0.19152513 -0.15192384 -0.12866867
000380 1b e0 8b 3b e6 5e 77 bb 53 e8 8e bd 03 19 19 bd
       0.004268659 -0.0037745773 -0.06977906 -0.03737737
000390 46 f6 1b be c1 78 35 bc 80 47 10 bd 78 f3 94 3c
       -0.15230665 -0.011076153 -0.035224438 0.018182501
0003a0 78 50 d5 bd 02 58 09 be 61 45 d0 bb 59 77 15 3d
       -0.10415739 -0.13412479 -0.006355927 0.036490772
0003b0 8c d5 cf 3a 52 a6 69 bd 0f 37 c4 bd 8a 98 c8 bb
       0.0015856489 -0.05704338 -0.09580814 -0.0061216997
0003c0 63 06 ed 3c b5 2d a7 3c 72 21 9e 3c 8b ea 9e bd
       0.02893371 0.020407537 0.019303057 -0.07759579
0003d0 cb 55 af bc bf 96 be 3d 14 19 e8 3d e5 8c d0 3c
       -0.021403214 0.09306096 0.11332908 0.025457809
0003e0 4c 36 73 3c c4 67 54 bc 0e 9c 5a 3d da 1b 2b bd
       0.014844488 -0.012964193 0.05337148 -0.04177461
0003f0 3d 4a 13 3d 62 1f 66 3d d1 58 38 be 46 8c 52 bd
       0.03595947 0.056182273 -0.18002631 -0.051403306

conv2.bias f4 [32]
000000 5a dc c1 3d 04 87 ca ba 08 be 52 3d a9 f5 0f bd
       0.09465857 -0.0015451615 0.05145076 -0.03514639
000010 b6 78 91 bc de d5 1a 3e 94 37 02 3e f4 f2 72 3e
       -0.017757755 0.15120646 0.12716514 0.23725492
000020 f0 17 18 3c 29 83 37 3e f1 fb ca 3d fd 7a 59 3d
       0.009283051 0.17921127 0.09911335 0.053095806
000030 ab 1f af 3d c3 81 31 bc bc c0 f4 3d 28 2d 0e 3e
       0.08550962 -0.01083416 0.11950824 0.13884413
000040 f3 c7 d3 3d c8 79 92 3e b4 ce cd bb d9 78 a6 3d
       0.10340872 0.28608537 -0.0062807444 0.081285186
000050 3e 3b e0 3d ea bc 65 3e e1 07 e2 3d 34 a7 79 3e
       0.109487996 0.22435346 0.11036659 0.24380189
000060 78 b0 f0 3d 87 d9 61 3b 8a 6a 2e bb ae 0b cd 3d
       0.11752409 0.0034461932 -0.0026613795 0.10011993
000070 75 df 0d 3e 45 e4 30 3e 82 b1 29 bb e8 fe 35 3e
       0.13854773 0.17274578 -0.0025893156 0.1777302

fc.weight f4 [64, 800]
000000 c6 cb 23 3d be f5 fa 3d 82 84 2e 3d cb 92 1d 3e
       0.039989255 0.12253903 0.042606838 0.15388028
000010 d6 4f be 3c 30 b7 8c 3d 6c d0 4d 3e a6 20 16 3a
       0.023231428 0.06870878 0.20099038 0.0005726911
000020 03 f4 0a 3d 06 78 8d bd 7a e5 17 3d c1 5d 86 3e
       0.033924114 -0.06907658 0.03708408 0.26243404
000030 d8 c0 78 be 98 60 a3 be 1c 64 52 bd 69 a3 1a bd
       -0.24292314 -0.31909633 -0.051365003 -0.037753496
000040 ca 19 75 3d 8c db 0c be 0f 35 15 be e6 cd d8 3d
       0.059839047 -0.13755625 -0.14571021 0.10586147
000050 b0 2f 23 bd ed 96 3a bd 26 b3 ad be 2b 47 b0 bd
       -0.0398404 -0.04555409 -0.33925742 -0.08607324
000060 01 d5 aa 3c cb 3b 5d 3e 72 b3 04 3e 0e 74 5d bd
       0.020853521 0.2160484 0.12959078 -0.054065756
000070 8b fb 04 bd f4 90 fa 3d be db 80 3b 7a ed b5 bc
       -0.032466453 0.12234679 0.0039324453 -0.022207964
000080 78 85 22 be 6f b7 e2 bd 03 01 d4 bd 26 95 10 bd
       -0.15871227 -0.110701434 -0.103517555 -0.03529849
000090 38 81 20 bd 89 57 2c be cf 6c f4 bc e0 ef 22 be
       -0.039185733 -0.16830267 -0.02983704 -0.15911818
0000a0 09 87 b5 3d ac 9f f9 bc 5f 4b ea bb 31 01 e8 3d
       0.088636465 -0.030471645 -0.007150098 0.11328352
0000b0 a5 20 4d be 8d 60 f8 bd 27 b3 7d bd 80 d7 a9 bd
       -0.20031984 -0.121277906 -0.06193843 -0.082930565
0000c0 d7 5d e3 bd 77 97 07 be fd ff db bc 62 bf ff 3b
       -0.11101883 -0.13241373 -0.026855463 0.007804797
0000d0 9d 23 72 bd 80 17 05 3e 2e c1 27 3e 25 6f f1 3c
       -0.059115995 0.12997246 0.16382286 0.029471943
0000e0 7e 2d 34 be e3 8d 2f be 00 d8 83 bd c9 7f c8 3d
       -0.17595479 -0.17143969 -0.06437683 0.09789998
0000f0 3d e4 c7 3b 21 3a fc bd bf be 7e be 02 fe 1c be
       0.006100206 -0.12315775 -0.24877451 -0.15331271
000100 24 21 bd bc 27 c8 a8 bd 48 a9 02 be 26 ec c7 3e
       -0.023087092 -0.08241301 -0.12759888 0.39047354
000110 49 20 71 3d 13 1e cf bc d5 b3 0e bd df 0f cc bd
       0.05886868 -0.025282895 -0.03483947 -0.09963965
000120 d2 5d fd bc 20 9e c3 3d 2c 7c 05 3c 79 f1 fe bc
       -0.030928526 0.09551644 0.008147281 -0.031121003
000130 76 8c 69 bc e4 ca 20 bd 5e d3 0b bb 68 4f d2 3b
       -0.01425468 -0.03925599 -0.0021335701 0.0064181574
000140 c3 6d 4f 3c 10 85 08 3c b7 38 2f bb 97 92 b3 3c
       0.012660447 0.008332506 -0.0026736686 0.021920485
000150 69 20 08 bd 7a a3 09 bc f2 ee 99 3b 6a 7b c2 bc
       -0.033234034 -0.008400792 0.004697674 -0.023740489
000160 12 07 45 bb 5f 89 9d bc 14 e2 a4 bc cc 4a 43 3c
       -0.0030064029 -0.019230543 -0.020127334 0.011919688
000170 8c a7 09 b8 77 14 30 b7 7c 86 07 3b 2d 35 33 bc
       -3.2819386e-05 -1.0495182e-05 0.0020679524 -0.010937971
000180 12 18 70 bb 7e 7b 13 3a b7 56 37 3c 38 64 14 bc
       -0.003663544 0.0005626007 0.011190108 -0.009057097
000190 9a 3e 93 bb 19 20 43 3c a7 3a 20 3b fa 6d 55 bc
       -0.0044935467 0.011909508 0.0024449022 -0.013026709
0001a0 75 60 53 3c 89 d0 08 bd 10 38 eb 3c 98 0d c5 3c
       0.012901415 -0.033402 0.028713256 0.024054334
0001b0 61 0b 6b 3b 12 ba 0f bd 28 fe 91 bc 65 07 16 bc
       0.0035864937 -0.03508956 -0.017821386 -0.009157036
0001c0 6e 64 28 3d 1e 17 90 bc 1f 2b 96 3c e3 e5 0f 3d
       0.041111402 -0.017589148 0.018331109 0.035131346
0001d0 5f 2d 74 3b 96 36 19 bd 80 83 cc 3b dd e6 f4 3c
       0.0037258489 -0.037405573 0.006241262 0.02989524
0001e0 97 db d4 3b 73 03 27 bb aa fc da bb 79 e2 11 bc
       0.0064959037 -0.0025484234 -0.006682952 -0.008904093
0001f0 05 29 b3 bc 90 57 0d bb ae 36 a7 bd a0 84 2a be
       -0.021870146 -0.0021567084 -0.08164726 -0.16652155
000200 a5 2d d0 bd fb 4a 8c bd e5 9e 97 bd de aa b9 bd
       -0.10164956 -0.06850239 -0.074033536 -0.090657935
000210 f2 16 c6 3d 52 23 d7 3c cf 6d af 3d 1c 79 51 be
       0.09672345 0.02626196 0.08565866 -0.20456356
000220 19 df cc be 84 78 e3 bd 23 f6 63 3d 94 45 25 be
       -0.4001396 -0.11106971 0.055654656 -0.16139823
000230 05 bb 71 3c 43 50 f0 3b 86 40 bc 3e 04 09 aa 3d
       0.014754062 0.0073337867 0.36767977 0.08302501
000240 b3 88 04 be cf f5 c6 bd 94 e7 1a be 19 87 86 3d
       -0.12942772 -0.09714853 -0.15127403 0.065687366
000250 e5 8c de 3c 93 32 54 3c bd 02 15 3e 67 6f 09 3e
       0.027166793 0.012951511 0.14551826 0.13421403
000260 bd 33 6f bc 3a 16 29 3d 37 07 d9 3d 82 ce 70 3d
       -0.014599738 0.041280963 0.10597079 0.05879069
000270 ca db 0f bc eb af 85 bd 84 0f 9b 3c 40 7e 9f 3d
       -0.008780429 -0.06527694 0.018928297 0.07787752
000280 8c 27 3d be 29 a8 be 3d a1 e5 88 3d 00 81 d3 be
       -0.18472117 0.09309418 0.06684423 -0.41309357
000290 43 c1 9b bd b3 81 45 3c 1d 83 9b 3e 30 63 60 3e
       -0.07605221 0.0120548485 0.3037347 0.21912837
0002a0 af b4 57 3a 27 d8 1a be 2f 5f c4 bd 7a 48 1a be
       0.0008228523 -0.15121518 -0.09588467 -0.1506671
0002b0 47 d7 8d be a5 29 72 bd 92 26 c8 3d 8c b2 9b 3d
       -0.27703306 -0.059121747 0.09772982 0.076024145
0002c0 9a 37 1a 3d e6 83 c7 bd 15 47 15 3d 87 2f 3d 3d
       0.037650682 -0.097419545 0.036444742 0.046187904
0002d0 75 99 bd 3d 1a b2 1a be 21 56 16 bd d7 b4 aa bd
       0.09257785 -0.15107003 -0.036703233 -0.08335274
0002e0 50 0a 19 be 0b 06 0d 3e 8a a3 9d bd d8 78 ac bc
       -0.1494534 0.13771836 -0.07697208 -0.021053717
0002f0 b6 86 ba 3b e8 30 18 3d f2 5a b6 3d 02 05 1e bd
       0.0056923283 0.037156016 0.08904065 -0.038578995
000300 28 0c cc bb 15 fc 36 3d 72 8c 59 3d de 40 3f 3d
       -0.006227035 0.044673998 0.053112455 0.04669272
000310 db d8 30 3e f7 c9 ca 3d e9 cc 13 3d 61 a2 ee bd
       0.17270224 0.09901803 0.03608409 -0.11652065
000320 d2 37 4f 3e 40 97 ba 3d 82 9a 42 be 46 97 b2 bd
       0.20236138 0.0911088 -0.19004253 -0.08720259
000330 50 ca 2a 3e 7f a5 9e 3d 4a 71 72 bd 27 91 bb bd
       0.16678739 0.077464096 -0.059190072 -0.09158545
000340 e7 df e0 bc a5 f6 99 bd 2b dd 9b bd cd c3 af 3d
       -0.027450515 -0.07517747 -0.07610544 0.08582268
000350 0d 62 56 3d 5e 4a 0e be e0 fb 49 be 49 53 2d 3d
       0.052339602 -0.13895556 -0.19724989 0.042315755
000360 de f2 53 3c 64 7b 35 3d ab 75 27 be b0 4d 24 be
       0.012936322 0.044307128 -0.1635348 -0.1604526
000370 5b de 12 3c 5f d9 07 be 96 9b 09 be cb fa 4d be
       0.0089641465 -0.13266514 -0.13438258 -0.20115201
000380 be ab d2 bb 1e 71 58 3e 02 ea 1c 3e 89 50 83 3e
       -0.0064291647 0.21136901 0.15323642 0.2564738
000390 87 38 08 3c df aa a2 3d 2e 6e 8a bd 00 7d c7 bc
       0.008314258 0.07942747 -0.06759296 -0.024351597
0003a0 80 0b 89 bd f1 0e 28 bd 34 64 db 3c bb 03 56 3d
       -0.066916466 -0.041029874 0.026781179 0.05224965
0003b0 98 fe d4 3c 0e 1f 11 be 1c 0b 1b bd 9e ca 89 bd
       0.026000306 -0.14172003 -0.03785239 -0.06728099
0003c0 52 31 d7 bd 89 dc 4e 3c 1a 3d b2 bc 75 96 1b bd
       -0.10507454 0.012625822 -0.021757651 -0.037985284
0003d0 96 bb 17 3e 09 95 27 be 2e 04 22 be e7 bb 04 3d
       0.14817652 -0.16365446 -0.15821907 0.03240576
0003e0 0c 89 52 3d 68 8a 33 3d ac 6a 8d 3c e8 af 12 bd
       0.05140023 0.043833166 0.01726278 -0.03581229
0003f0 a1 09 ce bd f8 59 27 bc e5 6c 5a 3d 5a 35 87 bc
       -0.1006043 -0.010214321 0.053326506 -0.016504932

fc.bias f4 [64]
000000 64 34 1a be b5 ac 11 bd db cb ad 3c 9b 01 e5 bd
       -0.15059048 -0.035565097 0.02121537 -0.11181947
000010 62 c8 79 3e 96 b1 fe 3d a7 5a 7f 3d 3f 73 db 3c
       0.24392846 0.124362156 0.062342312 0.026788352
000020 f3 9d 44 3b db 77 86 3c 04 b9 30 3d ba b2 32 bd
       0.0030001372 0.016414573 0.043145195 -0.04362748
000030 37 c9 cc 3d ca 10 04 3c 4b ec 5a 3d d5 6d 83 3e
       0.09999316 0.008060643 0.053448003 0.25669733
000040 38 04 cf 3d 66 6b 55 be 18 26 f8 3d 01 48 ab bd
       0.101082265 -0.2084175 0.12116641 -0.08363343
000050 07 22 39 be 52 1a f2 bb 94 fe b3 bc 5a f8 38 3e
       -0.18079387 -0.0073883915 -0.021971978 0.18063489
000060 f1 98 da 3d bf 02 09 3e 1e 04 2a be 97 30 5e bd
       0.106737025 0.13379954 -0.16603133 -0.054245558
000070 9f 2f b1 bd 9f e2 87 3e e4 61 a1 3d 4f a5 c8 bc
       -0.08651661 0.26540086 0.07879999 -0.024492888
000080 2f 08 f6 bb 34 ce c6 3b 30 66 14 3d e5 c0 3b bd
       -0.0075083 0.006067062 0.036230266 -0.045838255
000090 04 7d 62 3e 2a 73 6a 3e 8d b1 29 be 60 eb b6 bd
       0.22118002 0.22895494 -0.16571636 -0.08931613
0000a0 3b df 2a 3d c1 d7 34 be f2 00 f0 bd ad bd 4f bd
       0.041716795 -0.17660429 -0.1171893 -0.050718
0000b0 73 57 99 3c 58 2f 0b be d4 35 1a be c8 26 6a bd
       0.018718457 -0.13592279 -0.15059596 -0.05716589
0000c0 11 ca c1 3d 9e 11 51 3e 66 18 0d 3e 05 59 82 3e
       0.09462369 0.20416877 0.13778839 0.25458542
0000d0 3e d3 ee bd 54 6e 2c be ee 9e 09 be 20 ac 01 be
       -0.11661385 -0.16838962 -0.13439533 -0.12663317
0000e0 aa 9d af be 1e 7c cc 3c 1a e8 95 bc 68 83 0b 3d
       -0.34299976 0.024961527 -0.018299151 0.034060866
0000f0 4a f2 bf bd 08 5f d9 3d 86 52 53 3d 1c a3 9d 3d
       -0.09372385 0.10613829 0.051592372 0.07697126
