saved_models/FADA-few-shot-retraining/gtsrb/encoder_gtsrb_17.pt (torch_old, 318381 bytes, 6 tensors)

conv1.weight f4 [32, 3, 5, 5]
000000 24 f0 02 bd 49 ef 18 3d a0 16 db 3c ba 49 af bd
       -0.031967297 0.037337575 0.026744187 -0.08558984
000010 82 ab 4e be b2 db 29 3d 59 5a c3 b8 cc 53 3c bd
       -0.20182613 0.041469283 -9.315153e-05 -0.045978352
000020 e8 a0 92 bd ea a3 53 3d 88 e3 d8 3c a1 bf 09 3d
       -0.07159597 0.051669993 0.026475683 0.033630017
000030 c1 b4 8a 3d 43 53 ed 3d 91 89 14 bd 23 95 98 3c
       0.06772757 0.115881465 -0.036264006 0.018625801
000040 66 6b 7e bd 51 d0 aa bd 73 c6 c2 bd f2 ec 00 bd
       -0.062114142 -0.083405145 -0.095105074 -0.03147597
000050 79 17 24 bd 17 1e 00 3e 52 85 be 3d c3 89 6f bc
       -0.040061448 0.12511478 0.093027726 -0.014620247
000060 bf 37 1b 3d 2f 94 07 3e 30 aa 5e bd a8 a5 1a bc
       0.03789496 0.13240121 -0.054361522 -0.00943891
000070 9a 12 e2 3c 5e 62 54 3d 03 c4 70 bd ca 04 b6 3d
       0.02759676 0.051851623 -0.05878068 0.08887632
000080 6e a0 8c bc 33 1c 14 3d c0 46 a4 bc aa a2 6b bd
       -0.017166343 0.036159705 -0.020053267 -0.057528175
000090 bf ed 14 bd ed 92 a8 bd 6c 4f 5f bb 94 71 da 3c
       -0.036359545 -0.08231149 -0.0034074439 0.026665486
0000a0 36 91 a9 bd f8 61 4b 3d d0 6e ce bd 6d f1 36 3d
       -0.0827965 0.049653977 -0.100797296 0.044663835
0000b0 ad f3 0a be 8c 08 e1 3b 0a 56 00 3e 45 d5 57 bd
       -0.13569517 0.006867474 0.12532821 -0.052693624
0000c0 cb 6e 39 bd 0f 8a 04 bd 57 32 84 3c 31 3f 85 bd
       -0.045271676 -0.032358225 0.016137285 -0.065061934
0000d0 58 48 79 3d fc 12 a2 bd 1f 91 54 3d 85 b1 37 bd
       0.060860008 -0.07913777 0.05189621 -0.04484703
0000e0 bb 5e d9 bc 45 96 bf bd 62 ce 34 bd 91 92 dc bc
       -0.026534429 -0.093548335 -0.044142134 -0.026925357
0000f0 91 ca ee 3c ab aa c2 3d 86 b6 83 3d 89 90 b7 3d
       0.029149326 0.095052086 0.06431298 0.08963115
000100 27 b0 0d 3e 1f b6 08 3b cf 2b 09 3e 6d 96 b7 bd
       0.13836728 0.0020860506 0.13395618 -0.08964238
000110 f1 7c 4f bd cf 1f a1 bd 6d ab 89 bd 72 0e 05 bd
       -0.050656263 -0.07867395 -0.0672215 -0.03248448
000120 20 3a 46 bd a2 b7 39 3e 3e fe ce 3d f3 f8 c9 3d
       -0.048395276 0.18136457 0.101070866 0.098619364
000130 a6 ad 21 be 50 48 f6 bd ff 18 d3 bd 42 71 e9 bd
       -0.15788898 -0.12025511 -0.10307502 -0.11398555
000140 ab dd ed bd 67 42 50 be 5f b1 15 be b7 63 d4 3d
       -0.116145454 -0.2033783 -0.14618443 0.103705816
000150 92 67 4c 3e 24 cb 02 be 82 2f b6 be a8 63 84 3c
       0.19961384 -0.12772804 -0.3558312 0.016160801
000160 75 91 8f 3e 3b 86 cd 3e d2 e6 33 be b7 7c 9f be
       0.28040662 0.40141472 -0.1756852 -0.31149837
000170 4e b3 a3 3d b6 3a e1 3e 18 5b 99 3e 1e e2 aa be
       0.07993184 0.43990105 0.29952312 -0.3337564
000180 2e c5 8b be 8b 2a 27 3e d0 52 a5 3e ca 23 b4 3e
       -0.27298874 0.16324823 0.32289743 0.35183555
000190 64 ea 94 bd 45 e2 60 be 3f 9e 20 be e1 b2 e7 3d
       -0.07271269 -0.21961315 -0.15685366 0.11313415
0001a0 fc 03 a2 bc 7d 99 0d be 1e fd c8 be 54 37 e3 bd
       -0.01977729 -0.13828082 -0.39255613 -0.110945374
0001b0 04 6f 6f 3e 0a db 40 3e ff d8 b1 be d5 5c 98 be
       0.23382193 0.18833557 -0.34735867 -0.29758325
0001c0 2c 76 18 3e 89 b1 dc 3e b8 dd 7f 3e 79 7c 9d be
       0.14888829 0.431042 0.24986923 -0.30759028
0001d0 14 c2 b0 be 25 c8 3c 3e fc 71 9d 3e 6e 72 c4 3e
       -0.3452307 0.18435724 0.30751026 0.38368553
0001e0 50 29 fc be fe 90 c0 be c3 84 f4 3c 3f 2e b2 3e
       -0.4925027 -0.3761062 0.029848462 0.34800908
0001f0 9b 04 9d 3e 91 d2 29 bd 00 9b b3 bd fb 11 ca 3c
       0.30667576 -0.041460577 -0.08769798 0.024666777
000200 f2 26 79 bd ab c0 57 3e 07 0c f0 bc 03 1b 6f be
       -0.060828157 0.21069591 -0.02930261 -0.23350148
000210 a2 56 d6 bd 99 83 52 3e 31 98 8f 3e 5b 94 8a be
       -0.10465743 0.20558013 0.280458 -0.2706631
000220 40 6a 92 be 66 3d b3 3d 78 ed 9b 3e 8b 9f ab 3e
       -0.28596687 0.08751945 0.30454612 0.3352016
000230 57 32 90 be ac 8a 69 be 38 37 b2 3e 4f 48 cb 3e
       -0.28163406 -0.22806805 0.34807754 0.39703605
000240 f6 75 98 3e e8 8c bb be dd 99 83 be 8c c5 66 3e
       0.29777497 -0.3663094 -0.25703326 0.22536296
000250 e9 d4 9b 3e 76 de 1f 3e 06 46 a1 bd bc 08 0b be
       0.30435875 0.15612206 -0.07874684 -0.1357755
000260 2c 94 22 bd c5 c3 06 be 68 13 2f bd 0f 38 88 bd
       -0.03969209 -0.13160618 -0.042743117 -0.06651317
000270 d4 a5 31 be 64 6d 6f 3d 95 10 20 bd ff 03 01 be
       -0.17348415 0.058453932 -0.039078314 -0.1259918
000280 25 77 1c be 38 7f 48 be 2a ad b2 bd 31 7a ca bc
       -0.15279825 -0.1957978 -0.08724435 -0.024716469
000290 93 5c 40 3d 1f 88 32 bc 7a 8b 36 be 77 35 21 be
       0.046963286 -0.010896712 -0.17826644 -0.15743051
0002a0 59 0c e1 bd ab 85 ad 3d d4 d7 61 3d f7 df 93 bd
       -0.10988683 0.08472761 0.05513747 -0.07220452
0002b0 77 d1 08 bd c7 fa bd bd 00 c8 23 3d 3e 55 05 3d
       -0.033402886 -0.092763476 0.039985657 0.032551996
0002c0 41 7e 3f 3b 70 b9 cc 3d 18 6f aa bd 69 ee 4c 3c
       0.002921954 0.09996307 -0.08321971 0.012508013
0002d0 e9 48 04 bd 29 19 8f 3c 8b 61 45 bd 3e a7 78 bc
       -0.032296095 0.017468052 -0.048188727 -0.015176592
0002e0 9a e5 8e 3d 6c 29 8c bd fa af a5 bd c7 df 72 3c
       0.06977387 -0.06843838 -0.080902055 0.0148238605
0002f0 ac 8b 6d bd f1 c0 52 bd db f7 25 3c f6 91 a6 bc
       -0.05799453 -0.051453535 0.010129894 -0.020333271
000300 20 3d b8 bc 48 b3 b1 3a c2 60 b6 bd 2a 34 b4 3d
       -0.022490084 0.0013557458 -0.08905174 0.08799012
000310 88 02 0b bd fc 81 dd 3d c6 0f 00 3e 34 b9 61 bd
       -0.03393796 0.10815808 0.12506017 -0.055108264
000320 fd df 51 3a b7 6f 36 3e 19 f0 2b 3e c1 0d e0 3d
       0.0008006094 0.17816053 0.16790809 0.10940123
000330 0c 3f 9a bc ed de b6 3d 2d 67 3e 3d 64 77 51 3e
       -0.018828891 0.089292385 0.046485115 0.204557
000340 ba b2 36 3e 02 39 62 3d af f1 f6 3d 42 f4 5f bd
       0.17841616 0.055230148 0.12057816 -0.0546763
000350 37 58 0b 3e 4e 98 31 3d c2 17 32 3e 48 c5 53 3d
       0.1360787 0.04335814 0.17391875 0.051701814
000360 60 92 5a bc a4 9a 9b bb 18 f6 25 3d 9b eb ae 3d
       -0.013340563 -0.004748659 0.040517896 0.08541032
000370 cf b0 2c 3e 69 fd 4e 3e 80 2b d2 3c ba a0 9d 3c
       0.16864322 0.20213856 0.025655508 0.01924168
000380 da 13 9f 3d 0f b0 29 be 9c 25 28 be 5c 5d 0b be
       0.07767458 -0.16571067 -0.16420597 -0.13609833
000390 38 9f 58 be b1 f2 80 be 05 58 a7 bd 95 5b 99 3d
       -0.21154487 -0.2518516 -0.08171085 0.07488171
0003a0 ba 72 07 3e 10 c9 2c be 2b f3 cc be 6d 80 9a bd
       0.13227358 -0.16873574 -0.40029272 -0.075440265
0003b0 d8 7a 9e 3e ef 81 c3 3e 90 99 b7 bd 47 fc bc be
       0.30953097 0.3818507 -0.089648366 -0.36911222
0003c0 03 f4 ed bd 1b 56 25 3e 62 ca 4b 3e 64 59 91 bc
       -0.11618807 0.16146128 0.19901422 -0.01774282
0003d0 ec 34 aa be b2 0f 8a be 4a 0e 2d 3e 31 05 53 3e
       -0.332435 -0.269651 0.16899982 0.20607449
0003e0 cc 6a 09 bd 8b 88 6d be b6 69 89 bd 7d 19 a2 bd
       -0.033549115 -0.23196618 -0.06709616 -0.07915018
0003f0 92 00 2d bd 34 a1 28 be 96 57 79 be 91 39 0e 3c
       -0.042236872 -0.16467744 -0.24349818 0.008680717

conv1.bias f4 [32]
000000 0d 8e a0 be 2b d8 00 3e 07 fa 72 be 3e 78 96 3d
       -0.31358376 0.12582462 -0.2372819 0.07347153
000010 33 bc 55 3d 4d ef 9a 3d 49 22 d3 3c 8d 56 8a be
       0.052181434 0.07565174 0.025773184 -0.27019158
000020 2e db d7 3d f8 ac ba be 82 72 dc bd 05 b0 43 be
       0.10539852 -0.3646009 -0.10764028 -0.19110115
000030 aa 19 9c bd ea 08 a8 be 31 53 ad bd 03 04 cf 3a
       -0.076220825 -0.328193 -0.08463133 0.0015794042
000040 d4 82 ce bd f7 ab a1 be 4d 6f 48 bc 87 4c c6 be
       -0.10083547 -0.3157651 -0.012233567 -0.3873026
000050 3e 6c 68 be 85 53 5d be cd ff 0a be f4 38 3b 3d
       -0.22697541 -0.21613891 -0.13574143 0.04570861
000060 61 87 72 bc fb ea 49 be 5c 7a ad 3d 8f 1a 08 be
       -0.014802785 -0.19718544 0.08470604 -0.13291381
000070 c4 92 8f 3c 12 96 23 be e5 21 ae 3d 16 9b 62 bd
       0.017526038 -0.15975216 0.085025586 -0.055323683

conv2.weight f4 [32, 32, 5, 5]
000000 5f 8d a7 bc 60 5b 8b bb e7 6f d7 3c 89 78 c6 bc
       -0.020453153 -0.004252836 0.026298476 -0.024227398
000010 1b 93 45 be 4e b9 93 bd a8 cb 80 bd b1 79 40 bb
       -0.19294398 -0.072130784 -0.06288844 -0.0029369409
000020 26 b3 b7 bc ce 7b 18 be 81 0e 9b 3d 72 2e 43 bc
       -0.022424292 -0.14890978 0.07571126 -0.011912929
000030 83 ca 38 bd ec 3f 7b bb ba 92 f2 3c 70 42 7b 3c
       -0.045115005 -0.003833766 0.02961098 0.015335664
000040 51 92 9d bd e4 f2 1c bd c2 90 9e bd c1 f7 e7 3c
       -0.07693923 -0.038317576 -0.07742454 0.02831638
000050 f8 7c 5e 3d 41 34 24 bd 2c 4d e2 bb 3a 7c 92 bd
       0.0543184 -0.040088896 -0.0069061723 -0.071526006
000060 e9 3d b8 bd 7b 99 6f 3b fa 5e 63 be 60 12 3a 3e
       -0.089961834 0.0036559987 -0.222042 0.18171072
000070 8f a2 3d 3e 82 8f 0a be d7 e0 fe bd b2 32 9d be
       0.18519042 -0.13531306 -0.124452285 -0.3070274
000080 de f1 29 3e 0d 36 fe 3d 16 2c f1 bd 8f f9 3b be
       0.16596171 0.12412653 -0.11775987 -0.18356918
000090 12 d7 99 be 82 b0 0a 3d 7b 57 f0 3c c3 52 0d be
       -0.30046898 0.033859737 0.029338589 -0.13801102
0000a0 4f 37 22 bc 28 40 a7 bd 65 97 a7 bd ee d9 60 bd
       -0.009900882 -0.08166534 -0.08183173 -0.054895334
0000b0 b1 3d 1d be f3 33 4b 3c 5a f4 95 bd 15 a6 06 bd
       -0.15355565 0.012402522 -0.07321997 -0.032873232
0000c0 5d a1 c5 bd 3e 99 89 bd 39 56 a1 bd e7 52 14 bd
       -0.09649918 -0.06718682 -0.07877774 -0.036211874
0000d0 ec a4 18 bd c0 bd be bd 1b 44 e3 bd d3 22 3b bc
       -0.037266657 -0.09313536 -0.110969745 -0.011421877
0000e0 e9 9c cf bb 43 d7 a5 3c e4 15 a0 bd 73 7e a0 ba
       -0.006335844 0.020244246 -0.07816675 -0.0012244716
0000f0 f7 38 92 3d 57 4c 77 3c 72 57 20 bc d6 28 1b bd
       0.071397714 0.015093884 -0.009786474 -0.03788074
000100 d0 73 7e 3c 41 77 d0 3d c0 57 1d bc 5e fd 1b bd
       0.015530542 0.10178996 -0.009603441 -0.038083427
000110 aa 3f 36 bd ee 24 4a bd 1d a3 3a 3e 48 be e1 3d
       -0.04449431 -0.049351625 0.18226285 0.110226214
000120 36 99 92 3d 6f cd 07 3b 19 55 6a bd 26 a4 41 3e
       0.07158129 0.0020721813 -0.05721006 0.18910274
000130 ef cf 95 3d e7 1d e6 be 56 d1 ef bd bd 18 46 3e
       0.07315051 -0.4494469 -0.117098495 0.19345374
000140 26 35 4c 3e 1c 17 4b 3e 70 f1 f6 be 07 1f 7b be
       0.1994215 0.19833034 -0.48231077 -0.24523555
000150 9e be bc 3d b0 d4 4a 3d 99 81 1e 3e a5 c5 8a be
       0.09216045 0.04951924 0.15479125 -0.27103916
000160 1e 94 a0 be f0 9c fd bd 4d 08 c3 bd ac f2 c6 bc
       -0.31363004 -0.12383449 -0.095230676 -0.024285637
000170 fb 18 ad 3c 17 f4 b4 3c f3 10 6b 3d 45 3b 10 be
       0.021130076 0.022089047 0.05738921 -0.1408511
000180 c6 4c 92 bd 81 16 67 bd 22 14 e0 bc a3 90 8b 3d
       -0.071435496 -0.056417946 -0.02735335 0.06814697
000190 cb 0a 67 3e 44 4f 5f be 3c 80 56 be 93 90 cd 3c
       0.22562711 -0.21807581 -0.20947355 0.025093352
0001a0 80 a3 18 3d e7 17 11 3d b2 d3 0d be 43 83 a2 be
       0.0372653 0.035423186 -0.13850287 -0.3174077
0001b0 ea 9f 25 be 74 9d 9a be a8 42 60 be 5b 37 5a be
       -0.16174284 -0.30198252 -0.21900427 -0.21310179
0001c0 0d b7 91 bd 3e 4f 12 be 44 f1 84 be f5 3e fb 3c
       -0.07114992 -0.14288041 -0.2596532 0.030669669
0001d0 a0 72 fc 3d da ab ab 3d 6f 05 1e 3c 2f cd bf 3c
       0.123265505 0.083823875 0.00964485 0.023413269
0001e0 f5 e1 f5 bc 7c 2f 8d bc 62 b1 53 bd e0 ac f4 bc
       -0.030014971 -0.017234556 -0.051682837 -0.02986759
0001f0 9d 34 7b 3d 90 2c cf be 89 b6 33 be 25 52 cc bc
       0.061329473 -0.40463686 -0.175501 -0.024941513
000200 3b 51 3e bc 76 9e 3a be 5e d7 af 3d b3 36 8b be
       -0.011616047 -0.1822451 0.08586 -0.2719017
000210 59 5a 0a bd a7 84 0b 3d 5a 38 39 3d e2 c8 94 3e
       -0.03377757 0.034062054 0.045219757 0.2905951
000220 61 06 bc bd 71 07 02 be 0d 8a 4c 3d ff c5 99 3d
       -0.09180904 -0.12698151 0.049936343 0.07508468
000230 bb 22 f7 3d 45 60 8c bd 83 c3 d4 be 8b ca 51 be
       0.12067171 -0.068542995 -0.41555414 -0.2048742
000240 91 71 ef bd 60 32 69 3e 7d d6 a4 3e a3 c3 59 3e
       -0.11691583 0.22773123 0.32194892 0.21266036
000250 22 a5 3c 3c 27 7b dc bc 9f 05 41 3e 7d c0 70 3d
       0.01151398 -0.026914192 0.188498 0.05877732
000260 fc 87 a2 be a7 48 28 3c 61 79 36 3e ef dc b0 3d
       -0.31744373 0.010271228 0.1781974 0.0863589
000270 6f e2 cc 3d 27 ad 2b be 55 f7 98 be 8c 0b c8 bd
       0.10004126 -0.16765271 -0.298762 -0.097678274
000280 da 31 9d bd ae e9 f5 bb 2c 89 47 be f1 89 83 be
       -0.07675524 -0.0075046634 -0.1948592 -0.25691178
000290 99 83 3f be 9a ac 63 3b 77 ae ef 3c 26 f8 6d 3c
       -0.18702544 0.003474033 0.029257996 0.014524495
0002a0 f3 2c 7f 3d dd 1a 1d 3e 9c df c9 bc df 6b ea 3d
       0.062298726 0.15342279 -0.024642758 0.11446356
0002b0 3b 5c 25 3d 51 e5 17 3d 57 7e 36 3e 72 80 8a bd
       0.04037116 0.037083928 0.17821632 -0.0676278
0002c0 97 ed 70 3d 4a d9 f7 3c c7 5c d5 bc 0f 10 06 be
       0.058820333 0.030254979 -0.026045216 -0.13092063
0002d0 b4 e1 be bc 0b 69 f6 3c a4 6f 5c 3c 4a f5 cb bb
       -0.023300983 0.030079385 0.013454352 -0.006224309
0002e0 24 cf 2f be 61 23 4c 3d 7c 09 d7 3c cf 71 31 3d
       -0.17168862 0.049838427 0.02624964 0.043321427
0002f0 4e c4 db bb f8 fa 8b bd 4a 8d 25 3d d9 f6 63 bd
       -0.006706751 -0.06834978 0.040417947 -0.055655334
000300 7f 3d 15 bd d0 3d 93 bd ea a2 3f bd fe bb d3 3a
       -0.0364356 -0.07189524 -0.046786226 0.0016154048
000310 05 69 40 3c 45 13 5a 3c 29 e0 e4 bb 2f 06 f8 3c
       0.011743789 0.013310258 -0.00698473 0.030276386
000320 b7 88 05 3e c9 4f ae 3d af 79 62 be 3d e9 c6 bd
       0.13040434 0.085113116 -0.22116731 -0.097124554
000330 54 40 8e 3c 37 d2 bd 3d e3 42 22 3e cf 67 88 bc
       0.017364658 0.09268611 0.15845828 -0.016651062
000340 f9 fd c8 be bc 03 5f be a6 a5 28 be 6c 42 a5 3d
       -0.39256266 -0.21778768 -0.1646944 0.080693096
000350 8b 52 3e bd 55 f8 27 be 41 7b 29 bd 2f 96 33 be
       -0.046465438 -0.16403325 -0.04137731 -0.17537759
000360 76 cc f4 bc 74 f4 9f bd a3 06 b2 3c ce af 11 3e
       -0.02988265 -0.078102976 0.02173168 0.1422722
000370 fb 83 c6 bd cb da 51 be ba 25 15 be ae c7 d0 bd
       -0.09693142 -0.20493619 -0.14565173 -0.10194336
000380 cc 53 fc 3c 22 88 36 bd 28 4a e8 bb 44 88 56 bd
       0.030801676 -0.04456342 -0.0070889182 -0.052376047
000390 f3 fd 17 be cf 62 99 bc 74 90 21 bd a0 a7 ea 3c
       -0.14842968 -0.018723873 -0.0394444 0.028644383
0003a0 63 d5 ad bd eb 69 05 be 3d 2e b4 bc a1 34 9f 3d
       -0.08487966 -0.13028686 -0.021994704 0.0777371
0003b0 21 34 5c 3c f4 18 0b bd 32 1f b2 bd 65 8a 86 3c
       0.013440163 -0.033959344 -0.08697356 0.016423414
0003c0 60 89 36 3d a0 c2 7b 3d fe 41 fd 3c 39 21 8d bc
       0.044564605 0.061464906 0.030915257 -0.017227756
0003d0 a4 87 07 3d cf 40 a6 3d 53 63 01 3e d9 61 76 3d
       0.03308834 0.0811783 0.12635545 0.06015191
0003e0 f2 c4 5b 3d f3 69 4e 3d 8e 8e b3 3d 25 b0 f2 bb
       0.05365462 0.05039401 0.087674245 -0.007406252
0003f0 50 ef f5 3c e5 c2 f0 3c 87 65 30 be 43 f0 64 bd
       0.03002134 0.029389808 -0.1722623 -0.055893194

conv2.bias f4 [32]
000000 2a 5a c4 3d c1 6b af 3c a5 7e 2a 3d a9 f5 0f bd
       0.0958751 0.021413686 0.041624684 -0.03514639
000010 c4 79 27 bd 65 79 1d 3e 93 39 09 3e 2b a1 70 3e
       -0.04088761 0.1537834 0.13400869 0.2349898
000020 6d cd b9 3c ce 6f 4e 3e 4a 27 ba 3d 6f ea 6b 3d
       0.022680962 0.20159838 0.09089525 0.05759662
000030 ca 95 a8 3d 87 23 03 ba 5e e2 08 3e af 24 fd 3d
       0.08231695 -0.00050025474 0.13367602 0.123605125
000040 3f ba d1 3d b7 a3 8d 3e b4 ce cd bb 2f e1 5c 3d
       0.10240602 0.27663967 -0.0062807444 0.05392569
000050 d5 6a cb 3d 73 e2 4f 3e b3 54 db 3d 89 72 63 3e
       0.09932486 0.20301227 0.107095145 0.2221166
000060 b3 16 f6 3d 87 d9 61 3b 8a 6a 2e bb 51 9d ea 3d
       0.12016048 0.0034461932 -0.0026613795 0.11455787
000070 49 be 11 3e af ad 3a 3e 07 e8 6e 3b 21 d1 30 3e
       0.14232744 0.18230318 0.0036454217 0.17267276

fc.weight f4 [64, 800]
000000 a0 2e bd bc de 6a b0 3d 8e df a5 3d 43 69 0a 3e
       -0.023093522 0.08614133 0.0809928 0.13516717
000010 08 a9 0f 3c 1b ee e5 3c 0e ec 2d 3e 3f f4 cb 3a
       0.0087683275 0.02806764 0.16984579 0.0015560462
000020 be eb d4 3c 86 01 e7 bb 46 4d ec bb f3 6f 6b 3e
       0.025991317 -0.007049742 -0.00721136 0.22991924
000030 e5 ef 53 be a5 70 b5 be 3d 6e 03 bd 49 5f 83 3d
       -0.20696981 -0.35437503 -0.032087553 0.064146586
000040 19 38 6d 3d 25 1d d4 bd b3 a5 00 be 3c 43 05 3e
       0.057914827 -0.103571214 -0.12563209 0.13013929
000050 b2 6b 58 bd fc ff 31 bd eb 76 c8 be 64 74 99 bd
       -0.05283708 -0.043457016 -0.39153227 -0.07492903
000060 4b 88 2a 3c 89 2d 57 3e c5 01 fc 3d cf 6a 95 bd
       0.010408471 0.21013464 0.12305025 -0.07295763
000070 bd 43 cd 3b 3c 4b f9 3d b8 57 35 3c d7 d9 2a bd
       0.0062641785 0.12172553 0.011068277 -0.041711655
000080 f1 d9 cb bd 61 18 ce bd 62 77 8e bd e2 9f 1f bd
       -0.099536784 -0.10063244 -0.06956364 -0.038970836
000090 e8 d5 41 bd e6 5d 35 be 1f 1c bf bd ca 86 0c be
       -0.047323138 -0.177116 -0.093315355 -0.13723293
0000a0 f5 da 7f 3d ed 7b 39 bd 03 29 a5 bc a5 69 7f 3d
       0.062464673 -0.0452842 -0.020161157 0.06235661
0000b0 92 82 45 be a0 37 e9 bd 4c d4 ba bc db b4 87 bd
       -0.1928809 -0.11387563 -0.02280631 -0.06626292
0000c0 47 19 c4 bd 35 9b d1 bd f8 56 3c bd 10 59 8f bb
       -0.09575134 -0.102346815 -0.045981377 -0.0043746307
0000d0 80 76 7a bd 74 fe 0f 3e b6 5b 06 3e 8e 1f 51 3c
       -0.061148167 0.1406191 0.13120922 0.012763871
0000e0 01 43 03 be 72 33 56 be 01 bc 89 bc f3 64 cf 3d
       -0.12818529 -0.20918062 -0.01681328 0.101266764
0000f0 22 2c 9c 3c 06 0a ae bd a3 d9 47 be 4c aa fb bd
       0.019064013 -0.084980056 -0.19516616 -0.12288341
000100 f7 e6 89 3c e2 a3 4a bd 34 73 d7 bd 65 9b c9 3e
       0.016833765 -0.049472697 -0.1052002 0.3937637
000110 01 3e 9c 3d 91 7a 70 39 fa ff 33 bd 09 93 c8 bd
       0.07629014 0.00022933843 -0.04394529 -0.0979367
000120 2a 59 cf bc f7 d6 bd 3d ea f0 1b 3c 79 f1 fe bc
       -0.025311071 0.09269517 0.009517888 -0.031121003
000130 76 8c 69 bc e4 ca 20 bd 5e d3 0b bb 68 4f d2 3b
       -0.01425468 -0.03925599 -0.0021335701 0.0064181574
000140 c3 6d 4f 3c 10 85 08 3c b7 38 2f bb 97 92 b3 3c
       0.012660447 0.008332506 -0.0026736686 0.021920485
000150 69 20 08 bd 7a a3 09 bc f2 ee 99 3b 6a 7b c2 bc
       -0.033234034 -0.008400792 0.004697674 -0.023740489
000160 12 07 45 bb 5f 89 9d bc 14 e2 a4 bc cc 4a 43 3c
       -0.0030064029 -0.019230543 -0.020127334 0.011919688
000170 8c a7 09 b8 77 14 30 b7 7c 86 07 3b 2d 35 33 bc
       -3.2819386e-05 -1.0495182e-05 0.0020679524 -0.010937971
000180 12 18 70 bb 7e 7b 13 3a b7 56 37 3c 38 64 14 bc
       -0.003663544 0.0005626007 0.011190108 -0.009057097
000190 bb a7 2c 3d 28 c7 8c 3d 0f 93 35 3d 94 12 50 3b
       0.042152148 0.068739235 0.0443297 0.0031749355
0001a0 3a ed 01 3d b6 e2 0c ba 44 46 9e 3d 68 de 59 3d
       0.031720378 -0.0005374359 0.07728246 0.05319062
0001b0 49 73 5d 3c b4 47 b7 bc 10 1b 5d 3b b8 c3 ad 3c
       0.013516256 -0.022373058 0.0033738054 0.02121149
0001c0 ed 9f 15 3d 39 9a 36 3c 72 58 c9 3c e6 d6 33 3d
       0.03652947 0.011145168 0.024578307 0.043906115
0001d0 db 6b ef 3c c2 23 21 bc e7 60 ed 3c 00 af e8 3c
       0.029226234 -0.0098351855 0.02897687 0.028403759
0001e0 d3 2a 1d 3d 59 02 ef 3c bc cc 61 3c 07 44 c3 3c
       0.03837092 0.029175924 0.013781723 0.023836149
0001f0 00 b9 1e 3c 46 1b 42 3d 5a b8 cc bd 8c 9e 34 be
       0.009687662 0.04738929 -0.099961 -0.17638606
000200 ae fc 01 be c0 44 4d bd b5 2d b7 bd bb 26 01 be
       -0.12694046 -0.050114393 -0.08944265 -0.12612431
000210 a9 18 bb 3d f4 c4 5a 3d 11 db 95 3d 59 4d 40 be
       0.09135563 0.053410485 0.07317174 -0.18779506
000220 15 02 b1 be e5 0c 0c be 2d db 2a 3d b0 68 18 be
       -0.345719 -0.13676794 0.04171293 -0.14883685
000230 ce 13 73 3d 2b 49 80 3d 65 9e d0 3e 32 f7 b4 3d
       0.05934506 0.06263956 0.40745845 0.08836211
000240 64 8c cf bd 5e 79 c8 bd ae 21 37 be c7 46 ad 3d
       -0.10134199 -0.09788774 -0.17883942 0.08460765
000250 4d 3f 26 3d 7a 28 01 3c bb 0e 2b 3e 6c 8c 3a 3e
       0.040587712 0.0078831855 0.16704838 0.18217629
000260 c2 20 45 bc a5 69 67 3d a1 15 cd 3d 19 68 b4 3d
       -0.012031736 0.056497235 0.10013891 0.088089176
000270 1d dd b8 39 f2 4d 3b bd 9f 10 58 3d 2e ef 86 3d
       0.00035259957 -0.04572863 0.052750226 0.06588589
000280 54 8f 13 be d7 ad 37 3e 7d fa 16 3d 2e 0f d5 be
       -0.14410144 0.17937408 0.036859978 -0.41613144
000290 9c a2 ac bd bb 5b 16 bb e7 7c 93 3e 57 e0 40 3e
       -0.08429453 -0.002294286 0.2880623 0.18835579
0002a0 8b a0 15 bd 41 c2 31 be 5c 5e 69 bd 33 1c e7 bd
       -0.03653006 -0.17359258 -0.056974754 -0.112846754
0002b0 6f e9 91 be 03 d9 7e bc a2 d2 5e 3d 43 8a 35 3d
       -0.28498408 -0.015554669 0.054400094 0.04432131
0002c0 9a b7 67 3d 9e 0e 9e bd 4c b6 2c 3d 1a d6 31 3d
       0.05657158 -0.07717632 0.04216604 0.043417074
0002d0 60 77 8e 3d 2a 54 16 be db bb 69 bd 72 8e 86 bd
       0.06956363 -0.14680544 -0.05706392 -0.06570138
0002e0 6a 23 08 be bf e1 0d 3e 53 6b 00 bd 53 83 92 bc
       -0.1329476 0.13855647 -0.031352352 -0.017884886
0002f0 dd 80 ca 3c 03 40 00 3d 30 11 82 3d d4 32 ef bb
       0.02471965 0.031311046 0.063509345 -0.0072997604
000300 49 ec d8 3b d4 8e 01 3d 51 71 39 3d c6 ff be 3c
       0.0066199643 0.031630352 0.045274083 0.023315322
000310 be a9 31 3e ae ca b8 3d 06 8e 7e 3d f0 bd 06 be
       0.17349908 0.09023033 0.062147163 -0.13158393
000320 70 42 6d 3e 96 2b bb 3d 64 a3 25 be c7 b0 d6 bc
       0.23169875 0.09139173 -0.1617561 -0.02620734
000330 b1 06 2e 3e 3c 0a 14 3e f4 a1 6a bd 6c 11 aa bd
       0.1699474 0.14457029 -0.057283357 -0.08304104
000340 c7 c8 36 bd 24 e3 d2 3c f0 d4 be bd a4 32 f2 3d
       -0.04462507 0.025743075 -0.09317958 0.11826065
000350 9f ef 8a 3d f5 aa 1b be dc 7f 15 be c9 95 1b 3d
       0.06783985 -0.15201934 -0.14599556 0.037984643
000360 33 db c2 3c b2 6b aa 3c 90 51 29 be 16 97 15 be
       0.023786163 0.020803306 -0.1653502 -0.14608416
000370 b8 a9 4e 3d 05 a8 ef bd 3f cf df bd d8 3e 1c be
       0.050454825 -0.11701969 -0.10928201 -0.15258348
000380 7c 59 4e bb f3 f4 8a 3e 8b 2e 35 3e fa 51 6b 3e
       -0.0031486442 0.27140006 0.17693536 0.2298049
000390 1e 8f eb bc 3c 69 8b 3b 57 c9 1f bd 51 6f ee bc
       -0.028754767 0.0042544883 -0.039010372 -0.029105814
0003a0 f0 89 fe 3b 2d 2e 65 3d 3e d7 2c bc ee 69 66 3d
       0.0077679083 0.05595224 -0.010549365 0.056253366
0003b0 38 f8 25 3c 57 f9 30 be 8a 6a 68 bd 2f 20 c1 bd
       0.010129981 -0.17282616 -0.05674223 -0.09429967
0003c0 b5 7d 94 bd 73 b5 88 3d df d5 f7 3c 7f 00 bf bc
       -0.07250539 0.06675234 0.030253349 -0.023315666
0003d0 c8 21 0b 3e 4b 99 03 be 84 9a 40 be 26 8a 37 3c
       0.13587105 -0.12851445 -0.18808943 0.011202371
0003e0 28 d0 89 3d 90 72 e7 3c fd 9c 9d 3b 10 35 19 bd
       0.06729156 0.02825287 0.004809974 -0.03740412
0003f0 25 ec 60 bd 17 4f 20 3d 3f ab a2 3d 59 fd b9 39
       -0.054912705 0.039137926 0.07942819 0.00035474708

fc.bias f4 [64]
000000 b5 4a 14 be d8 20 ca bc 6b 18 23 3d 28 be e6 bd
       -0.14481623 -0.024673864 0.03981821 -0.11266738
000010 8b a5 77 3e 33 8b b0 3d 1b 68 b4 3d 5b e0 7c 3c
       0.24184243 0.086203 0.08808919 0.01543435
000020 2d 0e 62 3b 43 c8 21 3c cf 77 1a 3d 15 9b e0 bc
       0.0034493313 0.009874406 0.037711915 -0.027417699
000030 93 c0 e4 3d 3c 45 54 3d 9e 07 9f 3d 7b 68 56 3e
       0.11169543 0.05182384 0.07765125 0.20938294
000040 09 76 a4 3d c5 6c 6d be 9f 13 dc 3d 26 13 fb bd
       0.08030326 -0.23186024 0.1074593 -0.12259512
000050 30 11 ce bd 86 77 90 bc 52 38 06 3a d4 fe 2b 3e
       -0.10061872 -0.017635118 0.0005120087 0.16796428
000060 7e cb d7 3d 8d 8b cc 3d e0 00 30 be bc 29 54 bd
       0.1053686 0.09987555 -0.17187834 -0.051797614
000070 24 1d a9 bd 61 4e 7d 3e a3 e6 c3 3d a2 b2 1e bd
       -0.08257511 0.2473693 0.09565475 -0.038744576
000080 6d 1d 60 bd e4 9d f4 3c 37 bc c2 3a 47 23 f8 bc
       -0.054715563 0.029860444 0.0014857118 -0.030290259
000090 e7 2b 39 3e ab be 83 3e 91 16 32 be 50 25 c1 bd
       0.18083154 0.25731406 -0.17391421 -0.09430945
0000a0 7f 64 99 3c c9 aa 2c be dd 15 28 be c8 53 32 3b
       0.018724678 -0.16862024 -0.1641459 0.0027210582
0000b0 83 0e 25 3d dd 71 1d be c8 d3 0b be bf 8d 71 bd
       0.040297043 -0.15375467 -0.13655007 -0.05897307
0000c0 70 9a 25 3d 99 11 1e 3e 1d 97 06 3e b9 33 74 3e
       0.040430486 0.154364 0.13143583 0.23847856
0000d0 c9 5a a6 bd 78 47 38 be 5e 85 14 be f5 6f f6 bd
       -0.08122785 -0.17996013 -0.14504 -0.12033073
0000e0 ea 12 aa be 03 31 e9 3c 02 ea 1c bd 67 95 12 3d
       -0.33217555 0.028465753 -0.038309105 0.035787012
0000f0 fc 89 62 bd c1 84 a0 3d 93 2e 69 3d 0d 6e 45 3d
       -0.055307373 0.07837821 0.056929182 0.048200656
