saved_models/FADA-few-shot-retraining/gtsrb/encoder_gtsrb_6.pt (torch_old, 318379 bytes, 6 tensors)

conv1.weight f4 [32, 3, 5, 5]
000000 79 17 ba bc 55 51 6a 3d ca ff 3e 3d 56 f1 8e bd
       -0.02271627 0.05720647 0.04663066 -0.06979625
000010 8c 98 18 be 10 1f 60 3d bb f7 32 3c f0 3c 28 bd
       -0.14901942 0.054717124 0.010923321 -0.04107374
000020 01 e2 cc bd 32 f9 6b 3d aa ce 27 3d 5b 41 49 3d
       -0.10004044 0.057610698 0.040968575 0.049134593
000030 1d 0d 7a 3d c0 1d fd 3d 05 22 ff bc cb 47 b5 3c
       0.061047662 0.1235919 -0.031144151 0.02212896
000040 3c 46 95 bd 51 6a 14 be 9b 76 c9 bd 4a e7 32 bd
       -0.07288787 -0.14493681 -0.09837075 -0.043677606
000050 75 f3 06 bd 1a f7 ec 3d 10 6d 6b 3d ad 42 fa bb
       -0.032947022 0.115705684 0.057477057 -0.007637343
000060 67 1f 84 3d 4b ee 14 3e ab 76 ae bc ca 1b ea bb
       0.06451302 0.14544027 -0.02129682 -0.007144426
000070 de 62 eb 3c a6 25 e0 3d 37 ba 8f bd 53 27 f7 3d
       0.028733667 0.10944681 -0.070179395 0.120680474
000080 72 45 33 bc 62 55 9b 38 fe a4 98 3b 14 2b a3 bd
       -0.01094185 7.40688e-05 0.0046583405 -0.07967201
000090 65 83 30 3b ea ab 8e bd 63 2e 14 b9 df 88 01 3d
       0.0026933786 -0.06966384 -0.0001413166 0.03162467
0000a0 19 96 d9 bd 0b a6 11 3d 73 f0 05 be 52 99 39 3d
       -0.10624332 0.03555874 -0.13080005 0.045312233
0000b0 59 82 2a be 6e 36 90 3c 00 e5 e6 3d 1c 06 99 bd
       -0.16651286 0.01760408 0.11274147 -0.074718684
0000c0 58 45 f0 bc cf 03 a0 bc f1 c7 dc 3c 6b bb f0 bc
       -0.02932994 -0.019533066 0.026950808 -0.029386243
0000d0 bf aa 89 3d b2 b5 ac bd b1 c8 ba 3d 54 e4 64 bd
       0.0672202 -0.08433093 0.0912031 -0.055881813
0000e0 bd 13 c0 3a 74 6c a8 bd 47 b1 a9 bd 45 43 98 bc
       0.001465432 -0.08223811 -0.08285766 -0.018586764
0000f0 17 ff 45 3c 7d 6f f3 3d ff 70 b2 3d 90 96 c9 3d
       0.012084744 0.11886499 0.087129585 0.09843171
000100 94 aa 0b 3e f7 c1 d5 bc 8b a1 e4 3d 1d fe db bd
       0.13639289 -0.026093466 0.111636244 -0.10741828
000110 88 01 21 bd ca 37 e3 bd 14 bd 62 bd a2 28 40 bd
       -0.0393081 -0.11094625 -0.0553561 -0.04691375
000120 65 12 8d bd 3e 35 47 3e ad 80 ef 3d 41 cb c7 3d
       -0.06888274 0.19453904 0.11694465 0.097555645
000130 4f fe 20 be 72 3a f1 bd bf 2d d9 bd c7 8c 02 be
       -0.15722011 -0.11778726 -0.106044285 -0.12749015
000140 68 b8 ee bd 6c 5b 56 be 68 be 18 be ab 81 c0 3d
       -0.116562665 -0.20933312 -0.14916384 0.09399732
000150 2d 32 3e 3e 63 65 08 be be 2f b9 be 92 81 82 3c
       0.18573828 -0.13319926 -0.36169237 0.015930925
000160 a4 14 8c 3e 77 2b c7 3e 1f f8 37 be 5c 0e a4 be
       0.27359498 0.3890035 -0.17965744 -0.32042205
000170 39 00 94 3d 57 5a dd 3e 52 13 92 3e 54 a5 ae be
       0.07226605 0.43232986 0.28530365 -0.3411051
000180 03 a1 92 be ed 63 1c 3e d6 e9 a1 3e e7 41 ad 3e
       -0.28638467 0.15272494 0.31623715 0.33839342
000190 cb 83 95 bd 93 80 5e be bf 94 1c be a6 4c ea 3d
       -0.07300528 -0.21728735 -0.15291117 0.11440401
0001a0 8c 6b f8 bc f4 48 0b be ce ca c8 be c0 99 e1 bd
       -0.03032472 -0.13602048 -0.39217228 -0.110156536
0001b0 a4 a6 68 3e 58 dd 32 3e f9 14 b3 be 05 ac 98 be
       0.22719818 0.17467248 -0.34976938 -0.2981874
0001c0 c9 cc 19 3e 27 e6 d8 3e 92 2f 72 3e 15 77 9c be
       0.15019526 0.42363092 0.23650959 -0.30559602
0001d0 c5 76 b1 be b1 77 37 3e fb 66 98 3e 1c 95 bc 3e
       -0.34660926 0.17916752 0.29766068 0.3683251
0001e0 ef 22 fc be 98 8e c2 be e6 e1 ba 3c a1 96 ad 3e
       -0.49245402 -0.37999415 0.022812795 0.33903983
0001f0 c9 eb 94 3e bd 47 53 bd 18 f1 ba bd 71 2d a0 3c
       0.2908614 -0.051582087 -0.09128016 0.019552918
000200 c2 5e 93 bd 92 f7 40 3e c5 87 15 bd 4e 37 77 be
       -0.07195808 0.1884444 -0.036506433 -0.24142191
000210 16 ea ea bd 40 63 3f 3e d6 4b 83 3e 12 6f 93 be
       -0.114704296 0.18690205 0.25643796 -0.28795677
000220 9d a2 97 be f7 99 a0 3d 19 d7 92 3e 5c fb a0 3e
       -0.29616252 0.078418665 0.2867973 0.31441772
000230 bd bc 93 be 8c 31 73 be 51 00 ad 3e 95 4d c1 3e
       -0.28854933 -0.2374937 0.33789304 0.37754503
000240 df 9a 8d 3e 12 3f bf be 29 5e 89 be f2 78 5a 3e
       0.2765722 -0.37352806 -0.2682965 0.213352
000250 dd e8 94 3e 82 b4 0a 3e c4 e8 be bd 4c fb 18 be
       0.2908391 0.13545421 -0.0932174 -0.14939612
000260 f4 3f 0a bd 22 31 ff bd 7a 1e 2e bd 34 30 96 bd
       -0.033752397 -0.12460543 -0.042509533 -0.07333413
000270 d8 a6 3c be 4f f9 63 3d 5d 00 44 bd 49 46 01 be
       -0.18423021 0.05565768 -0.04785191 -0.12624468
000280 79 64 26 be 61 17 58 be 91 84 bc bd 35 f0 f7 bc
       -0.16249265 -0.21102668 -0.092049725 -0.030265907
000290 ab f0 43 3d 1f 59 95 bc c4 17 48 be bd 52 2c be
       0.04783694 -0.018230973 -0.19540316 -0.16828437
0002a0 a5 bc e8 bd 77 0e bd 3d 17 0d 0a 3d 0b 03 bd bd
       -0.11364106 0.092312746 0.03370389 -0.09229096
0002b0 01 81 2a bd 9d 0a bc bd 6e 4d 3e 3d c2 dd df 3c
       -0.041626934 -0.09181712 0.04646056 0.027327422
0002c0 79 34 80 3b 42 4b ee 3d c8 6a 8f bd 35 c7 80 3c
       0.003912505 0.11635448 -0.07002789 0.01571999
0002d0 b0 30 07 bd fe 93 65 3c ce 99 2d bd eb 8f 69 bc
       -0.033005416 0.014012335 -0.042383008 -0.014255504
0002e0 c1 d0 92 3d 53 6c 99 bd 77 35 c3 bd 72 08 52 3c
       0.07168723 -0.07491364 -0.09531682 0.012819396
0002f0 19 c8 68 bd bc 04 2c bd 40 23 90 3b db e7 0e bd
       -0.056831453 -0.041996703 0.0043987334 -0.034889083
000300 33 2c 02 bd c7 af ce 3b 10 47 98 bd 4d 16 8b 3d
       -0.031780433 0.0063075754 -0.07435429 0.06791363
000310 04 50 3d bd dd bd de 3d a3 f3 08 3e 9c 21 21 bd
       -0.046218887 0.10876057 0.1337419 -0.039338693
000320 99 1d 90 3c 11 be 50 3e 1e 1f 50 3e 5f f6 10 3e
       0.017592238 0.20385005 0.2032437 0.14156483
000330 94 b4 bb ba 77 ee d9 3d 53 eb 7a 3d d5 84 69 3e
       -0.0014320784 0.10641187 0.06125958 0.22804578
000340 82 65 47 3e eb f7 8f 3d b0 df 03 3e 2c 5f 59 bd
       0.19472316 0.070297085 0.12878299 -0.05306928
000350 20 05 1a 3e 1c 8a 6d 3d 06 7e 48 3e 55 72 71 3d
       0.15041018 0.05799304 0.19579324 0.058946926
000360 3a d5 73 bc 69 eb e0 ba f1 87 73 3d d3 1b eb 3d
       -0.01488238 -0.0017160001 0.059455816 0.114799164
000370 b5 f4 2b 3e 60 77 51 3e 63 40 24 3d c8 fd 2f 3d
       0.16792567 0.20455694 0.040100466 0.042966634
000380 89 20 d6 3d 53 b8 1a be 1b b5 17 be 3c 4c 0d be
       0.10455424 -0.15109377 -0.1481518 -0.13798612
000390 11 31 69 be a1 10 81 be 63 21 9e bd f1 af ac 3d
       -0.22772624 -0.25208 -0.07721212 0.08431996
0003a0 73 b6 05 3e b3 1f 33 be a0 99 ce be 8b 5b 87 bd
       0.1305788 -0.17492561 -0.40351582 -0.06609257
0003b0 87 c9 a1 3e b1 f3 c4 3e 08 82 c1 bd 14 6c b7 be
       0.31599066 0.38467172 -0.094486296 -0.35824645
0003c0 74 00 c8 bd 88 08 3c 3e c7 fa 57 3e c1 7b 92 bc
       -0.097657114 0.1836263 0.21091758 -0.017881276
0003d0 ce 62 a4 be b6 fe 82 be c3 9c 45 3e 25 b2 62 3e
       -0.32106632 -0.25584954 0.19298081 0.22138269
0003e0 ff 31 fa bc ff 7d 65 be b8 cb 7a bd e3 07 90 bd
       -0.030541418 -0.22411345 -0.061229438 -0.07032754
0003f0 10 13 44 bd f8 e4 3d be a5 5c 80 be fb 99 4d 3b
       -0.047869742 -0.18544376 -0.25070682 0.0031372297

conv1.bias f4 [32]
000000 ef 06 8d be bd 81 e2 3d 04 30 57 be 3c b0 b7 3d
       -0.27544352 0.11059902 -0.2101441 0.08969161
000010 2e 3e 40 3d fd ec b1 3d ad 90 f8 3c 86 5c 79 be
       0.0469343 0.0868778 0.030342424 -0.24351701
000020 0c b0 f8 3d 9a b2 aa be 0e 0c dd bd cd d6 44 be
       0.12142953 -0.33339387 -0.10793315 -0.19222565
000030 d4 1d a9 bd b9 ad b1 be ba e6 45 bd c9 d2 e8 3b
       -0.082576424 -0.34702852 -0.04831574 0.0071052057
000040 f1 f8 c5 bd 44 1b a1 be 00 c5 5f ba 12 16 cc be
       -0.096666224 -0.31466115 -0.000853613 -0.39860588
000050 f5 76 6a be 3f cc 68 be eb f2 fc bd fa c3 8d 3d
       -0.22896941 -0.22734164 -0.123510204 0.06922145
000060 8c 1e 42 bc d7 36 3a be 97 56 b0 3d 9b 5c 1e be
       -0.011848103 -0.18184982 0.08610266 -0.15465014
000070 e1 45 9e bb 22 e8 2c be b5 f4 cc 3d 66 26 1d bd
       -0.0048301076 -0.16885427 0.10007612 -0.038366698

conv2.weight f4 [32, 32, 5, 5]
000000 c8 c8 18 3c 0f 66 f1 ba 34 7a af bd cd 16 42 3d
       0.009325214 -0.0018417257 -0.0856823 0.047385026
000010 72 8d b1 bd 28 40 28 bd c4 c8 81 bd 2d e5 cc 3c
       -0.08669557 -0.04107681 -0.06337121 0.025011623
000020 3a a7 72 3b b6 f7 9b 3c 6b 43 5e 3d 8f c8 10 3d
       0.0037025944 0.019039016 0.054263514 0.035347518
000030 e5 d6 80 bd 17 f0 0a bd b6 21 4a 3d 33 87 aa 3c
       -0.06290988 -0.033920374 0.049348556 0.020816421
000040 2d ec c5 bd c7 ed dc 3c 67 47 f9 3b d4 5a c6 3c
       -0.096641876 0.02696885 0.007607389 0.024213232
000050 f0 c1 33 3e bd 59 64 3d 55 ea 7e bb 75 64 37 bd
       0.1755445 0.055749644 -0.0038896997 -0.044773538
000060 4c d6 e2 3b 19 de 88 bb 66 42 3c be c8 e8 5d 3e
       0.006922519 -0.0041768667 -0.18384704 0.2167083
000070 ba ac 50 3e de e9 c6 bd ba 27 f0 bd 22 85 8f be
       0.2037839 -0.097125754 -0.11726327 -0.2803126
000080 bd 28 41 3e e3 61 25 3e 1a 18 b3 bd 3f 8e 38 be
       0.18863197 0.16150622 -0.087448314 -0.18023013
000090 96 ed 96 be 8a d2 4e 3d d1 55 83 3d 66 94 0a be
       -0.2947814 0.050493754 0.064128526 -0.13533172
0000a0 82 65 0f bd a9 c1 a1 bd 29 af 88 bd ba ae 0a bd
       -0.035008915 -0.07898266 -0.06674034 -0.03385804
0000b0 94 15 2a be b3 ab 93 bb a5 f5 45 bd b5 30 12 bd
       -0.16609794 -0.004506552 -0.048329968 -0.035690982
0000c0 a6 af bf bd 39 ab c9 bd ff 0e 91 bd 7b 02 30 bd
       -0.09359674 -0.09847111 -0.070829384 -0.042971116
0000d0 0a ae a8 bc fe 4f e9 bd f4 fc 03 be b2 0a 66 bd
       -0.0205908 -0.113922104 -0.12889463 -0.056162544
0000e0 20 69 ef bc a7 a4 39 3b 48 5e c6 bd fa 22 0b bd
       -0.029224932 0.00283269 -0.096859515 -0.033968903
0000f0 97 2f 8a 3d 01 22 06 bd 41 e2 4f bd 9e 77 8c bd
       0.06747358 -0.032747272 -0.050752882 -0.06858753
000100 72 61 01 bd 74 dd c4 3d 29 30 8d bc 19 47 6f bd
       -0.03158707 0.09612551 -0.017234879 -0.058417413
000110 7b 4b ba bd ed fe c0 bd fb 96 16 3e 0c 1a b4 3d
       -0.09096428 -0.09423623 0.14706032 0.087940305
000120 cd b1 87 3d 0c 58 09 bd 48 fc d2 bd 83 a8 4e 3e
       0.0662571 -0.033531234 -0.10302025 0.2018147
000130 14 e5 83 3d 1f db ec be bf 1c 12 be b9 bb 37 3e
       0.064401776 -0.46260926 -0.14268778 0.17942704
000140 4e cb 48 3e f5 57 44 3e 7b 43 f6 be 73 95 8e be
       0.19608805 0.19174178 -0.4809836 -0.27848396
000150 d6 50 88 3d 47 ff 3c 3d 50 71 35 3e e8 0f 84 be
       0.06656043 0.04614189 0.17719007 -0.25793386
000160 15 b5 9e be cc aa 15 be a2 f9 f8 bd d5 ea 2f bd
       -0.3099753 -0.14615935 -0.12156989 -0.042948563
000170 f4 3d 0f bc 7d b0 20 3a b4 f6 98 3c df f9 36 be
       -0.008742798 0.00061298144 0.018672325 -0.17868756
000180 7f 62 dd bd 61 83 ba bd d3 c6 3f bd e5 e3 47 3d
       -0.10809802 -0.0910709 -0.046820473 0.04880132
000190 53 96 3a 3e 09 e3 78 be e6 c9 5d be f9 83 08 3d
       0.18221407 -0.24305357 -0.2165905 0.033328984
0001a0 76 a9 85 3d 83 c9 ea 3c 7b d1 05 be 14 56 a2 be
       0.06526463 0.028660541 -0.13068192 -0.31706297
0001b0 ae 5f 11 be 89 43 90 be 58 d5 48 be 6e 5a 34 be
       -0.14196655 -0.28176525 -0.19612634 -0.17612621
0001c0 ef 4e 4e bd 81 c0 07 be 51 dc 84 be d0 08 f8 bb
       -0.050368246 -0.13257028 -0.25949338 -0.00756941
0001d0 99 01 f4 3d a9 05 a9 3d 5e b2 36 3c 1a 1c 72 3c
       0.11914367 0.08253033 0.0111509245 0.014777208
0001e0 25 65 80 bd 12 36 58 bc 9c b5 2d bd 5b dd 94 bc
       -0.06269292 -0.013196485 -0.042409524 -0.018171957
0001f0 57 3e 21 3d ac 44 d4 be c9 c2 18 be a3 fe 2c bc
       0.039366093 -0.41458642 -0.14918055 -0.010558757
000200 91 16 33 bc 89 34 46 be db 19 8d 3d 21 96 8f be
       -0.010930673 -0.19355978 0.06889697 -0.28044227
000210 c7 28 d5 bc 8e c3 34 3d 4e a9 82 3d 35 1d 93 3e
       -0.02602042 0.044131808 0.063799486 0.2873322
000220 a8 29 c8 bd 9b b1 f8 bd 05 7a 76 3d 2e 80 b3 3d
       -0.0977357 -0.121432506 0.06017496 0.08764683
000230 eb 53 05 3e 0e 3f 76 bd 90 3b cc be 29 8e 37 be
       0.13020293 -0.060118727 -0.39889193 -0.17925324
000240 34 53 e7 bd a0 bf 55 3e 1d 60 99 3e a3 34 35 3e
       -0.112951666 0.2087388 0.2995614 0.1769586
000250 a6 c3 41 bc b7 9c 26 bd 09 79 32 3e 01 d9 38 3d
       -0.011826431 -0.0406768 0.17428984 0.045128826
000260 a7 1b c7 be da 6a 1a bc fe dc 25 3e b1 29 a4 3d
       -0.38888285 -0.009424889 0.16197583 0.080157645
000270 bd e8 c1 3d c1 a0 36 be db 9d a6 be 42 ce 06 be
       0.094682194 -0.1783476 -0.3254231 -0.13164619
000280 7d 08 23 bd e9 8f 16 3d e9 e0 25 be e2 77 7d be
       -0.039803017 0.036758337 -0.16199078 -0.24752763
000290 98 7e 4d be 2b d6 34 bd b8 89 1c 3b 77 ad ee 3a
       -0.20067823 -0.04414956 0.0023885798 0.0018209656
0002a0 58 db 48 3d 15 10 f3 3d 35 1f 91 bd 0b cd 99 3d
       0.049037308 0.11868302 -0.070860304 0.07509812
0002b0 36 85 0e 3d a6 1a f9 3c a2 29 2e 3e f2 75 f0 bd
       0.03479501 0.030408215 0.17008069 -0.11741246
0002c0 5b a7 92 3d ab 01 a6 3d 41 2a b5 bc 80 07 20 be
       0.07160827 0.08105787 -0.022114875 -0.15627861
0002d0 7f 02 08 bd 21 bb 07 3d 6f 24 06 3d ad 1f 0f b7
       -0.033205505 0.033137444 0.03274959 -8.530839e-06
0002e0 83 27 3d be 09 54 8d 3d e9 96 83 bb 1d f9 c8 3c
       -0.18472104 0.06900794 -0.0040157926 0.024532849
0002f0 ce 9c a0 bb 04 79 ab bd 95 5f c0 3c 95 bc c6 bd
       -0.004901505 -0.08372691 0.023483077 -0.09703938
000300 de 6d 85 bd 77 47 90 bd ce 58 46 bd e6 e3 2a bd
       -0.06515096 -0.07044881 -0.048424534 -0.041721247
000310 c9 b3 12 bd b0 c5 f1 bc e6 52 21 3c ee a8 15 3c
       -0.035815988 -0.02951321 0.009846425 0.009134514
000320 88 e6 15 3e 95 b5 b6 3d b4 96 88 be a7 a7 ff bd
       0.14638722 0.08921353 -0.26677477 -0.12483149
000330 2c cc 5b bc cd b9 d7 3d 25 ee 36 3e bf 63 ab 3b
       -0.013415378 0.105334856 0.17864282 0.0052303965
000340 6e 28 d5 be 6c 7e 7b be 79 3e 1d be 7c 67 cd 3d
       -0.41632408 -0.24559945 -0.15355863 0.10029504
000350 ac 3d f1 bc 36 f1 1f be b7 72 a7 bd ae 88 52 be
       -0.029448353 -0.15619358 -0.08176177 -0.20559952
000360 2b 0a 95 bd a3 72 ba bd 73 18 cb 3c 01 61 04 3e
       -0.0727733 -0.091038965 0.024791932 0.12927629
000370 97 e1 cc bd ec 14 61 be 5f 96 10 be a7 f2 bc bd
       -0.10003965 -0.21980637 -0.14119862 -0.0922597
000380 06 75 2b 3d 36 aa 15 3d b5 fd 01 3d e7 27 93 bc
       0.04185965 0.03653928 0.031736095 -0.017963363
000390 39 c4 29 be 5e fc 41 3d 8f 4a 38 3d 3a 63 db 3d
       -0.16578759 0.047359817 0.04499298 0.10712285
0003a0 95 4c b2 bc 9c b2 03 be 85 8e 12 39 f6 77 b2 3d
       -0.021765033 -0.12861103 0.00013976738 0.08714287
0003b0 1a d5 22 3d 12 e7 5f bc ee ac a8 bd 7f b4 1f 3c
       0.03975401 -0.013665931 -0.08236109 0.0097476235
0003c0 8a 2c 60 3d 15 fe bf 3d 83 69 59 3d 7c e2 22 bc
       0.054729976 0.09374634 0.05307914 -0.009941693
0003d0 c0 05 4e 3d 6d 42 a9 3d 16 91 03 3e 2e 87 5c 3d
       0.050298452 0.08264623 0.12848315 0.053839855
0003e0 a9 99 7a 3d 3b f9 f3 3c d8 dc 47 3d 62 8a 2c bd
       0.061181698 0.029781928 0.048794597 -0.04212416
0003f0 90 7b f8 3c c7 3d 40 3d 13 32 3f be 98 39 81 bd
       0.030332357 0.046933915 -0.18671446 -0.06309813

conv2.bias f4 [32]
000000 20 2c a8 3d 8a 55 1e 3d ff 29 44 3d a9 f5 0f bd
       0.08211541 0.038655795 0.047891613 -0.03514639
000010 82 11 8b bc b5 f9 20 3e 62 3c 03 3e 92 19 75 3e
       -0.016976122 0.15720256 0.12816003 0.23935536
000020 d8 9d 25 3c 94 8e 3e 3e 69 c0 bd 3d 08 51 57 3d
       0.010108434 0.18609077 0.09265215 0.05256751
000030 b2 62 b4 3d f1 6a 4f bb e2 b5 01 3e 88 08 f7 3d
       0.08807887 -0.0031649435 0.12667039 0.12062174
000040 cf 07 c1 3d 8d 32 96 3e b4 ce cd bb 7b 5b 85 3d
       0.094253175 0.29335442 -0.0062807444 0.06511589
000050 06 95 e6 3d 04 8b 49 3e b8 e4 da 3d 09 46 5e 3e
       0.11258893 0.19681937 0.10688156 0.21706404
000060 e0 28 03 3e 87 d9 61 3b 8a 6a 2e bb 2e b9 ec 3d
       0.12808561 0.0034461932 -0.0026613795 0.11558758
000070 28 c9 14 3e b6 59 44 3e 9e 8a d6 3b 78 f8 24 3e
       0.1452986 0.19174847 0.006547286 0.16110408

fc.weight f4 [64, 800]
000000 d5 19 75 3c d5 3a cb 3d 96 15 af 3d e3 79 10 3e
       0.014959772 0.09923331 0.08549039 0.14108996
000010 79 76 e8 3b bd b4 a2 3d 81 6f 2c 3e 81 17 51 bc
       0.007094201 0.07944629 0.1683941 -0.012761951
000020 2e 29 4e 3d a6 50 81 bd 50 97 a1 3c 76 3e 63 3e
       0.05033224 -0.063142106 0.019725472 0.22191796
000030 93 ef 9f be d6 a9 b6 be da 94 38 bd 19 d0 98 3d
       -0.31237468 -0.3567645 -0.04506383 0.074615665
000040 5f 35 23 3d 54 75 1a be 46 94 05 be 69 a5 d9 3d
       0.03984582 -0.1508382 -0.13044843 0.106272526
000050 e8 e6 94 bc ce 57 4f 3c 7a b0 dd be 31 10 72 bd
       -0.01817651 0.012655212 -0.43298703 -0.059097473
000060 e1 a6 72 3c 30 94 74 3e e6 ea 17 3e 1d e2 88 bc
       0.014810295 0.23884654 0.148357 -0.016709382
000070 b4 2e c4 3b c7 0b 50 3e 0f a3 17 bb ba 0f 84 bc
       0.0059870128 0.20316993 -0.0023137962 -0.01612078
000080 f3 08 13 be c6 5c d0 bd a4 9d d3 3c a8 7a 02 bd
       -0.14358883 -0.10173945 0.025832005 -0.031855255
000090 95 73 b6 bb c2 9a e9 bd 2d b8 86 bd ba 6d ae bd
       -0.0055679777 -0.11406471 -0.065780975 -0.085170224
0000a0 1b 48 0f 3d 0c e0 f9 bb 53 53 b2 3c 18 c2 c8 3d
       0.034980875 -0.0076255854 0.021768248 0.098026454
0000b0 72 3c 38 be 25 38 fc bd 43 6e fe bc b2 92 a4 bd
       -0.17991808 -0.12315396 -0.031058436 -0.080357924
0000c0 34 1d d9 bd c8 10 fb bd 82 92 ab bc 72 02 b4 bb
       -0.10601273 -0.1225906 -0.020943884 -0.0054934556
0000d0 dc 29 7c bd 47 67 04 3e eb f5 29 3e ad 81 23 3d
       -0.061563358 0.12930022 0.16597717 0.03991859
0000e0 6e ef 2e be 41 8d 4f be ce 02 04 bd c1 c0 af 3d
       -0.17083523 -0.20268728 -0.032229237 0.08581687
0000f0 57 8b 50 3d cc f1 bc bd 1a 46 64 be 20 f7 17 be
       0.050914135 -0.092258066 -0.22292367 -0.14840364
000100 53 07 a5 3a 9d 1a b9 bd 70 ec e1 bd 29 48 cb 3e
       0.0012590684 -0.09038279 -0.11031425 0.3970349
000110 b9 35 a4 3c 24 87 4c 3d 33 dc 33 bd 3f 8c a6 bd
       0.020045148 0.049933568 -0.04391117 -0.081322186
000120 47 3c be bc 45 53 db 3d 8a cc 3d 3d 79 f1 fe bc
       -0.023222102 0.10709242 0.04633764 -0.031121003
000130 76 8c 69 bc e4 ca 20 bd 5e d3 0b bb 68 4f d2 3b
       -0.01425468 -0.03925599 -0.0021335701 0.0064181574
000140 c3 6d 4f 3c 10 85 08 3c b7 38 2f bb 97 92 b3 3c
       0.012660447 0.008332506 -0.0026736686 0.021920485
000150 69 20 08 bd 7a a3 09 bc f2 ee 99 3b 6a 7b c2 bc
       -0.033234034 -0.008400792 0.004697674 -0.023740489
000160 12 07 45 bb 5f 89 9d bc 14 e2 a4 bc cc 4a 43 3c
       -0.0030064029 -0.019230543 -0.020127334 0.011919688
000170 8c a7 09 b8 77 14 30 b7 7c 86 07 3b 2d 35 33 bc
       -3.2819386e-05 -1.0495182e-05 0.0020679524 -0.010937971
000180 12 18 70 bb 7e 7b 13 3a b7 56 37 3c 38 64 14 bc
       -0.003663544 0.0005626007 0.011190108 -0.009057097
000190 43 41 bd 3b 5f e7 c7 3c 61 4c 82 3c 42 63 94 ba
       0.005775602 0.024402319 0.01590556 -0.0011321085
0001a0 d9 d3 cb 3c e2 74 cc bc 74 05 27 3d 3c 64 0b 3d
       0.02488129 -0.024958078 0.040776685 0.034031138
0001b0 df a1 19 3c fb ea b7 bc d3 d7 bc bb 57 08 27 39
       0.009376972 -0.022450915 -0.005763033 0.00015929468
0001c0 60 e2 c2 3c bc 47 2b bc 8f 1c 96 3c c0 02 80 3c
       0.023789585 -0.0104541145 0.018324165 0.015626311
0001d0 f7 c4 6c 3b 62 91 d2 bc 99 f9 95 3c dd e6 f4 3c
       0.0036128142 -0.02570409 0.018307494 0.02989524
0001e0 5f dc d4 3b 44 4a 40 bb aa fc da bb 24 0b 81 3b
       0.006495997 -0.002934114 -0.006682952 0.0039380956
0001f0 17 48 24 bc 75 4e 16 3d 42 83 ab bd b4 7b e9 bd
       -0.010026953 0.036695916 -0.08374645 -0.114005476
000200 05 8b 95 bd 3b fe a2 bc d6 2f c8 bd 27 8d 2b be
       -0.073019065 -0.019896617 -0.09774749 -0.16753064
000210 9a dd a0 3d 3c 1b e0 3a c9 b2 94 3d 0d 09 52 be
       0.07854767 0.001709796 0.07260663 -0.20511265
000220 7c 7b c9 be 3e 2e f8 bd b6 a2 b4 3c 10 35 30 be
       -0.39352024 -0.12118195 0.022050243 -0.17207742
000230 55 06 55 3d 6f ca ff 3c 58 e5 c3 3e bd 25 8d 3d
       0.05200799 0.031224458 0.38260913 0.06891964
000240 9d 84 fa bd e2 52 9d bd b7 32 35 be 56 3f c7 3d
       -0.12232325 -0.07681824 -0.17695127 0.09728877
000250 96 2e 14 3d f6 46 e5 bc 94 20 3a 3e 94 de 33 3e
       0.03617724 -0.027987938 0.1817649 0.17565376
000260 4f 2d bd 3c 43 a6 81 3d 04 69 00 3e 05 19 a8 3d
       0.023092894 0.0633054 0.1254006 0.08207897
000270 81 c9 30 bc 80 c3 f7 bc 53 96 5d 3d 4a c8 90 3d
       -0.01079023 -0.030244589 0.05409844 0.07069452
000280 5b 49 2b be 08 3f 0a 3e be 89 86 3d 4a 5f c7 be
       -0.16727202 0.13500607 0.06569241 -0.38939887
000290 68 c4 9a bd 38 cb b9 3c cf 37 ad 3e c0 0e 70 3e
       -0.07556993 0.02267991 0.3383164 0.23443127
0002a0 bb bd bb bc a8 46 47 be 19 3a a1 bd 25 82 1f be
       -0.022917619 -0.19460547 -0.078724094 -0.1557699
0002b0 32 27 71 be 0d 11 3d bd ee 52 95 3d 46 7f 89 3d
       -0.23550108 -0.04615884 0.07291208 0.067137286
0002c0 4e 4f 81 3d ea eb c0 bd 01 c5 75 3d 0a 29 7f 3d
       0.06313954 -0.09419997 0.06000233 0.062294997
0002d0 20 79 c2 3d 06 7c 1c be 69 a5 84 bd 4e 12 b9 bd
       0.09495759 -0.15281686 -0.06476862 -0.090366945
0002e0 7e 27 05 be 4b f4 03 3e 48 9c 64 bd 6c c8 a6 bc
       -0.13003346 0.12886159 -0.055813104 -0.02035924
0002f0 65 00 4d 3c d8 d4 65 3d f4 86 84 3d 0b 1f b3 bc
       0.012512301 0.056111187 0.06471053 -0.021865388
000300 98 f8 11 3c 3e e6 fb 3c 85 57 85 3d 6f 1b f8 3c
       0.008909367 0.030749436 0.06510834 0.030286519
000310 03 c6 3a 3e 50 9c 00 3e 36 1a 80 3d 6b 33 f0 bd
       0.18239598 0.12559628 0.06254999 -0.11728557
000320 64 35 60 3e 37 0a 08 3e c7 bd 39 be ab d0 0f bd
       0.21895367 0.13285147 -0.181388 -0.03511111
000330 63 12 43 3e ef f2 e8 3d 9e 34 8d bd 2a 0d 9f bd
       0.19049983 0.11374461 -0.068948016 -0.07766183
000340 ff 37 14 bb 35 1e 06 3d c8 1e 77 bd ab 7a e1 3d
       -0.0022616384 0.03274365 -0.06033209 0.11009725
000350 dc f9 5e 3d 49 ef fd bd 08 4a 07 be 1e c2 76 3d
       0.054437503 -0.12399156 -0.13211834 0.06024372
000360 c0 a9 0a 3d 3b b3 3c 3d 35 87 25 be 1c 25 19 be
       0.033853292 0.046069365 -0.16164859 -0.14955562
000370 cb da 4e 3d 57 85 00 be 71 d4 02 be b7 da 35 be
       0.050501626 -0.12550865 -0.12776352 -0.17759214
000380 3f 3b 02 bc de 4a 84 3e ad bd 14 3e e9 8a 75 3e
       -0.007948696 0.2583837 0.1452548 0.23978771
000390 1a e7 c0 3b 85 b6 f6 3c 30 1f 8f bd 39 87 c9 3b
       0.0058869245 0.030116329 -0.069883704 0.006150153
0003a0 5b 88 dc bc 35 bd a9 b9 db 82 8b bb 50 97 3b 3d
       -0.026920488 -0.00032375162 -0.0042575425 0.0457986
0003b0 3b 0d 4e 3d 80 05 04 be bd ae 2c bd b2 9d cb bd
       0.050305586 -0.12892723 -0.04215883 -0.09942187
0003c0 3e 59 d9 bd 62 db bf 39 e0 a3 97 bc cc 57 35 bd
       -0.10612725 0.00036593812 -0.018510759 -0.044273183
0003d0 dd 34 0f 3e 8d 70 e7 bd c2 12 f4 bd 98 10 89 3d
       0.1398501 -0.11300764 -0.1191764 0.06692618
0003e0 9f d1 87 3d fa 0e 77 bb a5 15 a9 3c a5 58 49 bd
       0.06631779 -0.0037698136 0.020640204 -0.049156804
0003f0 6e f4 be bd 56 6c 93 3c 5a 00 b1 3d 5f b8 be bc
       -0.09323965 0.017995995 0.08642645 -0.023281274

fc.bias f4 [64]
000000 3f ea 15 be c1 6f bc bc 05 22 ee 3c c9 ef be bd
       -0.14640139 -0.023002507 0.029068956 -0.09323079
000010 2b 3f 68 3e 92 c7 d7 3d dd f1 9a 3d 6e 7c 1a 3d
       0.22680347 0.10536112 0.07565663 0.03771632
000020 c3 5e bc 3c d1 c6 ab 3c 6f db ab 3c 92 23 0d bd
       0.022994405 0.020968826 0.020978658 -0.03445775
000030 5e bd c9 3d 93 2c 9e 3c d5 58 da 3c 9f 54 2a 3e
       0.09850572 0.019308364 0.026653687 0.16633843
000040 81 12 b1 3d 50 92 80 be 54 52 be 3d 82 d0 a7 bd
       0.086461075 -0.25111628 0.092930466 -0.081940666
000050 6f 60 cf bd 25 cf de bb e6 f4 29 bd 54 5e 2a 3e
       -0.10125815 -0.006799596 -0.04149332 0.16637546
000060 15 4f d2 3d 6d f6 09 3e 2d b6 0a be e8 9e 65 bd
       0.1026899 0.1347291 -0.13546057 -0.056059748
000070 51 3e aa bd 83 1a 8e 3e d2 f5 f3 3d 80 39 10 bd
       -0.08312667 0.27754602 0.11912121 -0.035211086
000080 cb 2b 7d bc d1 4a 29 3d e0 94 91 bb 22 07 df bc
       -0.015452336 0.041331116 -0.004442796 -0.02722508
000090 89 da 2f 3e 36 f5 59 3e 13 19 35 be 8e aa 03 be
       0.17173208 0.21284947 -0.17685346 -0.1285803
0000a0 d6 9a 03 3c 4c f7 4a be b4 d2 2c be 6c 03 40 bd
       0.008032521 -0.19820899 -0.16877252 -0.046878263
0000b0 cb 53 96 3d 14 6a 17 be 9a 79 2a be 42 dc 88 bd
       0.07340201 -0.1478656 -0.1664795 -0.06682636
0000c0 df 4f 86 3d c8 71 13 3e dd 8f 12 3e 64 56 3e 3e
       0.06558203 0.14398873 0.14312692 0.18587643
0000d0 69 67 75 bd 94 46 43 be 7b f0 0e be 34 c1 c0 bd
       -0.059913073 -0.19069892 -0.13958924 -0.094118506
0000e0 68 6c a8 be 4e 8c d6 3c 70 09 a2 bc 0c 94 b1 3c
       -0.32895207 0.02618995 -0.01977989 0.02167704
0000f0 cc 17 ad bd c0 0f 93 3d e1 d2 0a 3d b4 3b 8f 3d
       -0.084518045 0.071807384 0.033892516 0.06993809
