saved_models/FADA-few-shot-retraining/gtsrb/encoder_gtsrb_0.pt (torch_old, 318369 bytes, 6 tensors)

conv1.weight f4 [32, 3, 5, 5]
00000000: 2f10 35bc d68d 893d b39b 673d 502e 86bd
00000010: 8a8b 3fbe d8ab 983d db57 223d 7f5b c2bc
00000020: 4000 a6bd 32d8 633d ad3a 883d 6782 923d
00000030: 31ae b93d 9511 133e f8a0 87bc 9109 643d
00000040: 6280 48bd 8f44 aebd 88bd 90bd cdcf dcbc
00000050: e99c e9bc 4772 073e f3b9 953d fdd9 943c
00000060: b102 5e3d 21f5 8d3d b411 4abd 3075 ea3b
00000070: 5726 4b3d 441c 8f3d 7574 93bd e07a ec3d
00000080: a0c2 b7bc 986c 9c3c 3c02 05bc 44cb c7bd
00000090: fe15 35bd ede4 a0bd 4682 773c 085c 333d
000000a0: d86a a7bd 6954 5cba 75ea f7bd 0119 1e3d
000000b0: 5586 2cbe bbf2 45bd e631 c83d 47f5 bebd
000000c0: d372 4bbd b7b9 9ebd eeec 27bd 073f 80bd
000000d0: df69 983d 1378 80bd 4762 603d 230d 52bd
000000e0: 6fbc 78ba 3808 bdbd 225c 87bd 263b f3bc
000000f0: 462c bebb cce7 893d 2463 983d dded d73d
00000100: 88d1 1a3e 5641 acba 3342 883d 6d9f babd
00000110: ca7c 42bd 7ac7 e1bd 5173 e4bd 1fac 89bd
00000120: 937c 9dbd 8b0a 3c3e 9559 363d 4595 c03d
00000130: 8631 2cbe 61d6 06be 8e51 e1bd 8ac6 f9bd
00000140: fcdc f7bd 542f 58be 669a 1cbe c939 c43d
00000150: 867f 423e f847 0cbe a147 bcbe 6a67 b63b
00000160: d66f 883e 4f8d c73e 8401 40be 0ef2 a6be
00000170: 7878 923d e8f9 dd3e 3066 963e 3692 afbe
00000180: aa86 92be ecde 1c3e 8739 a53e 32d2 b33e
00000190: 4217 a2bd 5568 67be 619e 27be 9d1e e23d
000001a0: 820c d8bc e587 14be 7e2d ccbe 0a49 ebbd
000001b0: a755 693e ce2e 393e 4563 b6be 4a75 9ebe
000001c0: 0b17 0d3e e01e d73e a64e 773e 322f a3be
000001d0: c1cc b7be f8c7 343e 1bcc 9a3e 2dea c23e
000001e0: e699 febe 6655 c4be a8a6 e33c 9377 b43e
000001f0: a304 9e3e 3cc2 5ebd 73a4 cfbd fb2b e03b
00000200: f5e7 96bd 1d10 493e d9b2 3abd f39c 7ebe
00000210: 62a9 f5bd d80c 433e 1fe2 863e d728 95be
00000220: 966e 9dbe b2ab 853d d7af 913e d67d a23e
00000230: 4244 9abe 363a 80be 3d27 aa3e 622a c53e
00000240: 51a3 923e b265 c2be b8f2 8bbe b4ff 5e3e
00000250: d3ec 9b3e a083 1a3e c947 96bd 8535 11be
00000260: 8d82 f0bc 881f f9bd 050f 12bd d1af 6abd
00000270: b6f9 32be 0640 893d 403c 28bd 3a5d fabd
00000280: 2f9f 1abe 9453 4fbe d959 a9bd 81dc f7bc
00000290: 06f3 443d 8850 bebb 5d54 45be a810 24be
000002a0: 2e7d cebd 86eb cc3d a5fc 3a3d 8100 bcbd
000002b0: 13fd acbc ea86 8fbd f513 833d 8d67 193d
000002c0: 893e e6b9 41f3 e43d 1ba4 93bd ce79 ad3c
000002d0: 9de5 d0bc 947e 193b 291d 3fbd 4cbf 87bc
000002e0: 3432 923d 34e5 94bd aea5 d4bd cf7e 83bb
000002f0: c0d0 99bd 5f7b 56bd 0179 b63b 9c64 49bd
00000300: e575 3bbd 57f5 54bb 9c35 a8bd 0e83 883d
00000310: f0be 7ebd 8d30 df3d fb5a 093e 71ac 25bd
00000320: d946 e33c 7377 4a3e 4fd9 463e 13b1 0b3e
00000330: b84c 363a 513a ee3d 223e 563d 8137 653e
00000340: 2fed 413e fc0b 863d 127f 0c3e e25e 6fbd
00000350: 230e 0a3e 0c2f 1b3d 923c 393e 6161 893d
00000360: dffb ddbc 4ed5 62bc 368a 4c3d e621 d53d
00000370: 598d 273e 2f76 3f3e 620e 153d dd78 1b3d
00000380: 5a4e c63d 9811 1abe 4c5d 15be 28e4 fdbd
00000390: e1da 62be e507 83be 74d6 a1bd 82c9 a83d
000003a0: 3ef3 123e 4c2f 2bbe a33a c7be 23b7 aebd
000003b0: e59a 9c3e b18d c63e 041e a6bd 90f9 b2be
000003c0: a6a9 01be 71d8 263e 3f3d 553e 13b2 30bc
000003d0: 02fc a3be 3f0a 8ebe e063 373e cf53 5d3e
000003e0: c531 eabc 2405 62be 349a 61bd ee23 7ebd
000003f0: 6b42 08bd eb7b 33be 4371 82be 09f7 2e3c
-0.011051222 0.06716506 0.05654497 -0.06551802 -0.18705574 0.074546516 0.039634567 -0.02372527
-0.081055164 0.0556261 0.066518165 0.071537785 0.090664275 0.14362176 -0.016556248 0.055673186
-0.04895056 -0.0850917 -0.070674 -0.026954556 -0.028517203 0.13227187 0.073108576 0.018170351
0.054201785 0.0693152 -0.04933329 0.007155083 0.04959711 0.06987813 -0.07199947 0.11546874
-0.022431672 0.01909475 -0.0081182085 -0.09755567 -0.044210427 -0.07856164 0.015106743 0.04378894
-0.08174676 -0.0008404912 -0.12105266 0.038598064 -0.16848119 -0.04832719 0.09775142 -0.09324127
-0.04967005 -0.07750266 -0.040997438 -0.062620215 0.07442068 -0.06272902 0.054781225 -0.05128206
-0.0009488528 -0.09230083 -0.0660937 -0.02969129 -0.0058036176 0.06733665 0.074407846 0.10543416
0.15118992 -0.001314203 0.066532515 -0.09112439 -0.04748229 -0.11024375 -0.11154807 -0.067222826
-0.07689776 0.18363397 0.044519026 0.09403471 -0.16815767 -0.13167717 -0.110018834 -0.121960714
-0.12102696 -0.21111804 -0.15293273 0.09581334 0.18993959 -0.13699329 -0.367734 0.005566527
0.26647824 0.38974997 -0.18750578 -0.32606548 0.07151884 0.43354726 0.29374838 -0.34291238
-0.28618366 0.15319413 0.32270452 0.35121304 -0.07914592 -0.22598393 -0.1636901 0.11040995
-0.026373152 -0.14504965 -0.39878458 -0.114885405 0.2278658 0.18084261 -0.35622612 -0.3094886
0.13778321 0.42015743 0.24151096 -0.31871945 -0.35898402 0.17654407 0.30233845 0.38069287
-0.4972679 -0.38346404 0.027789429 0.35247478 0.30862913 -0.054384455 -0.10138788 0.0068411804
-0.07368461 0.19635053 -0.04558072 -0.24864559 -0.11995198 0.19047868 0.26344392 -0.2913272
-0.30748433 0.06526889 0.28454468 0.3173663 -0.30130202 -0.2504441 0.3323306 0.38508898
0.28640226 -0.37968212 -0.27333617 0.2177723 0.3045412 0.15089273 -0.07337911 -0.14180572
-0.029359126 -0.12164217 -0.035658855 -0.057296578 -0.1747807 0.067016646 -0.041073084 -0.12224813
-0.15099786 -0.20246726 -0.0826909 -0.030256512 0.048083328 -0.00580794 -0.19270463 -0.16021979
-0.1008247 0.1000586 0.045651097 -0.091797836 -0.021116769 -0.07008155 0.06400291 0.03745227
-0.0004391561 0.111792095 -0.07209035 0.021176245 -0.025500113 0.0023421394 -0.04665867 -0.01657071
0.07138482 -0.072702795 -0.103831634 -0.0040129195 -0.07510519 -0.05236375 0.005568624 -0.049168214
-0.04576673 -0.0032494867 -0.0821335 0.06665622 -0.06219381 0.10897932 0.13413613 -0.040447656
0.027743744 0.19772129 0.19418834 0.13641767 0.0006954181 0.11632217 0.05230535 0.22384454
0.18938135 0.065452546 0.13720348 -0.058440097 0.13481955 0.037886664 0.18089512 0.06708027
-0.02709764 -0.013844801 0.049936496 0.10406856 0.16362514 0.18697427 0.03639067 0.03795706
0.09682913 -0.15045774 -0.14586371 -0.12397033 -0.22153808 -0.2559196 -0.07902232 0.082415596
0.14350602 -0.16717261 -0.38911924 -0.08531024 0.30586925 0.38779977 -0.08111194 -0.34956026
-0.12662372 0.16293503 0.20824145 -0.010784644 -0.32028204 -0.27742192 0.17909193 0.21614002
-0.028588185 -0.22072273 -0.0550787 -0.062045984 -0.033266466 -0.1752774 -0.25477037 0.010679015

conv1.bias f4 [32]
00000000: ea7c 95be 7318 f93d 1770 75be 3e7d b13d
00000010: 07b0 263d fd0a 093d 039e a63c 82b2 a0be
00000020: e667 d23d 69d5 b2be a30c c7bd 99e4 47be
00000030: 2507 acbd 5a74 aabe 2bbe 03be 5653 67bc
00000040: ccd2 d7bd 8a1d a9be 0dce 6ebd 6f3f cbbe
00000050: b982 6bbe 67b3 70be 879b 02be 516f 213c
00000060: 7dfe a0bb 9404 47be 1d8f 963d f424 fbbd
00000070: b7e4 853c d9f0 56be 0f38 913d 3884 26bd
-0.29196864 0.121628664 -0.2396854 0.08666466 0.040695217 0.033457745 0.020339018 -0.3138619
0.10273723 -0.34928444 -0.09719207 -0.19520797 -0.083998 -0.33291894 -0.12865512 -0.01411899
-0.10538253 -0.3303035 -0.058301974 -0.39696833 -0.22999085 -0.23505937 -0.12754641 0.0098532
-0.00491315 -0.1943534 0.073515154 -0.122629076 0.016344411 -0.20990314 0.070907705 -0.040653437

conv2.weight f4 [32, 32, 5, 5]
00000000: 6abc d93d a751 ce3d 8cfe 853d c70b b93d
00000010: 4105 983c b0ac 1bbd f32a 6abc 7c15 0b3b
00000020: 2f87 2a3e cab1 af3b 7db1 de3d 5aab 613d
00000030: dfe7 853b 0eb7 f53d 301c 4d3d bb9d dd3b
00000040: 045c a3bd 7d34 a33d c0a7 2d3d 9cde 913d
00000050: 0185 f13d c428 d23c 19ec 573c 4544 4cbd
00000060: cbc9 323d 7dbe e43c 3b17 33be 60bb 473e
00000070: a9ec 493e e7a7 febd e7a8 86bd 6963 9fbe
00000080: 8ca8 293e 1cca 193e 9f42 00be 9c00 26be
00000090: e7e0 9fbe 6b4c 173d e13d 993d d2a0 01be
000000a0: db37 f339 2442 bbbd 55fb d6bd 68fa 10bd
000000b0: 4a2e 1bbe 1475 fdbb 4bfe 9bbd e6f1 98bd
000000c0: bfe8 ccbd d947 b6bd a15b c5bd e1a5 1cbd
000000d0: 2b4f a9bc f40e aebd 5655 e1bd b017 77bb
000000e0: 918d e23c 494d 843c 75d3 99bd b0b1 01bd
000000f0: 160a a93d abeb 393b 9483 a8bc 793c d2bc
00000100: 5afd b6bc a408 d23d a50c 6d3d b7c6 cabc
00000110: e06b 83bd d4c3 96bd 78e8 d23d 4e0a d33d
00000120: 671e d73d 0a01 b83c 2f94 a2bd 4fc7 373e
00000130: a8ae 153d 543b f0be 7156 38be c59b 323e
00000140: b3e4 3c3e 8aa6 2f3e 8677 03bf 1fb2 8cbe
00000150: 88c0 823d 6e13 693d 01c1 233e 6c33 8dbe
00000160: b9c9 8dbe d139 cbbd 27cc ddbd 8052 6dbd
00000170: 0959 bf3a 9d7e 163c 8c12 793d 8b14 e1bd
00000180: 079d ecbd a495 a8bd 27d7 41bd ad8d 753d
00000190: 0c7b 503e bdea 66be 0291 7cbe c955 aab8
000001a0: fb02 7bbb 0771 993d de3e 13be 1992 acbe
000001b0: 1068 3ebe 9750 aabe ef24 45be dc74 4cbe
000001c0: 249c 6cbd 492c d1bd d0da 47be cfac a53c
000001d0: 678a eb3d aaf1 973d 8f0b d1bb 8d7f e03c
000001e0: 26c2 15bd 83a1 28bd 9c0c b3bd 6ed8 73bd
000001f0: 6d47 503c 016d c1be 0d84 25be 5862 e2bc
00000200: 3fe3 a7bb b150 24be 1d5c 4b3d a159 a4be
00000210: 49fa 64bd 7e78 d23c 5a35 423d adc1 9c3e
00000220: 226c c8bd 31ce 06be 71cf 853d a31d a93d
00000230: f102 013e ca6d 73bd b5ef c1be 2cc1 19be
00000240: f1f7 97bd 567f 6f3e 65b8 b13e 3651 773e
00000250: 316c 873d 30a1 ad3c e6b7 1d3e d4e7 943c
00000260: 80ec babe 702c 83bd c066 003e 9330 a93d
00000270: 288f 9e3d 8182 5cbe 1120 aebe 0ca5 3bbe
00000280: 4343 3ebd 2105 733a 990a 4ebe 6c28 73be
00000290: 3cad 06be cb77 d63b 69d2 25bc c7c5 c33b
000002a0: 40ae 803d 9623 313e 4c75 01bc fe79 973d
000002b0: 420d cc3c 04e6 d83c 55d6 2b3e a0d2 53bd
000002c0: 8a0e a43d ec76 933d 07bc 01bd 2120 0abe
000002d0: a6a2 313d f0c3 583d c7a3 633d f0ab 6f3b
000002e0: 9d08 30be e3d8 873d f960 ec3d 0010 b43d
000002f0: e59b 4fbc 9ca7 8dbd ef06 c53c b69c 18bd
00000300: 13c4 a4bb f0aa b1bd e402 2bbc b95a 26bd
00000310: 5a9a 9cbc a2f3 dd3c 9c74 b3bb a7f0 163d
00000320: e2d6 023e 99a6 7e3d a39a 80be 3044 37be
00000330: 46ba 58bd 3b74 d53d 284b 243e 7bfc 0cbc
00000340: 1a8d d3be b973 83be 43cb 08be 6b72 a93d
00000350: 4eda 47bd 8375 0bbe 5aae 173d b5eb 13be
00000360: 24a7 73bd cd91 c5bd 0bdc fd3c d91c 143e
00000370: 92e2 8abc 9fd3 67be d164 3abe 90f6 07be
00000380: 627c 4a3c 0336 4e3c b1c1 0e3c 1bd6 1dbc
00000390: 0ca4 e3bd ac39 153e 69bc 903c 729e f43d
000003a0: f673 07bd d316 a1bd 64b7 4a3d 6784 013e
000003b0: 5f79 cc3d fa4a c5bc ef99 39bd 5151 cc3d
000003c0: 8717 6c3d a87b d83d df60 0d3d 73f0 d63b
000003d0: b8b9 853d 5985 b73d 4643 303e 4d38 823d
000003e0: 3322 443d a533 523d 786b 963d 35d5 14bd
000003f0: a072 263d 05e0 bf3c 7ac0 6cbe af02 1abd
0.1063164 0.10074168 0.065426916 0.090354495 0.018557193 -0.038006485 -0.014292466 0.0021222522
0.16653131 0.0053617703 0.10873697 0.055095054 0.004086479 0.119978055 0.05007571 0.0067631877
-0.07976535 0.07968996 0.042396307 0.071225375 0.117929466 0.025654204 0.013178849 -0.049869794
0.043649476 0.027922863 -0.1748933 0.19505072 0.19719185 -0.124343686 -0.06575184 -0.3113053
0.16568202 0.15018505 -0.12525414 -0.1621117 -0.31226274 0.036938112 0.074825056 -0.12659004
0.00046390187 -0.09143475 -0.104971565 -0.035395056 -0.15154377 -0.007734904 -0.07616862 -0.074680135
-0.1000533 -0.089004226 -0.096366175 -0.038244132 -0.020667633 -0.08498946 -0.11002605 -0.0037703328
0.027655395 0.016150134 -0.07511035 -0.031663597 0.08253877 0.0028369229 -0.020570554 -0.025663601
-0.022337604 0.10255554 0.057873387 -0.024752958 -0.0641706 -0.0736157 0.10298246 0.103047
0.10503846 0.022461433 -0.0793842 0.17947124 0.03654352 -0.46920264 -0.18001725 0.17442234
0.18446617 0.17153373 -0.51354253 -0.27479646 0.06384379 0.056903295 0.15991594 -0.27578294
-0.27692965 -0.09923137 -0.108299546 -0.057940006 0.0014598678 0.00918546 0.060808703 -0.109902464
-0.11553388 -0.08231667 -0.047324326 0.059949566 0.20359439 -0.22550483 -0.24664691 -8.1222104e-05
-0.0038301337 0.074922614 -0.1437945 -0.33705214 -0.18594384 -0.3326461 -0.1925237 -0.19966453
-0.057766095 -0.10213525 -0.19517064 0.020224003 0.115010075 0.07419141 -0.0063795517 0.027404571
-0.036562108 -0.041169655 -0.087426394 -0.059532575 0.012712342 -0.37778476 -0.16163655 -0.027634785
-0.0051235254 -0.16046406 0.049648393 -0.3209963 -0.055902753 0.02569222 0.04741416 0.30616513
-0.0978625 -0.13164593 0.06533707 0.08257606 0.12598778 -0.059430875 -0.37878194 -0.15015095
-0.07420338 0.23388419 0.34710994 0.24152073 0.06612433 0.021195024 0.15402183 0.01817695
-0.3650856 -0.0640496 0.12539196 0.08261218 0.07742149 -0.21534158 -0.3400884 -0.18324679
-0.046450865 0.00092704786 -0.2012123 -0.23745888 -0.13152021 0.006545042 -0.0101209665 0.0059745046
0.062832355 0.17298731 -0.007901501 0.07396315 0.024908666 0.026476867 0.1678098 -0.05171454
0.080105856 0.07200417 -0.031673457 -0.13488819 0.043368004 0.052921236 0.055576112 0.0036570989
-0.17190786 0.06633165 0.115419336 0.08792114 -0.0126714455 -0.069167346 0.024051158 -0.037258826
-0.0050282567 -0.08675182 -0.010437701 -0.040613864 -0.01911657 0.027093712 -0.0054765474 0.036850598
0.12777284 0.0621706 -0.25117978 -0.17897105 -0.05291202 0.1042256 0.16044295 -0.008605118
-0.4131859 -0.25674227 -0.13358788 0.082737766 -0.048792176 -0.13619046 0.03703151 -0.14445384
-0.05948557 -0.0964695 0.030988714 0.1446413 -0.01695374 -0.22639321 -0.18202521 -0.1327765
0.012358757 0.01258612 0.008713172 -0.009633566 -0.11115274 0.14572781 0.017667966 0.119442835
-0.033069573 -0.078656815 0.0494913 0.12648164 0.09984087 -0.024083603 -0.04531282 0.099764474
0.057639625 0.105704606 0.03451621 0.0065594255 0.06529564 0.08960981 0.17213163 0.06358395
0.047884177 0.051318783 0.07344717 -0.036336143 0.04063666 0.02342225 -0.23120299 -0.037600216

conv2.bias f4 [32]
00000000: 2659 a83d 7af3 a53c 7ae8 263d a9f5 0fbd
00000010: 6fc6 a9bc c78f 353e 844b 0d3e 8b6e 7c3e
00000020: 7803 5e3c 1289 413e 0af2 cc3d 7c81 583d
00000030: bb1a a23d fc0d 4e3c e748 d53d 33fe d13d
00000040: 6e52 9f3d f768 a63e b4ce cdbb 017f aa3d
00000050: fa57 ee3d 9c4a 653e 1ee6 d33d fce7 5d3e
00000060: b464 e93d 87d9 613b 8a6a 2ebb 9664 a63d
00000070: 48fa f63d 85a8 253e e68b cf3b aadd 353e
0.08220129 0.0202577 0.04074905 -0.03514639 -0.020724503 0.17730628 0.13798338 0.24651544
0.013550632 0.18899944 0.10007103 0.05285786 0.07915255 0.012576576 0.10414296 0.10253563
0.07779394 0.32501957 -0.0062807444 0.08325005 0.11637874 0.22391742 0.10346626 0.21670526
0.11396161 0.0034461932 -0.0026613795 0.08124654 0.12059456 0.16177566 0.006333816 0.1776034

fc.weight f4 [64, 800]
00000000: 3327 c03d 7ba8 c33d afe6 a83d fe71 f53d
00000010: 5c82 a33d 4e72 283c f512 473e 427a 93bc
00000020: 3881 fe3c 7d75 c3bc b662 733c d6fa 813e
00000030: c1a4 52be 0981 9abe 03d4 14bd 6cee 9f3d
00000040: 38e7 8f3d 8129 f5bd ea05 15be cf66 cb3d
00000050: 0c3e 27bd 0f7e abbc 4ef0 c6be e7a4 34be
00000060: c65a 9f3c 20c8 a73e dafd 6d3e fd2a bbbc
00000070: 25e2 dabc d81c 093e e873 a13d ff20 9c3d
00000080: ebe0 71bd 8616 b3bc cf9e 04bd 5c28 96bc
00000090: 72bf 323d 75fb 0bbe f37e 8bbd f4d8 dabd
000000a0: 295f ff3d 8261 963d 5d0a 3f3d 8c8e e23d
000000b0: 31ee 46be 77fd b6bd e860 1139 4dd9 803d
000000c0: bd5c c1bd bf83 1ebe 9be0 70bd d516 58bd
000000d0: d20b d1bd e07a 7d3c d9db f73d b661 a53d
000000e0: 2390 39be 2e67 3abe 7e3d 32bc 06ca 013e
000000f0: b4e0 c03d e7cc cebd 28e1 98be 0ebc 45be
00000100: 08fa c43c 1113 16bd 9f4b 00be 7763 9a3e
00000110: 0abd 373c a502 9e3c 2cbc 0abd 8bfe 80bd
00000120: 9032 e9bc 525b 0f3e 204a 213d 79f1 febc
00000130: 768c 69bc e4ca 20bd 5ed3 0bbb 684f d23b
00000140: c36d 4f3c 1085 083c b738 2fbb 9792 b33c
00000150: 6920 08bd 7aa3 09bc f2ee 993b 6a7b c2bc
00000160: 1207 45bb 5f89 9dbc 14e2 a4bc cc4a 433c
00000170: 8ca7 09b8 7714 30b7 7c86 073b 2d35 33bc
00000180: 1218 70bb 7e7b 133a b756 373c 3864 14bc
00000190: 4341 bd3b 5fe7 c73c 614c 823c 4263 94ba
000001a0: d9d3 cb3c e274 ccbc 7405 273d 3c64 0b3d
000001b0: dfa1 193c fbea b7bc d3d7 bcbb 5708 2739
000001c0: 60e2 c23c bc47 2bbc 8f1c 963c 9656 ad3c
000001d0: f7c4 6c3b 6291 d2bc 99f9 953c dde6 f43c
000001e0: 5fdc d43b 444a 40bb aafc dabb b2a5 d03a
000001f0: 1748 24bc 66e1 bf3b e746 dcbd 153d 02be
00000200: 0621 efbd 51ce dcbd c221 02be 1abf d0bd
00000210: 01df f23d 9ba7 ba3d 4ba1 9e3d f076 81be
00000220: d360 c1be 7f31 78bd 4185 b03c 5e84 39be
00000230: 23a6 82bc 477e 0c3c 9785 bb3e 1a7c 173d
00000240: 5c41 2bbe 9a97 a5bd 7c57 70be 5d34 993d
00000250: 9f77 023d dfca f3bc e814 2e3e 5ff2 393e
00000260: e651 e0bc ccca ae3d 73c8 963d 1a0e 713d
00000270: 51b5 81bd 53b1 2e3c cf0d 933d c848 c53d
00000280: 6cce 76be 03d0 223e d07a af3d 0360 c0be
00000290: c582 e3bd 93cd c73d a35b af3e 5b8c 843e
000002a0: 44cc 0fbd 4b68 60be 7ac0 c2bd 8588 0fbe
000002b0: 55f7 73be 79b2 27bd 91c1 7a3d 4dc7 a33b
000002c0: 29cb 33bd 31e0 d3bd 3625 5e3d d4f0 d23d
000002d0: efa4 613c 08cb 2cbe 6793 ffbb 2767 c4bd
000002e0: 37b9 02be addb c63d 949a 82bd bb57 923b
000002f0: dfe9 ecbb 2b90 b53d c50d 613d 6063 51bd
00000300: f071 2cbe 1f96 973b 549a 973d 3fca ad3b
00000310: fa1d dd3d c16b 68bc 3a18 a03d 6d15 ecbd
00000320: 0c7a 773e 8a01 a43d f559 3fbe 1e0f 673b
00000330: 2580 a13e da35 d03d c19c 303c f14e 6bbd
00000340: 3fbf 9c3c 7f3f 153e e17f 39bd 4089 343e
00000350: 6e46 c63d 5467 8fbd 011c 08bd 795f bb3d
00000360: b1b7 173d a244 08bd 6575 1cbe 45e7 aebd
00000370: 6dbf f9bc 009a 8dbc 5e69 1f3d 85ae 02be
00000380: 3692 9c3d fbaf 3e3e 3981 dd3d 169d 303e
00000390: 9f4d 99bd 9bf7 afbc 8f2d afbd 55f1 673c
000003a0: 27db c3bc 715d a53c e205 aabb bf76 d43c
000003b0: 4d08 103d ca65 10be 32f5 9f39 a779 8cbc
000003c0: 7104 a3bd 4f15 c23c c5af 223d 1647 acbd
000003d0: ca5e 1f3e e8b0 1bbe 5696 2fbe 82cc 9f3d
000003e0: 66c7 3a3d 8d58 5a39 c964 ce3c 4453 54bd
000003f0: 72f7 cebd 6111 423b 5670 893d 9b1d 943c
0.09382477 0.095536195 0.082471244 0.11984633 0.079838485 0.010281159 0.19440825 -0.018002633
0.031067476 -0.023859734 0.0148550775 0.25386685 -0.20570661 -0.3017657 -0.036335003 0.07809147
0.07026523 -0.11970807 -0.14553037 0.099317186 -0.040830657 -0.020934133 -0.38855213 -0.1764103
0.019452464 0.3276987 0.23241368 -0.022847647 -0.026719162 0.1338991 0.078834355 0.07623481
-0.05905239 -0.021861326 -0.032378014 -0.018329792 0.043639608 -0.13670142 -0.06811323 -0.10685912
0.12469322 0.07342817 0.046640743 0.11062345 -0.194268 -0.08935063 0.00013864378 0.06291447
-0.094415165 -0.15479945 -0.05880795 -0.05275615 -0.10207333 0.01547119 0.121024795 0.080752775
-0.1812139 -0.18203422 -0.010878919 0.12674722 0.09417859 -0.10097676 -0.2985928 -0.19310018
0.024045005 -0.036639277 -0.12528847 0.3015401 0.011214504 0.01928837 -0.03387086 -0.0629855
-0.028466493 0.1399968 0.03937733 -0.031121003 -0.01425468 -0.03925599 -0.0021335701 0.0064181574
0.012660447 0.008332506 -0.0026736686 0.021920485 -0.033234034 -0.008400792 0.004697674 -0.023740489
-0.0030064029 -0.019230543 -0.020127334 0.011919688 -3.2819386e-05 -1.0495182e-05 0.0020679524 -0.010937971
-0.003663544 0.0005626007 0.011190108 -0.009057097 0.005775602 0.024402319 0.01590556 -0.0011321085
0.02488129 -0.024958078 0.040776685 0.034031138 0.009376972 -0.022450915 -0.005763033 0.00015929468
0.023789585 -0.0104541145 0.018324165 0.021159451 0.0036128142 -0.02570409 0.018307494 0.02989524
0.006495997 -0.002934114 -0.006682952 0.0015918522 -0.010026953 0.005855727 -0.10755711 -0.12718613
-0.116762206 -0.10781539 -0.1270819 -0.101927 0.11858941 0.091139995 0.07745608 -0.25286055
-0.37769184 -0.06059408 0.021547915 -0.181169 -0.01594836 0.008575029 0.36625358 0.036983587
-0.16724151 -0.08085556 -0.23470873 0.07480691 0.03185236 -0.029759822 0.17000163 0.18158863
-0.027382802 0.08534774 0.073624514 0.05885134 -0.063334115 0.010662395 0.07180368 0.096330225
-0.24102181 0.15899663 0.085683465 -0.3757325 -0.11108927 0.09756007 0.342496 0.25888333
-0.035106912 -0.21914785 -0.09509368 -0.14016922 -0.23824818 -0.04094169 0.061219756 0.0049981237
-0.04389492 -0.103454955 0.054234706 0.102998406 0.013772233 -0.16874325 -0.007799554 -0.09589987
-0.12765966 0.097098686 -0.0637714 0.0044660247 -0.007230028 0.088653885 0.054944772 -0.051120162
-0.16840339 0.00462605 0.07402483 0.0053036506 0.10796733 -0.014185847 0.07817121 -0.11527524
0.24167651 0.08008106 -0.1868666 0.0035256813 0.3154308 0.10166521 0.010779561 -0.05744833
0.019134162 0.14575003 -0.04528797 0.17630482 0.09681402 -0.0700213 -0.03322983 0.09149069
0.037040416 -0.03326858 -0.15279157 -0.08540205 -0.030486787 -0.017285347 0.038918845 -0.12761886
0.07645075 0.18621819 0.10815663 0.17247424 -0.07485508 -0.021480372 -0.085536115 0.014156659
-0.02390821 0.020186158 -0.0051886896 0.025935529 0.035164166 -0.1410133 0.00030509528 -0.017147852
-0.079598315 0.023691801 0.03971841 -0.08411996 0.15563503 -0.15204203 -0.17147192 0.07802679
0.045600317 0.00020823088 0.025194542 -0.05183722 -0.1010579 0.002961241 0.067108795 0.018080523

fc.bias f4 [64]
00000000: 6fef f1bd 9237 10bd 456e 2dbc ce99 e4bd
00000010: a44a 783e ada0 2d3e c0a9 af3d d1bb 4c3d
00000020: c152 133c 9bda 233d 5a04 7b3d 7b56 1bbd
00000030: 8c81 8e3d 6acb 0a3d bcac a83d 3044 743e
00000040: 6494 9a3d c825 93be a644 ad3d 0d17 0bbe
00000050: ee6a 0fbe 8250 26bd b5b7 87bd 5a9b 603e
00000060: 4fac 923d 21dc 853d 3543 34be afe4 75bd
00000070: f343 c9bd bca8 5b3e aa21 c53d 0fd1 d6bc
00000080: 9791 0abd ba35 3bbc eea2 5fbc 30fb 54bd
00000090: 45a5 973e d8c2 373e a422 41be e948 0fbe
000000a0: f8e0 b23c dd77 53be 6091 d9bd 1f52 f7bc
000000b0: 1dea ab3c 59e3 08be acbc 14be ec17 a7bd
000000c0: 7022 bb3d aefe 533e 80ff f03d 0052 8f3e
000000d0: ac36 68bd 31cc 38be afe6 eabd 4c32 1abe
000000e0: 34a8 99be e63f 3e3c 8752 c3bd e729 8bbc
000000f0: f8fc cfbd c808 d93d 8f97 a03d 95d9 ae3d
-0.118132465 -0.035209246 -0.010585372 -0.111621484 0.24247223 0.16955824 0.08577299 0.049983803
0.008991898 0.0400034 0.061283447 -0.03792427 0.06958303 0.033885397 0.082360715 0.23854136
0.075478345 -0.28739762 0.08460359 -0.13583012 -0.14005634 -0.040604122 -0.06626836 0.21934262
0.071617715 0.06536127 -0.17603762 -0.060032543 -0.098274134 0.21451086 0.096255615 -0.026222734
-0.03383025 -0.011426384 -0.013649685 -0.051997364 0.29618278 0.1794542 -0.1886087 -0.13992657
0.02183579 -0.20651193 -0.10623431 -0.030190526 0.020985657 -0.13367976 -0.14525098 -0.081588596
0.09137428 0.20702621 0.11767483 0.2799225 -0.056692764 -0.18046643 -0.11469781 -0.15058249
-0.3001114 0.011611914 -0.09537225 -0.016987754 -0.10155672 0.10597378 0.078414075 0.08537594
