saved_models/FADA-few-shot-retraining/mnist/classifier_mnist_8.pt (torch_old, 3144 bytes, 2 tensors)

fc.weight f4 [10, 64]
00000000: 5143 143e 9ef1 c9bd 2f2b 26be 94a4 703e
00000010: 30b4 82be 74f8 0f3e 23d6 79bd c07c 623e
00000020: 0ae4 f83d 9bd0 21bd 54f1 0bbe 8d58 073d
00000030: 31c8 73bd 97a1 05be 4854 603d 2f35 043e
00000040: 0cc5 963d fb15 0fbc 4a29 a23d aa05 d03d
00000050: e31a 32bd fec5 09be 91c1 a93c 11f0 20be
00000060: 7560 fcbd 077b 3c3e 11b3 003d 79e8 cd3d
00000070: e400 1abe 471c b0bc fbe8 b53d 655a 9c3d
00000080: 5d73 413e c7ce 18be cb43 44be 18ea 1fbe
00000090: 95f6 3f3e dc8e 9ebd b7c7 aa3c f76f bebd
000000a0: 9268 873d f7a7 b0bd f087 a33d a225 a53d
000000b0: 9ebf 16be 2f86 cc3d 8428 0abe b983 193e
000000c0: 37cc d5bd 7904 38be 3809 64be f9fd 63bd
000000d0: 5939 ba3d 8e46 ffbc 1559 603e 6552 7c3e
000000e0: 42d6 073e b1ea 8cbe 2924 ac3c 37de 163e
000000f0: 9d30 20be 72d8 d93d f030 083e fb25 193e
00000100: 1953 f9bd 873e a7bb c7d6 e33c 2cc7 ec3d
00000110: a699 5abe 2f28 34be 9a4f ae3d f43b 69bd
00000120: 512a 44bd 2adb de3d dab0 f73d c7c2 633d
00000130: 7957 2f3d 7e36 833e 6fec 60be 9c40 e43d
00000140: 9774 40be 812a 01be c9bc a73c c572 1dbe
00000150: 1164 123e a30f f7bd 3d67 71be 8718 ef3d
00000160: 21dc 0cbe ac2d f83c 710e b33d b535 68be
00000170: 4ddd 133e f749 25bd 84a4 8abe 5ce5 b7bd
00000180: f42f 9ebd 9da8 163e cffc 8dbc 688d 39be
00000190: e1ab 933e de36 273c 97ef 303e 1f2e b33d
000001a0: e871 60be 2a64 56be b3a9 983e 59af 69be
000001b0: aa5a 183e 80f5 c83d 11ce 3d3e de88 843e
000001c0: a1dc 6f3e 652f d4bd 5d63 3f3d e224 513e
000001d0: 4bbd 863e 7ee3 1c3e 73f6 2bbe 9aab 06be
000001e0: 4178 39be 88a4 f4bc 5398 a93e 6c73 acbd
000001f0: 2a54 583e 471b 52bd 85dc 81be 31fe b1bd
00000200: 50de e83d 8223 613e 29c4 4cbe c2fa 203e
00000210: ddab 6c3e fd45 253e a7ea 0f3e 6250 053e
00000220: fcb9 853e 9885 1b3e c6fe 2ebe 7194 49be
00000230: 4e4a 51be 92f7 36bd d95d 90bd be07 8c39
00000240: 1167 d63c 1c0d a03a f4dd c13d 6eed aa3d
00000250: 7608 0e3e f790 123e 5538 df3c 4d61 273d
00000260: 2a93 35bc 4a14 713d 421c 5dbe 152a dcbd
00000270: bff0 5abe 592e 303d d476 263e 4079 cabd
00000280: 9c06 27be f568 03bb 7838 c13d 8553 f33d
00000290: ba05 f0bd 7d06 1f3e 34a0 babd 61e3 e3bc
000002a0: eefc 15be a6a3 97bd cf31 e2bd 6f6b 573c
000002b0: 17f6 19bd b0ea 943d 7dd3 4b3d 740e 8d3e
000002c0: 5084 2f3e 8150 c4bc cba5 febd ef1b 8d3d
000002d0: e457 0bbe f3c0 c5bd f6e6 4ebe d485 bdba
000002e0: 2189 e9bd 6f97 4e3e e831 59be 9193 0ebe
000002f0: 2768 1a3c 6a53 33bd e364 d73d ae06 5b3d
00000300: 6cd1 50bd 2fc0 acbd 571c 063e d399 4abe
00000310: 60f0 be3d 3d48 903d 4ea5 333e 5cd7 07be
00000320: a257 a03d d0a9 96bd 9283 bf3d 506a 7fbd
00000330: ace8 e23c be77 4d3d ca90 10be 94a9 9bbc
00000340: 741a edbb 2235 24bc 8c93 553d a831 9d3d
00000350: f73d 11be 06fd 2b3e b709 4a3e f8c0 863e
00000360: f978 b03d 391c 54be 5898 b2bd 3818 ef3d
00000370: e279 27be a8eb 683e 95d0 3ebe 6577 85bd
00000380: ce1e 5f3e e6e4 31be 721a 813d fb85 233e
00000390: 6683 273e 1d68 133e 5092 20bb bf09 2bbe
000003a0: db2b 0e3e f58e f4bd 931a a7bd a64b ae3d
000003b0: a7b1 17be b17a 173e 85d6 1f3e 43c0 02be
000003c0: 08ea 8abd f19f 773d 4db1 6c3e f843 2abb
000003d0: 5497 2dbe 0ad8 98bb 0c20 72be b1fb 1ebe
000003e0: 76e9 cdbd 8bf8 1f3e fb8c 973e 75e1 15be
000003f0: 5d9f 783d b9fd b63d 5753 1abd c177 0fbe
0.14478804 -0.09860538 -0.1622741 0.23500282 -0.25528097 0.14059621 -0.060995232 0.22117901
0.1215287 -0.039505582 -0.13666278 0.033043433 -0.05951709 -0.13049923 0.054767877 0.12910913
0.073618025 -0.008733268 0.079180315 0.1015733 -0.043482672 -0.13454434 0.020722182 -0.15716578
-0.12323085 0.18406306 0.03142077 0.10054106 -0.15039402 -0.021497859 0.08882328 0.07634429
0.18891664 -0.1492263 -0.19166486 -0.15616643 0.18746407 -0.07742092 0.020847185 -0.09298699
0.06611742 -0.08625787 0.079849124 0.080638185 -0.14721534 0.09986531 -0.13492018 0.14991654
-0.104393415 -0.17970456 -0.22269142 -0.05566213 0.090929694 -0.031161573 0.21908982 0.24640806
0.13265327 -0.27522805 0.021013336 0.14733206 -0.15643544 0.10636987 0.13299918 0.14955895
-0.12174053 -0.0051038894 0.027812375 0.115614265 -0.21347675 -0.17593454 0.085112765 -0.05694194
-0.04789192 0.10881646 0.12094279 0.055605676 0.04280803 0.25627512 -0.21965192 0.11145136
-0.18794475 -0.1261387 0.020475762 -0.15375812 0.14295985 -0.12063529 -0.23574539 0.116746
-0.13755848 0.030295216 0.08742989 -0.22676738 0.14439888 -0.04035374 -0.2707864 -0.08979294
-0.0772399 0.14712758 -0.017332463 -0.18120348 0.2884207 0.010205952 0.17278896 0.08749031
-0.21918452 -0.20936647 0.2981697 -0.22820796 0.14878336 0.098124504 0.1853564 0.2588567
0.23424007 -0.10360602 0.04672562 0.20424226 0.26316294 0.15321156 -0.16793232 -0.13151398
-0.1811228 -0.02986361 0.33124027 -0.084204525 0.21125856 -0.051295545 -0.25363556 -0.08691061
0.11370528 0.21986201 -0.19996704 0.15720657 0.23112436 0.1613998 0.14054357 0.13018945
0.26118457 0.1518768 -0.17089376 -0.19685532 -0.20438501 -0.044669695 -0.0704915 0.0002670865
0.026172193 0.0012210938 0.09466162 0.08346067 0.13870415 0.14313112 0.02724854 0.040864278
-0.01108245 0.05885724 -0.21592811 -0.10750214 -0.213809 0.04301295 0.16256267 -0.09886408
-0.16311115 -0.0020051573 0.09434599 0.118811645 -0.11719842 0.15529819 -0.091125876 -0.027818384
-0.14647266 -0.0740426 -0.110446565 0.013148173 -0.037588205 0.072713256 0.049762238 0.2755009
0.17140317 -0.023964169 -0.12433966 0.068900935 -0.13607746 -0.09655943 -0.20205292 -0.001445944
-0.114031084 0.20174955 -0.21210444 -0.1392348 0.009424246 -0.04378072 0.105172895 0.053473167
-0.05098097 -0.084350936 0.13096748 -0.19785242 0.09323192 0.07045028 0.17543527 -0.13265747
0.07829215 -0.07356608 0.09351267 -0.062357247 0.027698837 0.050163023 -0.14117733 -0.01900176
-0.0072358195 -0.0100224335 0.052142665 0.07675487 -0.14183794 0.1679574 0.19730268 0.26319098
0.08616824 -0.20713891 -0.087204635 0.11674541 -0.16355088 0.22746146 -0.18634255 -0.06516913
0.21789095 -0.17372474 0.06303872 0.15969078 0.16358718 0.14395185 -0.0024501272 -0.16702937
0.13883917 -0.119413294 -0.081593655 0.085105225 -0.14813863 0.14792897 0.15609176 -0.12768655
-0.06782919 0.060455266 0.2311451 -0.0025980454 -0.16952258 -0.0046644257 -0.23645037 -0.155257
-0.10054295 0.15622155 0.29599747 -0.14636786 0.060698856 0.089351125 -0.037677135 -0.14010526

fc.bias f4 [10]
00000000: 0fb4 da3c 0d2f 8bb9 d69f 753d 179e f33d
00000010: efa4 1d3d 5659 c13d d998 4dbe 843b b53d
00000020: ebe5 ba3d 572e a4bd
0.026697187 -0.00026547202 0.059966885 0.118953876 0.03848737 0.094408676 -0.20077838 0.08849242
0.091258846 -0.08016651
