saved_models/FADA-few-shot-retraining/mnist/classifier_mnist_11.pt (torch_old, 3144 bytes, 2 tensors)

fc.weight f4 [10, 64]
0.14762019 -0.081243865 -0.18217276 0.2282429 -0.2733059 0.15068619 -0.06261734 0.20524237
0.1384747 -0.01706 -0.15124325 0.033921987 -0.07606416 -0.12569538 0.0636675 0.14088902
0.08205447 -0.027524458 0.10042127 0.11806484 -0.031178048 -0.113033585 0.03210023 -0.16875333
-0.1427848 0.20430551 0.004705189 0.09793092 -0.14618999 -0.017582092 0.103657864 0.060063127
0.17620069 -0.1425915 -0.20824292 -0.15592293 0.18130825 -0.062048376 0.030445628 -0.11382649
0.05644265 -0.09038927 0.074911274 0.078065984 -0.16581409 0.12479429 -0.15574355 0.15312779
-0.12691365 -0.1649269 -0.21808961 -0.070091255 0.11638141 -0.03470358 0.22247173 0.2612335
0.1465575 -0.24970396 0.016370676 0.15602392 -0.17109805 0.14054199 0.16105223 0.15990506
-0.113423586 0.024513474 0.008170944 0.08802103 -0.1976099 -0.16543151 0.13697875 -0.09937269
-0.00765298 0.103697784 0.1294292 0.02525475 0.027691467 0.22599478 -0.20821285 0.12174746
-0.21680127 -0.113956794 0.00839233 -0.15965791 0.14200515 -0.082741395 -0.2316562 0.11547581
-0.13302661 0.036921915 0.012563686 -0.22328383 0.14661492 -0.03641268 -0.28774047 -0.12220718
-0.08004803 0.15609315 -0.006502484 -0.16322418 0.24832776 0.031858165 0.17822886 0.083728194
-0.21554297 -0.23474203 0.25819 -0.21929093 0.1557216 0.10540506 0.1610581 0.24884664
0.23557304 -0.12045969 0.03997446 0.1991419 0.27184084 0.13803898 -0.19589832 -0.15876254
-0.20134053 0.02091677 0.32727343 -0.11035725 0.22708416 -0.017607287 -0.24905296 -0.12027692
0.120860934 0.21462071 -0.1783912 0.17992273 0.2732728 0.17712292 0.12143391 0.16221525
0.24420528 0.13315287 -0.152267 -0.18494968 -0.18069606 -0.011303334 -0.05407592 -0.018615332
0.025070768 0.024827404 0.0776182 0.06726491 0.12017605 0.12456055 0.014181339 0.083037056
-0.031500373 0.028873654 -0.19507408 -0.12600625 -0.24596758 0.057977587 0.15929018 -0.08329632
-0.15161407 -0.014982095 0.10913716 0.10007389 -0.11098941 0.14655377 -0.073758945 -0.059721723
-0.12134263 -0.055732273 -0.104015484 -0.004353153 -0.03706058 0.06793977 0.075266995 0.25503054
0.15564366 -0.00909558 -0.13517492 0.091003396 -0.14656895 -0.06702027 -0.17726892 0.020909773
-0.13302797 0.19291699 -0.21171129 -0.12358662 0.020740297 -0.056643244 0.10190757 0.04613171
-0.050271347 -0.073565654 0.11250862 -0.1655867 0.108627014 0.06003489 0.14983936 -0.109169565
0.046703957 -0.098043606 0.09077188 -0.04890633 0.05179838 0.086910486 -0.116229504 -0.035894364
-0.0074747507 0.00697659 0.039125375 0.050910097 -0.16481702 0.147067 0.17665918 0.22156872
0.08422931 -0.208516 -0.06320277 0.10459785 -0.1828126 0.22236545 -0.15811771 -0.024150621
0.1913699 -0.16114274 0.077712454 0.13884768 0.16798171 0.15905082 -0.030312046 -0.11740407
0.13623878 -0.084132485 -0.058154274 0.059252225 -0.12661001 0.1317571 0.18042588 -0.09681689
-0.04373754 0.06519699 0.21611133 -0.0020303081 -0.17254762 -0.0072375247 -0.2085332 -0.09542093
-0.11199121 0.13111445 0.25552157 -0.10636883 0.07438079 0.050209027 -0.042686425 -0.10102055
00000000: bf29 173e 2f63 a6bd 7f8b 3abe 82b8 693e
00000010: c0ee 8bbe 7b4d 1a3e 853d 80bd 0e2b 523e
00000020: 50cc 0d3e 6ac1 8bbc 83df 1abe c8f1 0a3d
00000030: 87c7 9bbd 4ab6 00be 1b64 823d 3645 103e
00000040: 2d0c a83d f97a e1bc aba9 cd3d fbcb f13d
00000050: 1b69 ffbc 277e e7bd 887b 033d accd 2cbe
00000060: 2e36 12be 7735 513e fc2d 9a3b 0290 c83d
00000070: d4b2 15be 5208 90bc 934a d43d c104 763d
00000080: f46d 343e 8203 12be a23d 55be 43aa 1fbe
00000090: dfa8 393e 7026 7ebd 1c69 f93c dd1d e9bd
000000a0: 6830 673d 021e b9bd 156b 993d 0fe1 9f3d
000000b0: 2bcb 29be 2694 ff3d 3d7b 1fbe 88cd 1c3e
000000c0: a7f5 01be 99e2 28be e252 5fbe 018c 8fbd
000000d0: 6059 ee3d 5725 0ebd a1cf 633e 66c0 853e
000000e0: 2b13 163e 65b2 7fbe cc1b 863c bcc4 1f3e
000000f0: 5434 2fbe 3dea 0f3e e0ea 243e 27be 233e
00000100: a04a e8bd 7bd0 c83c 6cdf 053c 5f44 b43d
00000110: 405a 4abe e166 29be 2844 0c3e e983 cbbd
00000120: d9c5 fabb 815f d43d 1789 043e 0de3 ce3c
00000130: 37d9 e23c 2d6b 673e c035 55be bb56 f93d
00000140: 2701 5ebe 2e62 e9bd fc7f 093c 5d7d 23be
00000150: cc69 113e 5274 a9bd 4837 6dbe 957e ec3d
00000160: 2138 08be 6f3b 173d ebd7 4d3c 84a4 64be
00000170: 3922 163e 7625 15bd b852 93be c247 fabd
00000180: 39f0 a3bd e2d6 1f3e ca12 d5bb 3d24 27be
00000190: a249 7e3e b57d 023d a081 363e b079 ab3d
000001a0: 4cb7 5cbe 3760 70be 7b31 843e cd8d 60be
000001b0: 7c75 1f3e 9cde d73d 6aec 243e a7d1 7e3e
000001c0: 0f3a 713e 92b3 f6bd 42bc 233d dbeb 4b3e
000001d0: b92e 8b3e 175a 0d3e 9299 48be a692 22be
000001e0: 362c 4ebe a559 ab3c 6290 a73e fb02 e2bd
000001f0: c088 683e 283d 90bc bd07 7fbe bf53 f6bd
00000200: f085 f73d 88c5 5b3e 2fac 36be aa3d 383e
00000210: 6aea 8b3e b65f 353e 58b2 f83d c11b 263e
00000220: f310 7a3e 3a59 083e e1eb 1bbe 7363 3dbe
00000230: 6308 39be 9e31 39bc b67e 5dbd 2e7f 98bc
00000240: 3661 cd3c d762 cb3c 4af6 9e3d 2fc2 893d
00000250: dc1e f63d 9a19 ff3d d958 683c 550f aa3d
00000260: 8906 01bd 7188 ec3c 80c1 47be c807 01be
00000270: edde 7bbe e879 6d3d f71c 233e 4397 aabd
00000280: b840 1bbe 7677 75bc 4e83 df3d 8af3 cc3d
00000290: 6a4e e3bd 3112 163e ee0e 97bd c49e 74bd
000002a0: 7c82 f8bd 8647 64bd 1206 d5bd e5a4 8ebb
000002b0: d6cc 17bd 0224 8b3d 9525 9a3d 5d93 823e
000002c0: 0d61 1f3e a105 15bc 4b6b 0abe fd5f ba3d
000002d0: 2c16 16be ec41 89bd fc85 35be f94a ab3c
000002e0: 7c38 08be 088c 453e d8ca 58be fb1a fdbd
000002f0: 8ee7 a93c bf02 68bd ebb4 d03d 9bf4 3c3d
00000300: 54e9 4dbd 97a9 96bd eb6a e63d 8f8f 29be
00000310: d777 de3d 25e7 753d 7d6f 193e 4b94 dfbd
00000320: a64c 3f3d 16cb c8bd 9be6 b93d 0152 48bd
00000330: 8a2a 543d 20fe b13d bc09 eebd f805 13bd
00000340: c1ee f4bb e19b e43b ee41 203d 1b87 503d
00000350: cbc5 28be bb98 163e 25e6 343e e9e2 623e
00000360: 6b80 ac3d 3885 55be 7470 81bd 6637 d63d
00000370: 3a33 3bbe c5b3 633e 9ce9 21be 86d7 c5bc
00000380: 79f6 433e 9a02 25be b527 9f3d 162e 0e3e
00000390: 6603 2c3e 38de 223e f850 f8bc 8c71 f0bd
000003a0: 2e82 0b3e a74d acbd 2d33 6ebd 76b2 723d
000003b0: 0ea6 01be 55eb 063e 90c1 383e ef47 c6bd
000003c0: 2226 33bd 0086 853d 4a4c 5d3e eb0e 05bb
000003d0: 53b0 30be c228 edbb ba89 55be 0c6c c3bd
000003e0: a65b e5bd de42 063e b9d3 823e e7d7 d9bd
000003f0: f554 983d fba7 4d3d f6d7 2ebd dde3 cebd

fc.bias f4 [10]
0.04004923 -0.008824579 0.047288496 0.09837969 0.035065867 0.09544872 -0.20434384 0.05852663
0.057021223 -0.044858437
00000000: a90a 243d f894 10bc 95b1 413d 4a7b c93d
00000010: 3aa1 0f3d 9e7a c33d 833f 51be 9fb9 6f3d
00000020: 168f 693d 7bbd 37bd
