saved_models/FADA-few-shot-retraining/mnist/classifier_mnist_1.pt (torch_old, 3144 bytes, 2 tensors)

fc.weight f4 [10, 64]
0.1266781 -0.05910765 -0.15442595 0.23955052 -0.25050455 0.1255449 -0.033494327 0.20882381
0.11976865 -0.0018553978 -0.109052226 0.009683906 -0.07297725 -0.1271729 0.063047886 0.17005074
0.05252287 0.0060708863 0.07575599 0.088922106 -0.0029049916 -0.16957857 0.008618418 -0.15368594
-0.13109113 0.22083828 0.016817847 0.06408683 -0.12909697 -0.048981026 0.084631 0.05696806
0.16177043 -0.122766994 -0.1760786 -0.16796897 0.21204466 -0.044586983 0.044536076 -0.07660945
0.07120109 -0.072548404 0.09342734 0.05631824 -0.13584372 0.089723624 -0.12563623 0.13091774
-0.09843303 -0.20352778 -0.23062259 -0.059177723 0.13427381 -0.030088998 0.1932727 0.24724764
0.1143731 -0.24433067 0.032223403 0.13438703 -0.14042382 0.11863216 0.13154998 0.1550304
-0.04180427 0.0018988545 -0.023850022 0.08003444 -0.20265156 -0.10701814 0.07233587 -0.06779153
-0.015049528 0.09745037 0.12303109 0.0706165 0.0640466 0.26293343 -0.21927096 0.079011954
-0.15700674 -0.1305838 0.0005760849 -0.15067536 0.07739526 -0.069884226 -0.25423342 0.13828829
-0.18493201 -0.014570499 0.05749665 -0.23787367 0.12700748 -0.017512443 -0.31268483 -0.073947884
-0.07489689 0.15191633 -0.026564011 -0.2018747 0.2694017 0.04400892 0.16335137 0.017157663
-0.25506386 -0.23905587 0.28698882 -0.24265395 0.09836435 0.13621601 0.17704085 0.25555742
0.16715543 -0.059889875 0.03276664 0.23478651 0.27030456 0.16447875 -0.14045347 -0.14600714
-0.19980036 -0.033647068 0.37336516 -0.06828281 0.15348531 -0.022406755 -0.1826362 -0.14036141
0.076394506 0.24850005 -0.18246222 0.15287723 0.22619632 0.124241024 0.15548342 0.110513315
0.23650067 0.14372927 -0.14214869 -0.17529657 -0.18354492 -0.05376693 -0.07838489 0.038632374
-0.012553211 0.022907358 0.07156162 0.04239097 0.14965117 0.11584637 -0.012325812 0.04119837
-0.0064471927 0.06788433 -0.19921878 -0.16222207 -0.17395426 0.033284664 0.14506987 -0.123081416
-0.17259085 0.029808564 0.08632301 0.10614328 -0.08984158 0.13283592 -0.050386302 0.0045309155
-0.14116125 -0.072482035 -0.08813984 -0.019572774 -0.0047585866 0.05530477 0.034876727 0.2506597
0.17405948 -0.06077691 -0.13272515 0.08981105 -0.09032657 -0.081902415 -0.2201389 -0.019273484
-0.15032431 0.21541497 -0.19366297 -0.1596727 0.030350948 -0.06470189 0.088889286 0.045932736
-0.06500415 -0.08769633 0.113233574 -0.19971637 0.08707365 0.07403808 0.16857977 -0.11547741
0.0937772 -0.04178222 0.06949248 -0.061060723 0.022819366 0.07594502 -0.14192028 -0.031302404
0.015153141 -0.018349277 0.074036136 0.089036904 -0.12880251 0.17810127 0.21399927 0.2515881
0.10624007 -0.22780359 -0.09591768 0.13676557 -0.17383425 0.23399103 -0.16667877 -0.05029524
0.20847018 -0.17997327 0.067340754 0.16778503 0.12670085 0.1589588 -0.017593434 -0.15647988
0.13605243 -0.079711884 -0.08849666 0.09297235 -0.15849759 0.14608109 0.19569263 -0.11459494
-0.052797705 0.08262005 0.24313045 -0.020814082 -0.18573804 -0.013148304 -0.22144184 -0.12000384
-0.07750163 0.17992614 0.2522731 -0.12534826 0.064667046 0.065300256 -0.06742433 -0.15269475
00000000: e7b7 013e dd1a 72bd d621 1ebe bb4c 753e
00000010: 2242 80be d88e 003e 5931 09bd e9d5 553e
00000020: 4449 f53d d230 f3ba c656 dfbd 3fa9 1e3c
00000030: 1975 95bd 9d39 02be 401f 813d c821 2e3e
00000040: 3922 573d 49ee c63b f525 9b3d cb1c b63d
00000050: ac61 3ebb 01a6 2dbe 4434 0d3c d95f 1dbe
00000060: c13c 06be 6e23 623e 95c5 893c f53f 833d
00000070: ff31 04be 54a0 48bd 0553 ad3d 5757 693d
00000080: 26a7 253e 436d fbbd f34d 34be 0f00 2cbe
00000090: 3c22 593e d7a0 36bd 766b 363d 6ae5 9cbd
000000a0: e1d1 913d 4294 94bd d556 bf3d f4ad 663d
000000b0: 9e1a 0bbe 05c1 b73d c9a6 00be 4d0f 063e
000000c0: 4297 c9bd 9669 50be 5428 6cbe 5764 72bd
000000d0: 137f 093e 347d f6bc 47e9 453e 7c2e 7d3e
000000e0: 723c ea3d d231 7abe b0fc 033d c19c 093e
000000f0: 43cb 0fbe 6bf5 f23d 0ab5 063e 4ac0 1e3e
00000100: f43a 2bbd fce2 f83a 1f61 c3bc 19e9 a33d
00000110: e483 4fbe 542c dbbd d424 943d 49d6 8abd
00000120: 4c92 76bc 0f94 c73d b9f7 fb3d 629f 903d
00000130: dd2a 833d 369f 863e 9188 60be 05d1 a13d
00000140: 60c6 20be c2b7 05be 6704 173a a44a 1abe
00000150: 6881 9e3d 761f 8fbd e22a 82be 729b 0d3e
00000160: d15e 3dbe 1ab9 6ebc 9b81 6b3d 2895 73be
00000170: 400e 023e 4176 8fbc 3a18 a0be fd71 97bd
00000180: 8a63 99bd f48f 1b3e c59c d9bc 3eb8 4ebe
00000190: 05ef 893e b342 343d 9545 273e 3a8e 8c3c
000001a0: bb97 82be 10cb 74be 33f0 923e 477a 78be
000001b0: 4073 c93d 367c 0b3e 324a 353e 6cd8 823e
000001c0: cb2a 2b3e 164f 75bd 5036 063d e06b 703e
000001d0: 5c65 8a3e 1e6d 283e 09d3 0fbe e582 15be
000001e0: 7798 4cbe 82d1 09bd b829 bf3e dcd7 8bbd
000001f0: 412b 1d3e 5f8e b7bc fc04 3bbe e7ba 0fbe
00000200: b974 9c3d cc76 7e3e 60d7 3abe d98b 1c3e
00000210: 02a0 673e 1472 fe3d 0c37 1f3e ce54 e23d
00000220: 3b2d 723e c42d 133e 6d8f 11be f280 33be
00000230: 33f3 3bbe b63a 5cbd 4288 a0bd fb3c 1e3d
00000240: fcab 4dbc 36a8 bb3c e68e 923d 27a2 2d3d
00000250: 283e 193e dd40 ed3d 34f2 49bc 9fbf 283d
00000260: f942 d3bb f106 8b3d 0200 4cbe 8b1d 26be
00000270: 1121 32be 8055 083d 328d 143e 1c12 fcbd
00000280: a8bb 30be 1731 f43c 1eca b03d a661 d93d
00000290: ddfe b7bd 2406 083e de61 4ebd 1378 943b
000002a0: 938c 10be 7671 94bd a982 b4bd 1557 a0bc
000002b0: ebed 9bbb 4187 623d e6da 0e3d 7856 803e
000002c0: a63c 323e 36f1 78bd 1ae9 07be dbee b73d
000002d0: 23fd b8bd 74bc a7bd 186c 61be 6de3 9dbc
000002e0: 9eee 19be be95 5c3e 964f 46be 3e81 23be
000002f0: 8da2 f83c 6d82 84bd 960b b63d f723 3c3d
00000300: e520 85bd 229a b3bd 01e7 e73d 7382 4cbe
00000310: ab53 b23d 47a1 973d 2da0 2c3e 6c7f ecbd
00000320: 430e c03d d523 2bbd 1352 8e3d cf1a 7abd
00000330: aeef ba3c 1089 9b3d 8d53 11be f336 00bd
00000340: e144 783c 3951 96bc 42a0 973d fb58 b63d
00000350: cee4 03be 2e60 363e a022 5b3e 28d0 803e
00000360: 6594 d93d 5845 69be 7d70 c4bd 460c 0c3e
00000370: 9b01 32be 589b 6f3e d7ad 2abe 6202 4ebd
00000380: 3579 553e ea4a 38be f3e9 893d d7cf 2b3e
00000390: debd 013e 18c6 223e 1b20 90bc 433c 20be
000003a0: 5451 0b3e fc3f a3bd bd3d b5bd 4a68 be3d
000003b0: 314d 22be 4896 153e a663 483e c0b0 eabd
000003c0: 6842 58bd b334 a93d 30f7 783e 4b82 aabc
000003d0: 1d32 3ebe fc6b 57bc a6c1 62be 93c4 f5bd
000003e0: 2db9 9ebd 8f3e 383e f129 813e 4b5b 00be
000003f0: 2870 843d 24bc 853d c415 8abd 035c 1cbe

fc.bias f4 [10]
0.008397002 0.01605013 0.041769065 0.1261397 0.02160582 0.08933941 -0.22677802 0.113219075
0.0870586 -0.07740588
00000000: 9493 093c 907b 833c 0a16 2b3d c42a 013e
00000010: b0fe b03c 95f7 b63d 7f38 68be 67df e73d
00000020: c74b b23d f986 9ebd
