saved_models/FADA-few-shot-retraining/mnist/classifier_mnist_19.pt (torch_old, 3144 bytes, 2 tensors)

fc.weight f4 [10, 64]
00000000: 1e9c 263e bcad cebd f241 39be f9a0 773e
00000010: 7d9f 83be dcfe 173e 0f82 15bd e4d5 5b3e
00000020: 9302 263e 5a48 efbc aa44 1abe b55e 0d3d
00000030: 7517 89bd bc27 edbd 0d7b 853d 077f ee3d
00000040: a466 8c3d d328 9bbc 7bc3 bb3d ce62 ec3d
00000050: 98da 38bd 6796 24be 64fd 1b3d 77b3 27be
00000060: 8693 19be 6229 4b3e 1f32 a23c 2413 ce3d
00000070: 2390 1dbe b3d1 9fbb 1cf6 9b3d 2293 a03d
00000080: 2b17 403e d242 22be f344 42be db04 2dbe
00000090: a41b 4e3e f470 9abd 4486 d53c fcc8 bdbd
000000a0: e4d7 433d 991f e6bd da48 cf3d 4bba 9b3d
000000b0: 8a1a 1fbe eca1 f93d 187c 0abe a889 353e
000000c0: 68f0 dfbd 54f9 39be 87e8 5cbe 9c89 8fbd
000000d0: bf11 e93d af3e 32bd 73a1 583e 8a9f 7a3e
000000e0: d96e 0b3e c3e0 8fbe 6bcb e63c d8ba 163e
000000f0: 217e 1ebe da89 083e fd6a 163e b74b 2c3e
00000100: f215 c7bd 6549 e83b 09f6 fd3c 9b8d 9c3d
00000110: 67bb 3fbe 9370 2abe 5885 ec3d 7a0b 87bd
00000120: 0d30 2abd 940e 9f3d 4e25 003e abb6 273d
00000130: 6475 383d 4ac0 703e a2f9 57be 6d46 ed3d
00000140: 9774 48be b491 e6bd 6307 39bc 9e99 16be
00000150: fbd1 063e 8a1e bcbd 38e3 6bbe 8732 083e
00000160: f225 f9bd 4512 c13c d9c5 253d 9710 3bbe
00000170: b440 0d3e 5156 12bd c959 93be efef e5bd
00000180: 4544 99bd 09cb 123e f6d1 e4bb 0190 25be
00000190: 8bd6 853e a44c 853c 31ca 223e ace6 6c3d
000001a0: d16c 4cbe 9200 65be e174 8f3e fe90 4cbe
000001b0: 91ce 273e f947 9f3d 86db 323e 9c55 673e
000001c0: b538 5c3e 0d36 edbd d319 053d a782 573e
000001d0: f0bf 843e ab1e 103e 30de 3cbe 6b98 2dbe
000001e0: 203c 46be e319 92bc 43ba b03e 5ae2 f6bd
000001f0: 62d8 583e 3458 32bd 0e54 6fbe 1611 16be
00000200: e840 c63d 0a32 853e 57e6 6bbe 0cc4 583e
00000210: 5d50 8a3e 0d03 333e 1822 223e afff 033e
00000220: e880 8d3e 9666 283e 148b 25be 8c22 60be
00000230: 67a2 5dbe 0245 23bd 53e2 98bd 94f1 5dbd
00000240: 21ec 8e3c bbee e23b 96cf d33d cdab 933d
00000250: 35cd 1c3e e6a8 1f3e 6dbd 0b3c ceb7 0c3d
00000260: 8296 60bc c607 9e3d 23a0 69be e1ca 0fbe
00000270: 2bcf 52be 8216 6f3d b159 043e 7d45 f9bd
00000280: cf3e f4bd ded5 72bb 0509 b63d fd6e f73d
00000290: bc11 debd e2c4 3e3e 205c e5bd a66c f2bc
000002a0: 611a 3dbe 313e b6bd cc17 fcbd 98ba 58bb
000002b0: bad3 5ebd 99d5 bf3d c72e 923d 78d2 9d3e
000002c0: f4fa 313e 7448 41bd 4a2a 14be 8a54 c23d
000002d0: 16b6 10be 175a e5bd 1ce8 5cbe b38a 8cbb
000002e0: 69b1 20be 5ee0 623e c24e 43be c559 1dbe
000002f0: ab25 d63c 1758 93bb 9492 0d3e dbd2 933d
00000300: cb2c 6cbd fa31 bebd f45b fe3d 3d5e 3cbe
00000310: b491 c03d b20e 6a3d a0c0 223e 2f5d d9bd
00000320: 20a9 913d 8a69 8abd b0a5 8a3d bbb9 60bd
00000330: 5785 b73c 64dd 6b3d 1707 09be 8721 c0bc
00000340: d113 bf3c 0c84 6ebc e6e3 8b3d 34cb c33d
00000350: ef49 0abe 705b 313e fd55 5e3e 9afa 7a3e
00000360: 5fe2 d23d 638a 49be d931 b6bd 2122 0d3e
00000370: db1c 2abe 0f22 653e 8633 0ebe ff20 2fbd
00000380: 3ce4 403e 5ddb 2ebe 9b18 2d3d fb00 283e
00000390: fa19 103e 06d3 e83d d37c eabc 0bc4 1bbe
000003a0: e928 283e fcf4 95bd 27b1 98bd 1e8d cc3d
000003b0: f55f 14be 85ba 063e 374a 0f3e c36e e3bd
000003c0: 6865 77bd 00c7 bd3d e5a3 723e 5f9a d0bc
000003d0: b668 3abe 7bb0 c6bb f86a 5abe 2434 e5bd
000003e0: 1de3 60bd ed75 1c3e ea25 763e 4c56 fcbd
000003f0: 5f02 3f3d a8b0 e53c 13df 88bd 350e 02be
0.16270491 -0.10091731 -0.18091562 0.241825 -0.25707617 0.14843315 -0.036500987 0.21468312
0.1621192 -0.029209305 -0.15065256 0.034514148 -0.06693927 -0.11579844 0.06517611 0.11645322
0.06855515 -0.018940365 0.09168144 0.11542283 -0.045130342 -0.16072999 0.03808345 -0.16377054
-0.14997682 0.19840005 0.01979929 0.100622445 -0.15387015 -0.004877293 0.07615301 0.07840563
0.18758838 -0.15845802 -0.18971615 -0.16896383 0.20127732 -0.07541075 0.026065 -0.0926685
0.04781331 -0.112364955 0.10121317 0.07603892 -0.15537468 0.12189087 -0.135239 0.17728293
-0.10934526 -0.18161517 -0.21573077 -0.07008669 0.11380338 -0.04351681 0.21155338 0.24474922
0.13616504 -0.28101167 0.02817317 0.14719713 -0.15477802 0.13333836 0.1468925 0.16825758
-0.097209826 0.0070888274 0.031001108 0.076441966 -0.18723832 -0.16644506 0.11548871 -0.06593986
-0.04154973 0.077664524 0.1251423 0.04094569 0.045033827 0.23510852 -0.21091321 0.11585698
-0.19575725 -0.112582594 -0.011293265 -0.14707038 0.13166039 -0.09185512 -0.23035896 0.13300525
-0.121654406 0.023568282 0.040471885 -0.18268047 0.13794214 -0.03572685 -0.28779438 -0.11227404
-0.074837245 0.14335264 -0.006983037 -0.16168214 0.26140246 0.016271897 0.15897442 0.057837173
-0.19963385 -0.22363499 0.2801886 -0.19977185 0.16387393 0.077773996 0.17466554 0.22591251
0.21506007 -0.11582575 0.03249533 0.21045934 0.25927687 0.14074199 -0.18444133 -0.16952674
-0.19358873 -0.01783461 0.34517106 -0.12054892 0.21176293 -0.04354115 -0.23371908 -0.14654955
0.09680349 0.2601474 -0.23037086 0.21168536 0.27014437 0.17481633 0.15833318 0.12890504
0.2763741 0.16445383 -0.16166335 -0.21888179 -0.21643983 -0.039860733 -0.07465043 -0.054185465
0.01744658 0.0069254315 0.10342328 0.07210503 0.15312655 0.15591773 0.008529049 0.034354977
-0.013707759 0.077163264 -0.22814994 -0.14042236 -0.20586841 0.058371074 0.1292484 -0.12171457
-0.11926042 -0.0037053744 0.08888439 0.12081716 -0.10843226 0.18629792 -0.11199212 -0.029592823
-0.18467094 -0.08898581 -0.123092264 -0.0033070203 -0.054401137 0.093669124 0.07137828 0.30824637
0.17380887 -0.047188237 -0.14469257 0.09488781 -0.1413196 -0.11198824 -0.21572918 -0.004288995
-0.15692677 0.22155902 -0.19073012 -0.15366276 0.026141008 -0.004496585 0.13825446 0.07217952
-0.057659905 -0.09286876 0.124198824 -0.18395324 0.09402791 0.05714292 0.15893793 -0.106134765
0.07112336 -0.06758411 0.06769884 -0.054864626 0.022402449 0.05758418 -0.13381611 -0.023453487
0.023324879 -0.01455785 0.068305776 0.09560242 -0.13504766 0.17320037 0.2171249 0.2450966
0.10297083 -0.19681697 -0.088962264 0.1378255 -0.1661257 0.22376274 -0.13886842 -0.042756077
0.18837065 -0.17075868 0.042259794 0.16406624 0.1407241 0.113683745 -0.028623974 -0.15211503
0.16421856 -0.07322118 -0.07455664 0.099878535 -0.1448973 0.13157089 0.13993154 -0.111051105
-0.060399443 0.09266472 0.23695333 -0.025464235 -0.18204007 -0.0060635186 -0.21329868 -0.11191586
-0.054904092 0.1527936 0.240379 -0.12321147 0.04663312 0.028038338 -0.06683173 -0.12700732

fc.bias f4 [10]
00000000: fa6a 123d 625e e1bb 172e bf3d ca2d da3d
00000010: c929 ae3c b043 b23d 3616 44be f802 2a3d
00000020: 1432 893d e90b 93bd
0.035746552 -0.0068777064 0.09334963 0.10653265 0.02126016 0.087043166 -0.19149098 0.041506737
0.06699005 -0.07180006
