saved_models/FADA-few-shot-retraining/mnist/classifier_mnist_13.pt (torch_old, 3140 bytes, 2 tensors)

fc.weight f4 [10, 64]
00000000: 3e87 193e 5494 c8bd 3a16 41be b8af 823e
00000010: 5700 91be 7880 1f3e 289f 83bd c20e 6f3e
00000020: 8793 143e e6d0 b2bc 9b07 23be c2a0 063d
00000030: 56f9 a0bd 2d62 0cbe a501 753d cdf2 0f3e
00000040: 8922 c13d 9894 2abd 79b6 de3d 8f6d 023e
00000050: 7497 dbbc 02ea 0dbe 2700 2c3d a8da 30be
00000060: fd90 14be 6da0 5b3e 9f5b 4c3b 7441 d13d
00000070: 21e3 21be dee0 6cbc ad34 ed3d a226 913d
00000080: 6228 4a3e 5223 1cbe ca4f 5fbe e198 18be
00000090: b26d 453e bb87 9cbd bc5b c63c 6a8a cebd
000000a0: 02d1 823d 0604 bcbd 6d58 913d 3923 b23d
000000b0: 4e40 2ebe 0e1c 073e 09e3 29be 4a4f 303e
000000c0: ed3d 0fbe c057 3cbe 2b9f 68be f798 adbd
000000d0: 95b6 e63d 1701 38bd d235 663e 8255 8b3e
000000e0: 9157 253e 4c7e 8bbe 93c8 1f3c 5a7d 223e
000000f0: b7c0 39be 0c65 133e 32a8 2d3e 0258 333e
00000100: 6019 d9bd 3745 8a3c 47a6 86bc 5494 b93d
00000110: 2549 41be 7231 25be 5949 053e 077b ccbd
00000120: ddfd dcbc bd15 b93d 4b46 193e 6c68 d93c
00000130: 832c 143d 0b88 253e 6638 34be 1f2c c53d
00000140: 011f 65be b093 e1bd ecbb 843b c6ab 2abe
00000150: 47b5 f63d f76f c7bd 42ff 6bbe c3c0 d63d
00000160: 2a84 ecbd b464 173d 8d72 993b 0805 5ebe
00000170: 885c 0e3e 1e01 1dbc 03da 8dbe 5229 ebbd
00000180: 6e8d 8fbd 4750 0d3e 4b65 0d3b fe7f 14be
00000190: 52b8 843e 1d91 ee3c ee87 323e 8477 a13d
000001a0: ecc8 53be 092e 60be ed33 783e 573e 58be
000001b0: 5243 1c3e eb5c dd3d b15e 033e 0639 683e
000001c0: 7305 3e3e df69 febd 3154 363c 8232 433e
000001d0: 1c3c 863e 8528 e83d 07f9 42be f6a9 1cbe
000001e0: 00f4 51be e15a dd3c 2413 a73e a9be e0bd
000001f0: e21d 2e3e 547f 82bc f428 40be 37ba b6bd
00000200: 2dd4 cb3d c699 843e 32d8 4abe e68c 293e
00000210: d56a 7e3e 8a07 133e 8fc6 f93d ff93 023e
00000220: a4fd 803e d7c1 153e e0d7 21be 71ec 3dbe
00000230: 52fc 3ebe f60b 1cbd 92a6 57bd 5a33 ac3c
00000240: 6d7e 163c 43cf 3d3c f90c c13d bdae 663d
00000250: c983 033e 3c1c 053e c0ff 8038 1755 543d
00000260: 5edd 12bd 7d6e 853d a0b4 53be fb99 17be
00000270: 0ba3 43be 1114 893c ef8b 1f3e ca8c b3bd
00000280: 31be 33be 0652 ee3c 8c9e a13d 809b c53d
00000290: 213b 0abe 81dd 313e 4459 99bd 2dd0 cdba
000002a0: fc5a 1bbe 0243 4fbd 1481 c6bd 7e12 a9bb
000002b0: c0b0 b0bc cbdf 963d c34a 253d 1b18 863e
000002c0: 0b11 253e bb25 82bc 494c fdbd 1e9d 9d3d
000002d0: 9561 eebd c770 99bd ef45 33be 5f57 f43b
000002e0: bb57 0ebe 2b2e 593e 2312 4cbe fe79 f2bd
000002f0: f1be a03c 5cda 34bd edba d53d dcab 773d
00000300: 51de babd ecc8 bdbd 8985 0d3e f761 50be
00000310: 81d6 c13d 34f6 243d 9b2c 3e3e a519 0dbe
00000320: 28ea 813d 6fb5 80bd 35c0 bd3d db97 6dbd
00000330: 6f24 ad3c f264 783d 31b5 12be 0c59 1ebd
00000340: 337e 43b9 2c97 dfbc 69f6 993d 031d b33d
00000350: 0c62 0dbe e185 473e 296a 583e 8c82 873e
00000360: c35a ec3d 4b09 61be bd49 cabd 07e7 0c3e
00000370: 8d91 31be cd44 793e 91eb 31be 0cb9 81bd
00000380: ee07 5e3e 2eb1 3cbe 2aac 8f3d f20d 313e
00000390: e9f1 183e 7abc 163e 0220 55bc c7c1 28be
000003a0: 8570 153e f825 bbbd 21e6 adbd c7ce c13d
000003b0: a080 1ebe c1f6 243e 2f72 2f3e 8e35 eabd
000003c0: 369b 99bd 1c31 a03d f101 853e a4e1 fbbc
000003d0: 7e69 3abe 506d adbc f23e 77be d7aa 08be
000003e0: f733 afbd 09ac 3c3e 1694 8b3e 700a 08be
000003f0: 556b 933d 1196 813d 3734 9dbd dfdc 10be
0.14992997 -0.09793916 -0.18856135 0.25524688 -0.28320572 0.1557635 -0.06426841 0.23345473
0.14509402 -0.021828126 -0.1592087 0.032868154 -0.07860057 -0.13709326 0.05981602 0.14057465
0.09430415 -0.041645616 0.10874648 0.12737106 -0.026805617 -0.13858798 0.041992333 -0.1727091
-0.14508434 0.21447916 0.003118254 0.10217562 -0.15809299 -0.014457909 0.11582313 0.07087447
0.19741967 -0.15247849 -0.21807781 -0.14902069 0.19280127 -0.07643076 0.024213664 -0.10084994
0.06387521 -0.09180455 0.07096944 0.086981244 -0.17016718 0.13194296 -0.16590513 0.17217746
-0.13988467 -0.18392849 -0.22716968 -0.08476441 0.112652935 -0.044922914 0.22481468 0.27213675
0.16146685 -0.27244794 0.00975241 0.1586813 -0.18139921 0.14394015 0.16958693 0.17514041
-0.10600543 0.016878707 -0.01643671 0.090614945 -0.18875559 -0.16132143 0.13016261 -0.09984403
-0.02697652 0.090373494 0.14968221 0.02653905 0.036175262 0.16165178 -0.1759964 0.09627556
-0.22375108 -0.11014497 0.0040507223 -0.16667089 0.12046295 -0.097381525 -0.23046592 0.10485985
-0.11548646 0.036961272 0.004682845 -0.21681607 0.13902485 -0.009582786 -0.27705392 -0.114824906
-0.070093974 0.13800155 0.0021575268 -0.1450195 0.25921875 0.02912193 0.17434666 0.07884124
-0.20682114 -0.21892561 0.24238558 -0.21117531 0.15260056 0.10808738 0.1282909 0.22678003
0.18556766 -0.12422537 0.011128471 0.19062236 0.26217735 0.113358535 -0.19040309 -0.1529921
-0.20503235 0.027020874 0.3263179 -0.109738655 0.17003587 -0.015929855 -0.18765622 -0.089222364
0.09952579 0.2589857 -0.19809034 0.16557655 0.2484544 0.14358345 0.12196075 0.12751769
0.25193512 0.14624725 -0.15805006 -0.18547226 -0.1865094 -0.038097344 -0.05264909 0.02102058
0.009185416 0.01158506 0.094263025 0.056318987 0.12843241 0.12999052 6.151153e-05 0.05183896
-0.035855643 0.065152146 -0.20674372 -0.14804833 -0.19105165 0.016733201 0.15580724 -0.08767088
-0.17553021 0.029091846 0.078915685 0.096488 -0.13499118 0.17369653 -0.07487729 -0.00157023
-0.15171427 -0.050601013 -0.096925884 -0.005159675 -0.021568656 0.07366904 0.0403545 0.26190266
0.16119783 -0.015887132 -0.12368066 0.07695983 -0.11639706 -0.07492214 -0.17507146 0.0074567045
-0.13900654 0.21209018 -0.19928794 -0.118396744 0.019622298 -0.044153556 0.10436044 0.060466632
-0.09124435 -0.092668384 0.13820471 -0.2034987 0.094647415 0.04027386 0.18571703 -0.13779314
0.0634349 -0.06284606 0.09265176 -0.05800615 0.021135537 0.060643144 -0.14326932 -0.03865914
-0.00018643662 -0.027293764 0.07517702 0.08745768 -0.13806933 0.19484664 0.21134247 0.26466787
0.11540749 -0.21976201 -0.09877346 0.13760005 -0.1734068 0.24342652 -0.17375018 -0.06334123
0.21682712 -0.18426964 0.070152596 0.17290476 0.14936031 0.14720336 -0.01300812 -0.1648017
0.14593704 -0.09138101 -0.08491159 0.09463268 -0.15478754 0.16109754 0.17133401 -0.11435996
-0.07500307 0.07821867 0.25978044 -0.030747242 -0.18204305 -0.021170288 -0.24145105 -0.1334642
-0.085548334 0.18425001 0.27261418 -0.13285232 0.07198206 0.06327451 -0.07675975 -0.14146756

fc.bias f4 [10]
00000000: 4393 743d a128 96bc b7ea 5a3d 2f12 083e
00000010: 62a5 dc3c 495f 9a3d d776 48be 5f30 923d
00000020: 1163 583d 46d7 3ebd
0.059710752 -0.01832992 0.053446498 0.13288186 0.02693433 0.075377055 -0.19576584 0.07138132
0.052828852 -0.04659202
