saved_models/FADA-few-shot-retraining/mnist/classifier_mnist_4.pt (torch_old, 3144 bytes, 2 tensors)

fc.weight f4 [10, 64]
0	0x3e0fc1f6	0.14038834
1	0xbda2a5b7	-0.07941764
2	0xbe2eaf19	-0.17058982
3	0x3e8345cf	0.25639197
4	0xbe86e84c	-0.26349103
5	0x3e0f2e12	0.13982418
6	0xbd4a3a0f	-0.049371775
7	0x3e5e1767	0.21688615
8	0x3dff9956	0.124804184
9	0x3c389e91	0.011268274
10	0xbe012d78	-0.12615001
11	0x3c242c2a	0.010020295
12	0xbd9c9fb0	-0.076476455
13	0xbdeaa3d4	-0.11457029
14	0x3d86ae8f	0.06576263
15	0x3e064eae	0.13115951
16	0x3d87847c	0.06617066
17	0xbb37276d	-0.0027947084
18	0x3dd3152e	0.10306774
19	0x3dc4cda9	0.09609539
20	0x3cafd3b7	0.021463258
21	0xbdd1a825	-0.10237149
22	0x3cf55a36	0.029950242
23	0xbe38c70b	-0.18044679
24	0xbe113a2b	-0.14182346
25	0x3e4ff9fc	0.20310205
26	0xbc61de2e	-0.013785882
27	0x3da737d0	0.08164942
28	0xbe1f9fa3	-0.1558824
29	0xbc9c18bb	-0.019054761
30	0x3d9ff8cb	0.07811125
31	0x3cfc61f0	0.030808419
32	0x3e2b14dc	0.16707176
33	0xbe08f86f	-0.1337602
34	0xbe3eda55	-0.18637975
35	0xbe2aa393	-0.16663961
36	0x3e2f544b	0.17121999
37	0xbd0724c6	-0.032994054
38	0x3cc52765	0.024066636
39	0xbdaaa866	-0.08332901
40	0x3d916a2f	0.07100331
41	0xbdb7c8af	-0.08973824
42	0x3da123b1	0.07868136
43	0x3d54d500	0.051960945
44	0xbe19670f	-0.1498072
45	0x3dc6439d	0.09680865
46	0xbe130f7f	-0.1436138
47	0x3e29ebe5	0.16593893
48	0xbddf6533	-0.10907974
49	0xbe3cbfbf	-0.1843252
50	0xbe77cc43	-0.24199013
51	0xbd0e1975	-0.034692246
52	0x3e072329	0.13197006
53	0xbcd19b99	-0.02558689
54	0x3e4e5ea0	0.20153284
55	0x3e7ffc48	0.24998581
56	0x3dd5dd59	0.10442609
57	0xbe82b435	-0.25528112
58	0x3b97fb0b	0.004638081
59	0x3e19c326	0.1501585
60	0xbe3c776d	-0.18404932
61	0x3de0d5cd	0.10978279
62	0x3e2e6215	0.17029603
63	0x3e265cbb	0.16246311
64	0xbdab5bee	-0.083671436
65	0x3cf5e42e	0.030016031
66	0x3a97de89	0.0011586706
67	0x3da25a4d	0.0792738
68	0xbe2674b5	-0.16255458
69	0xbe2534ed	-0.16133471
70	0x3de066f4	0.10957137
71	0xbd97e71b	-0.07417127
72	0xbd1db866	-0.038505934
73	0x3da39312	0.07987036
74	0x3e21e528	0.15810072
75	0x3cafefbd	0.02147662
76	0x3d707f9f	0.05871546
77	0x3e4cb080	0.19989204
78	0xbe2ee262	-0.17078546
79	0x3dcc3efb	0.0997295
80	0xbe47a506	-0.19496545
81	0xbdac4dfa	-0.0841331
82	0xbce90a11	-0.028447183
83	0xbe11eb87	-0.14250003
84	0x3dd5077d	0.10401819
85	0xbdeee39d	-0.116645075
86	0xbe63bfd5	-0.22241147
87	0x3e0348c1	0.12820722
88	0xbe03e014	-0.12878448
89	0x3c244b3c	0.010027703
90	0x3cff41b4	0.03115926
91	0xbe4d9775	-0.20077308
92	0x3e0c31a3	0.1369081
93	0xbd0b1572	-0.033956
94	0xbe8ae720	-0.2712946
95	0xbdab423b	-0.08362242
96	0xbd9d4160	-0.07678485
97	0x3e169eba	0.14708987
98	0x3c9a965e	0.018870529
99	0xbe1f71ac	-0.15570706
100	0x3e76ff05	0.2412072
101	0x3d19ec5a	0.037578918
102	0x3e22d0b0	0.1589992
103	0x3d5ada83	0.053431045
104	0xbe398e51	-0.18120696
105	0xbe5fee3c	-0.21868223
106	0x3e74e881	0.23916818
107	0xbe459b16	-0.19297442
108	0x3e2fd624	0.17171532
109	0x3dabfea0	0.08398175
110	0x3e1125d7	0.14174591
111	0x3e571814	0.21005279
112	0x3e501ca0	0.2032342
113	0xbdd7a44d	-0.10529385
114	0x3d0699c2	0.03286148
115	0x3e3f4542	0.18678764
116	0x3e78c7e3	0.24295
117	0x3e0b890c	0.13626498
118	0xbe21ec7f	-0.15812872
119	0xbe1903a0	-0.14942789
120	0xbe3f98ac	-0.18710583
121	0x3d02efe4	0.03196706
122	0x3ea04a38	0.31306624
123	0xbdde24a3	-0.10846832
124	0x3e2a6ce4	0.16643101
125	0xbd58547d	-0.05281495
126	0xbe457c2e	-0.19285652
127	0xbe07778a	-0.13229194
128	0x3de28443	0.11060383
129	0x3e73bf5e	0.2380347
130	0xbe4fe685	-0.2030278
131	0x3e31aaf2	0.17350367
132	0x3e782e6e	0.24236462
133	0x3e20db11	0.15708567
134	0x3e14c1ad	0.14527006
135	0x3e01988b	0.12655847
136	0x3e802aca	0.25032645
137	0x3e187e97	0.1489204
138	0xbe1a7b40	-0.15086079
139	0xbe492253	-0.19642
140	0xbe41701b	-0.18890421
141	0xbd679b51	-0.056544606
142	0xbd067374	-0.03282495
143	0x3b485119	0.0030565916
144	0x3bf21766	0.007388043
145	0x3cdc3b63	0.026883787
146	0x3da53e4c	0.08068523
147	0x3d924944	0.071428806
148	0x3e0a8a37	0.13529287
149	0x3e01fe5d	0.12694688
150	0x3c5dcfa6	0.013538277
151	0x3d158d89	0.03651193
152	0xbc87fe69	-0.016600804
153	0x3d6bcb55	0.05756696
154	0xbe56ee06	-0.20989236
155	0xbdfe0c40	-0.1240468
156	0xbe4d5ef8	-0.20055759
157	0x3d0932ad	0.033495594
158	0x3e2f364b	0.17110555
159	0xbdccea88	-0.10005671
160	0xbe1a5f55	-0.15075429
161	0x3b924b44	0.004464539
162	0x3dc10450	0.09424651
163	0x3df053f4	0.11734763
164	0xbde35dd8	-0.11101884
165	0x3e29e10d	0.16589756
166	0xbda038b9	-0.07823319
167	0xbcb0944b	-0.021555087
168	0xbe1b798d	-0.15183087
169	0xbda46989	-0.08027942
170	0xbdf2f44b	-0.118630014
171	0x3c9071d0	0.017632395
172	0xbccb2703	-0.024798876
173	0x3d742718	0.059607595
174	0x3cb8cd91	0.02255896
175	0x3e89040b	0.26760897
176	0x3e29011f	0.16504334
177	0xbd544b39	-0.05182955
178	0xbe0b3a91	-0.1359656
179	0x3d7add0a	0.061245956
180	0xbe00e459	-0.12587108
181	0xbde27269	-0.11056978
182	0xbe43702a	-0.19085756
183	0xbb28e9ce	-0.0025774124
184	0xbe0b6696	-0.13613352
185	0x3e555374	0.20832616
186	0xbe4f3bfb	-0.20237724
187	0xbe132839	-0.14370812
188	0x3ca6c03b	0.020355335
189	0xbd3e627c	-0.04648064
190	0x3df1bc7e	0.1180353
191	0x3d4b5cbb	0.04964898
192	0xbdb6bb73	-0.08922472
193	0xbdb7fc62	-0.08983685
194	0x3e197a6d	0.14988108
195	0xbe5af056	-0.21380743
196	0x3ddd8b42	0.10817577
197	0x3d157c8d	0.036495734
198	0x3e230486	0.15919694
199	0xbe0c231a	-0.13685265
200	0x3d8080a7	0.062745385
201	0xbda5a1dd	-0.080875136
202	0x3da8733b	0.082251035
203	0xbd499fc1	-0.04922462
204	0x3d0f6ce8	0.03501597
205	0x3d462e94	0.048384264
206	0xbe1107cc	-0.1416313
207	0xbd7aaeb1	-0.061201755
208	0x3c1e61e1	0.009666891
209	0xbcc42384	-0.023942716
210	0x3d8c90d8	0.06863564
211	0x3db4e72a	0.088331535
212	0xbe1c6802	-0.15274051
213	0x3e37145f	0.17878865
214	0x3e50c98f	0.20389389
215	0x3e866e64	0.26256096
216	0x3e29aa7c	0.16568941
217	0xbe69b8df	-0.22824429
218	0xbdc38bb7	-0.09548133
219	0x3e167fdd	0.14697213
220	0xbe32817e	-0.1743221
221	0x3e6efb1b	0.23337977
222	0xbe2c0e51	-0.16802336
223	0xbd4501f5	-0.04809757
224	0x3e5ab896	0.21359476
225	0xbe3c3cb4	-0.18382531
226	0x3d9fb063	0.07797315
227	0x3e3e9394	0.18610984
228	0x3e1adb49	0.15122713
229	0x3e033f24	0.12817055
230	0xbc2fcacd	-0.010729504
231	0xbe227430	-0.15864635
232	0x3e261584	0.16219145
233	0xbdbadc82	-0.0912409
234	0xbdb121b2	-0.08649005
235	0x3dc4eace	0.09615098
236	0xbe1de4dd	-0.15419336
237	0x3e0d8a92	0.13822392
238	0x3e2951d1	0.16535117
239	0xbe11433b	-0.14185803
240	0xbd9649f8	-0.07338327
241	0x3d9c83e7	0.07642346
242	0x3e7ca839	0.24673547
243	0xbd04a220	-0.032381177
244	0xbe3c230c	-0.18372744
245	0xbc53cb09	-0.012926825
246	0xbe696dbd	-0.22795768
247	0xbe0dddf1	-0.13854195
248	0xbda79a4e	-0.08183728
249	0x3e29b9ae	0.16574737
250	0x3e855964	0.26044762
251	0xbe12ad16	-0.1432384
252	0x3d3dc8f2	0.046334215
253	0x3cfd2781	0.030902626
254	0xbd861b5f	-0.06548189
255	0xbe158422	-0.14601186

fc.bias f4 [10]
0	0x3c80bbf8	0.01571463
1	0xbd142d75	-0.036176164
2	0x3d49b636	0.049246036
3	0x3dfb3c3d	0.12267349
4	0x3cb99057	0.022651834
5	0x3dbf7377	0.09348195
6	0xbe4ac92f	-0.19803308
7	0x3de7ea1a	0.11323948
8	0x3d96376d	0.073347904
9	0xbd3976e3	-0.045279395
