saved_models/FADA-few-shot-retraining/mnist/classifier_mnist_12.pt (torch_old, 3144 bytes, 2 tensors)

fc.weight f4 [10, 64]
0	0x3e19b4ea	0.1501042
1	0xbdc9c0a4	-0.098511964
2	0xbe2b8ed9	-0.16753711
3	0x3e7c4b28	0.24638045
4	0xbe84b514	-0.25919402
5	0x3e0bfe8d	0.13671322
6	0xbd2f8c60	-0.04285848
7	0x3e65a332	0.22425535
8	0x3e0e97fe	0.13925168
9	0xbca8e6dc	-0.020617895
10	0xbe1060be	-0.14099404
11	0x3d3944a7	0.045231488
12	0xbd9cd23f	-0.07657289
13	0xbde4f70b	-0.11179932
14	0x3d4cbea0	0.04998648
15	0x3e05ea22	0.13077596
16	0x3d815663	0.06315305
17	0xbcbd12be	-0.023080226
18	0x3db0be01	0.0862999
19	0x3dde59b7	0.108569555
20	0xbcb7b7b6	-0.022426467
21	0xbe00c580	-0.1257534
22	0x3c10b42f	0.008832022
23	0xbe20c5a8	-0.157004
24	0xbe1f87b5	-0.15579112
25	0x3e4e8a71	0.20169999
26	0x3ce46749	0.027881281
27	0x3daa8f68	0.08328134
28	0xbe2243a7	-0.1584612
29	0xbc3bfafc	-0.011473414
30	0x3d9f9c9a	0.07793541
31	0x3da4fc5f	0.080559485
32	0x3e3d2c7d	0.18474002
33	0xbe192a6f	-0.14957593
34	0xbe4072b1	-0.18793751
35	0xbe388009	-0.18017592
36	0x3e4d7d47	0.20067321
37	0xbd889814	-0.066696316
38	0x3cd57fd0	0.026061922
39	0xbdcb9f75	-0.099425234
40	0x3d1d6d41	0.03843427
41	0xbdcd446f	-0.10022818
42	0x3dd1a621	0.10236765
43	0x3d850d12	0.064966336
44	0xbe127839	-0.14303674
45	0x3deebfb6	0.1165766
46	0xbe00d2a1	-0.12580349
47	0x3e391e69	0.18078007
48	0xbdd781f6	-0.10522835
49	0xbe3e1c60	-0.18565512
50	0xbe63dad8	-0.22251451
51	0xbd148086	-0.036255382
52	0x3dda4789	0.106581755
53	0xbd0ddb8b	-0.0346332
54	0x3e538789	0.20657171
55	0x3e7e510e	0.24835607
56	0x3e03265c	0.12807602
57	0xbe8a8087	-0.27051184
58	0x3d0fbfb8	0.035094947
59	0x3e1abe4a	0.15111652
60	0xbe12089a	-0.14261094
61	0x3df38775	0.11891071
62	0x3e107aae	0.14109299
63	0x3e241eec	0.16027421
64	0xbdb5bcc0	-0.08873892
65	0x3c89d378	0.016824469
66	0x3c5ac320	0.0133521855
67	0x3da4a62c	0.08039507
68	0xbe2eb8b0	-0.1706264
69	0xbe1007aa	-0.14065424
70	0x3dead8be	0.114671215
71	0xbd38f62a	-0.045156635
72	0xbcdf4da4	-0.027258702
73	0x3daa390c	0.08311662
74	0x3e12315e	0.14276645
75	0x3cf30ab1	0.029668184
76	0x3d54a106	0.051911376
77	0x3e49ad5c	0.19695038
78	0xbe384796	-0.17996058
79	0x3dd71dd3	0.105037354
80	0xbe500d4f	-0.20317577
81	0xbdbdcde0	-0.09267783
82	0xbbfc1692	-0.0076931203
83	0xbe23d82d	-0.16000433
84	0x3de64780	0.11244106
85	0xbdc239de	-0.094836935
86	0xbe6c36a9	-0.23067726
87	0x3df57f91	0.11987222
88	0xbe06ac0b	-0.13151567
89	0x3cc75e0f	0.024336843
90	0x3d04987a	0.032371975
91	0xbe51f789	-0.20504583
92	0x3e0cf683	0.13765912
93	0xbcc7722e	-0.024346437
94	0xbe90e786	-0.28301638
95	0xbddd0273	-0.10791483
96	0xbd9fd234	-0.07803765
97	0x3e143651	0.14473845
98	0x3b3513a1	0.0027630108
99	0xbe23d8f5	-0.16000731
100	0x3e6ec7c7	0.23318397
101	0x3d0ef47d	0.03490113
102	0x3e247632	0.16060713
103	0x3d806f62	0.062712446
104	0xbe517ec0	-0.20458508
105	0xbe47b282	-0.19501689
106	0x3e60ac9f	0.2194085
107	0xbe57c451	-0.21070983
108	0x3e141c9e	0.14464042
109	0x3daf0db8	0.085475385
110	0x3e2594d4	0.16170055
111	0x3e5f9d2a	0.21837297
112	0x3e4153f2	0.18879679
113	0xbde17ff1	-0.11010731
114	0x3cc24e8b	0.023719093
115	0x3e4dec3a	0.20109645
116	0x3e83ee70	0.2576785
117	0x3e0b28a6	0.13589725
118	0xbe3b894b	-0.18314092
119	0xbe1c3016	-0.15252718
120	0xbe52c805	-0.20584114
121	0x3bbd3f9f	0.0057754065
122	0x3ea76a3b	0.32698235
123	0xbde4af41	-0.111662395
124	0x3e339ef6	0.17541108
125	0xbcccd236	-0.02500258
126	0xbe515a02	-0.20444492
127	0xbde4a970	-0.1116513
128	0x3e13320b	0.14374559
129	0x3e7ea9e0	0.2486949
130	0xbe55832d	-0.20850821
131	0x3e396db2	0.18108252
132	0x3e832262	0.2561217
133	0x3e38bed3	0.18041544
134	0x3e07509b	0.13214342
135	0x3e2ab4b8	0.16670501
136	0x3e831c21	0.25607398
137	0x3de29350	0.11063254
138	0xbe16d6c4	-0.14730364
139	0xbe4b54fb	-0.19856636
140	0xbe3fb70b	-0.18722169
141	0xbd3d6e99	-0.046248052
142	0xbd2a64fe	-0.04160022
143	0x3c0911d6	0.008366069
144	0x3c144791	0.009050266
145	0x3d411b16	0.04714497
146	0x3d7351fb	0.059404355
147	0x3d467f94	0.04846151
148	0x3dd4fb81	0.10399533
149	0x3e00fe4b	0.12597005
150	0xbc2c59fc	-0.010519501
151	0x3c45845e	0.012055485
152	0xbd4329b9	-0.04764721
153	0x3d5946de	0.0530461
154	0xbe3dbeb8	-0.18529785
155	0xbe1b5ec7	-0.15172873
156	0xbe4af831	-0.1982124
157	0x3cf0490b	0.029331705
158	0x3de8cd1f	0.11367249
159	0xbdc2eb07	-0.09517484
160	0xbe244f14	-0.16045791
161	0x3c68c228	0.014206447
162	0x3da2ec98	0.07955283
163	0x3d927c95	0.071526684
164	0xbdbee6f5	-0.09321395
165	0x3e299977	0.16562448
166	0xbdba9044	-0.09109548
167	0xbcb66de8	-0.022269204
168	0xbe20ba0d	-0.15695973
169	0xbd6080c5	-0.054810304
170	0xbdb89b25	-0.090139665
171	0xbcacabfb	-0.0210781
172	0xbcf27ea2	-0.029601399
173	0x3d5f2298	0.05447635
174	0x3d3b68de	0.045754306
175	0x3e8e4d43	0.2779332
176	0x3e1c9301	0.15290453
177	0xbcb7f6bc	-0.02245652
178	0xbe0e5f29	-0.13903488
179	0x3db8e0cd	0.09027252
180	0xbdfe9db3	-0.124324225
181	0xbda25f0c	-0.07928285
182	0xbe41cc37	-0.18925558
183	0x3d1c86a7	0.038214352
184	0xbe107a0f	-0.14109062
185	0x3e30c327	0.17261945
186	0xbe45467b	-0.19265167
187	0xbe0841c5	-0.13306339
188	0xbba4b86f	-0.005026869
189	0xbc66f114	-0.014095563
190	0x3dfc0a5c	0.123066634
191	0x3da5c6d5	0.08094565
192	0xbdd66dcc	-0.10470161
193	0xbdc6b2c2	-0.09702064
194	0x3df7c28f	0.12097656
195	0xbe42079f	-0.1894822
196	0x3dbac9ba	0.091205075
197	0x3d50ce22	0.050977834
198	0x3e4b5b06	0.19858941
199	0xbe0dcec2	-0.13848403
200	0x3dbe226c	0.09283909
201	0xbd539b6b	-0.05166189
202	0x3d87c60b	0.066295706
203	0xbd99923a	-0.07498594
204	0x3ab98fff	0.0014157294
205	0x3d309d3b	0.043118697
206	0xbe1ede02	-0.15514377
207	0xbd195778	-0.037436932
208	0x3b4ed641	0.003156081
209	0xbce6e8a3	-0.028187102
210	0x3d8873d7	0.0666272
211	0x3dc08e02	0.09402086
212	0xbdfb9d8f	-0.12285911
213	0x3e489fc8	0.19592202
214	0x3e7752ea	0.24152723
215	0x3e8742cd	0.26418152
216	0x3e0bd6ba	0.1365613
217	0xbe4f006b	-0.20215003
218	0xbdc75eff	-0.09734916
219	0x3e1dd3a8	0.15412772
220	0xbe347300	-0.17621994
221	0x3e80b243	0.25136003
222	0xbe178e0c	-0.1480028
223	0xbdad97c2	-0.08476211
224	0x3e6c712f	0.23090051
225	0xbe47e9b9	-0.19522752
226	0x3d9799d1	0.07402385
227	0x3e3ea5f2	0.1861799
228	0x3e1376fe	0.1440086
229	0x3e17a4ba	0.14808932
230	0xbd11c571	-0.035588685
231	0xbe20e370	-0.1571176
232	0x3e2cad50	0.16862988
233	0xbdbc418c	-0.091921896
234	0xbd9b477f	-0.07581996
235	0x3dd06f03	0.10177424
236	0xbe3a2eb7	-0.18181883
237	0x3e1f4d7e	0.15556905
238	0x3e3906a5	0.18068941
239	0xbdce4c48	-0.10073143
240	0xbd69663c	-0.056982264
241	0x3d8d5c7c	0.069024056
242	0x3e91a82c	0.28448617
243	0xbd48fe37	-0.049070563
244	0xbe4f26d6	-0.20229658
245	0xbd3535ef	-0.04424089
246	0xbe84f6ed	-0.2596964
247	0xbe0e96f5	-0.13924773
248	0xbd9ed3ef	-0.07755267
249	0x3e37df73	0.17956333
250	0x3e867854	0.26263678
251	0xbe193417	-0.14961277
252	0x3da79623	0.08182933
253	0x3daf2308	0.085516036
254	0xbd9da3aa	-0.07697232
255	0xbe1665cd	-0.14687271

fc.bias f4 [10]
0	0x3d294e2f	0.041334327
1	0xbc9bbd56	-0.01901118
2	0x3d5e93d5	0.054340202
3	0x3e0aa513	0.13539533
4	0x3cd3db72	0.025861476
5	0x3da9e1d4	0.082950264
6	0xbe55529a	-0.20832291
7	0x3dc4275f	0.09577822
8	0x3d96175a	0.07328673
9	0xbd2ffd13	-0.04296596
