saved_models/FADA-few-shot-retraining/mnist/classifier_mnist_7.pt (torch_old, 3144 bytes, 2 tensors)

fc.weight f4 [10, 64]
0	0x3e09ad07	0.13444911
1	0xbdba2c6c	-0.09090504
2	0xbe194c31	-0.14970471
3	0x3e6ee4b2	0.23329428
4	0xbe6f9db4	-0.23400003
5	0x3e289b16	0.1646541
6	0xbd8a9426	-0.06766538
7	0x3e67cf53	0.22637682
8	0x3df9aead	0.1219152
9	0xbd272b8e	-0.04081302
10	0xbde1a930	-0.11018598
11	0x3aa2c209	0.0012417446
12	0xbd5ddbd1	-0.05416471
13	0xbdf331c9	-0.1187473
14	0x3db11f9c	0.08648607
15	0x3e1fdff2	0.15612772
16	0x3d852e5a	0.065029815
17	0x3cbbc24f	0.022919802
18	0x3d861283	0.065464996
19	0x3d9bbeee	0.07604776
20	0xbd5c1c10	-0.0537377
21	0xbe09c7ca	-0.1345512
22	0x3cf16802	0.02946854
23	0xbe0bdcf5	-0.13658507
24	0xbdda323a	-0.10654111
25	0x3e2c46dd	0.16823907
26	0x3d1edc67	0.03878441
27	0x3da48813	0.080337666
28	0xbe12e36c	-0.14344567
29	0xbcd7556d	-0.026285851
30	0x3da4857c	0.080332726
31	0x3da1611f	0.078798525
32	0x3e34e994	0.17667228
33	0xbe0274bc	-0.12739843
34	0xbe23ca86	-0.15995225
35	0xbe36e41d	-0.17860456
36	0x3e232651	0.15932585
37	0xbd0fee19	-0.035139177
38	0xbc057402	-0.008145334
39	0xbd58ad6e	-0.05289977
40	0x3dacbf5b	0.08434936
41	0xbd4dea69	-0.05027238
42	0x3d829df3	0.06377783
43	0x3d19d5cb	0.037557404
44	0xbe0282c9	-0.12745203
45	0x3d98f3ca	0.07468374
46	0xbde0199b	-0.10942384
47	0x3e0fddd4	0.14049464
48	0xbdb0fff5	-0.0864257
49	0xbe0a0a0c	-0.13480395
50	0xbe386c3d	-0.1801004
51	0xbd869ec3	-0.0657325
52	0x3d9c9329	0.07645256
53	0xbd227602	-0.039663322
54	0x3e4c3630	0.19942546
55	0x3e6af04a	0.22943226
56	0x3de048fd	0.109514214
57	0xbe7782b3	-0.24170952
58	0x3bc161a9	0.0059015346
59	0x3e1db822	0.15402272
60	0xbdfc396f	-0.12315642
61	0x3e105c74	0.14097768
62	0x3dfbaa96	0.12288396
63	0x3e1e4149	0.15454592
64	0xbda5fd5f	-0.08104967
65	0x3ca610d3	0.020271694
66	0x3d22edc5	0.039777536
67	0x3d84a826	0.06477384
68	0xbe2ea211	-0.17054011
69	0xbe03345a	-0.1281294
70	0x3dc8e303	0.09808924
71	0xbd7306db	-0.05933271
72	0xbcd80c1a	-0.026372958
73	0x3d90000f	0.07031261
74	0x3e0f777e	0.14010426
75	0x3c88188f	0.016613273
76	0x3d463b82	0.048396595
77	0x3e43ead9	0.19132556
78	0xbe2ff3fd	-0.17182918
79	0x3deac27c	0.11462876
80	0xbe497cc8	-0.19676507
81	0xbd9b6444	-0.075874835
82	0xbc024b1e	-0.00795248
83	0xbe29acf8	-0.16569889
84	0x3dfb015f	0.12256121
85	0xbdd3dba7	-0.1034463
86	0xbe68da32	-0.22739485
87	0x3dfb9b26	0.122854516
88	0xbdfad477	-0.12247556
89	0x3c9fcbb3	0.019506311
90	0x3d1286b0	0.03577298
91	0xbe4e7045	-0.20160015
92	0x3e115a45	0.14194591
93	0xbd18f532	-0.03734321
94	0xbe92e359	-0.28689077
95	0xbddc6628	-0.10761672
96	0xbd9c03a0	-0.07617879
97	0x3e1c112c	0.15240926
98	0x3c9b11b6	0.018929344
99	0xbe2eb678	-0.17061794
100	0x3e870e9f	0.26378343
101	0x3d2a6cd3	0.04160769
102	0x3e176a04	0.14786536
103	0x3da6aee4	0.081388265
104	0xbe496035	-0.19665606
105	0xbe4b5837	-0.1985787
106	0x3e8405f9	0.25785807
107	0xbe5dbef1	-0.2165487
108	0x3e148626	0.14504299
109	0x3d9b23bf	0.075751774
110	0x3e336f15	0.17522843
111	0x3e5435cd	0.20723648
112	0x3e4b43f2	0.19850138
113	0xbdd26b0c	-0.10274324
114	0x3d02bf0c	0.031920478
115	0x3e48ab0c	0.19596499
116	0x3e82d736	0.25554818
117	0x3e10804e	0.14111444
118	0xbe3a2bed	-0.18180819
119	0xbe1a37c6	-0.15060338
120	0xbe504ad3	-0.20341043
121	0xbb6eb486	-0.0036423518
122	0x3ea5bfaf	0.32372805
123	0xbdd425f8	-0.103588045
124	0x3e460d90	0.19341111
125	0xbb944193	-0.0045244186
126	0xbe514cb4	-0.20439416
127	0xbe00f91c	-0.12595028
128	0x3e03c401	0.12867738
129	0x3e684543	0.22682671
130	0xbe65bf32	-0.22436216
131	0x3e54d377	0.20783792
132	0x3e758e96	0.23980173
133	0x3e39a4a3	0.1812921
134	0x3e1305a1	0.14357616
135	0x3e17f85e	0.14840838
136	0x3e8b9939	0.27265337
137	0x3e217a3f	0.1576929
138	0xbe3749a3	-0.17899184
139	0xbe413fdf	-0.18872021
140	0xbe552004	-0.20812994
141	0xbd160946	-0.036629938
142	0xbd902398	-0.07038039
143	0x3bc433f6	0.0059876395
144	0x3ce7cc1f	0.028295575
145	0xbb410167	-0.0029450299
146	0x3db3cde5	0.08779506
147	0x3da944ef	0.08265101
148	0x3e164b1c	0.1467709
149	0x3e1339c9	0.14377512
150	0x3c9efe89	0.019408481
151	0x3ce64247	0.028107775
152	0xbd386dad	-0.04502647
153	0x3da3ef18	0.08004588
154	0xbe56c8c1	-0.20975019
155	0xbe034503	-0.12819295
156	0xbe606eb8	-0.21917236
157	0x3d238237	0.039919104
158	0x3e2ab2a3	0.16669707
159	0xbdd415ea	-0.10355742
160	0xbe202327	-0.1563841
161	0x3aebc548	0.0017987872
162	0x3d758c5d	0.059948314
163	0x3de6e568	0.112742245
164	0xbdd71c1b	-0.105034076
165	0x3e208d15	0.15678819
166	0xbdc351de	-0.09537099
167	0xbd0ed07c	-0.034866795
168	0xbe38447a	-0.17994872
169	0xbd9d99f6	-0.07695381
170	0xbdccee84	-0.10006431
171	0x3c0a4cd1	0.008441166
172	0xbd3a8df0	-0.04554552
173	0x3db5c672	0.08875741
174	0x3ced0965	0.028935144
175	0x3e956e5e	0.29185766
176	0x3e1b54a6	0.1516901
177	0xbd151652	-0.03639824
178	0xbe171b4b	-0.14756505
179	0x3daff30c	0.085912794
180	0xbe074bfd	-0.13212581
181	0xbdc82d83	-0.09774306
182	0xbe42a6c3	-0.19008927
183	0x3cd01334	0.025399782
184	0xbde26b20	-0.11055589
185	0x3e41ec11	0.18937708
186	0xbe52be18	-0.20580328
187	0xbe0e8ff7	-0.13922106
188	0xbb39a610	-0.002832774
189	0xbd28b28b	-0.041185897
190	0x3dfabb73	0.12242784
191	0x3d945e5c	0.0724456
192	0xbd862693	-0.06550326
193	0xbd9005a8	-0.07032329
194	0x3e03176a	0.128019
195	0xbe473da3	-0.19457106
196	0x3dae419f	0.0850861
197	0x3d9e9880	0.07743931
198	0x3e1f9709	0.15584959
199	0xbde58d31	-0.11208571
200	0x3da5128d	0.08060179
201	0xbd82c987	-0.063860945
202	0x3dd95982	0.106127754
203	0xbdafff9d	-0.08593676
204	0x3c866b8e	0.016408708
205	0x3cfe873e	0.031070348
206	0xbdd8944a	-0.10575159
207	0xbc9f6c3e	-0.019460794
208	0xbbcf3498	-0.0063234083
209	0x3bc7707a	0.0060864063
210	0x3db87c89	0.09008128
211	0x3d7035c8	0.05864504
212	0xbdd9bb2b	-0.106314026
213	0x3e1a4d3d	0.15068527
214	0x3e3da103	0.18518452
215	0x3e778890	0.24173188
216	0x3e120b05	0.14262016
217	0xbe76583b	-0.24057095
218	0xbdfeb16a	-0.12436183
219	0x3ddf63b4	0.10907689
220	0xbe0bbcc9	-0.13646235
221	0x3e532b92	0.2062209
222	0xbe117330	-0.14204097
223	0xbd8bbdca	-0.06823309
224	0x3e4ab987	0.19797336
225	0xbe1ae5ef	-0.15126775
226	0x3dc8e045	0.09808401
227	0x3e11ace9	0.14226116
228	0x3df93c0a	0.12169655
229	0x3e27e715	0.16396745
230	0xbd1a5abd	-0.03768419
231	0xbdfcd16a	-0.1234463
232	0x3e36565a	0.17806378
233	0xbd7e4f38	-0.062087268
234	0xbdf0b411	-0.11753095
235	0x3d89b00e	0.06723033
236	0xbdf12bb1	-0.117759116
237	0x3dfdb0bf	0.12387227
238	0x3e321170	0.17389464
239	0xbded571e	-0.11588882
240	0xbd167c5f	-0.036739703
241	0x3ddb4e42	0.10708286
242	0x3e870cb5	0.26376882
243	0xbd9090b8	-0.07058853
244	0xbe238020	-0.15966845
245	0xbc707228	-0.0146756545
246	0xbe7d5f0e	-0.24743292
247	0xbde5c985	-0.112200774
248	0xbdbbb0fb	-0.09164616
249	0x3e4916de	0.1963763
250	0x3e7401c6	0.23828802
251	0xbdc8993a	-0.09794851
252	0x3da75a75	0.0817155
253	0x3dc49a09	0.095996924
254	0xbc844e88	-0.016150728
255	0xbde64606	-0.11243825

fc.bias f4 [10]
0	0xbac2cee1	-0.001486268
1	0xbca8108e	-0.020515706
2	0x3d9456f3	0.07243147
3	0x3da1b2cd	0.07895432
4	0x3d1b61ab	0.03793494
5	0x3d80e30f	0.06293308
6	0xbe489188	-0.19586766
7	0x3e06e0d9	0.1317171
8	0x3dcc28d5	0.099687256
9	0xbd68cd76	-0.056836568
