saved_models/FADA-few-shot-retraining/mnist/classifier_mnist_16.pt (torch_old, 3144 bytes, 2 tensors)

fc.weight f4 [10, 64]
0.1517989 -0.096924976 -0.17525087 0.24318127 -0.26714873 0.15126736 -0.069682404 0.22765943
0.13004282 -0.038503785 -0.16950293 0.0295669 -0.07489546 -0.12668392 0.06538804 0.1377406
0.10063884 -0.027688995 0.092239246 0.13510573 -0.02515575 -0.13084538 0.03527034 -0.16284326
-0.13749118 0.20562056 0.017528629 0.11759546 -0.15466435 -0.03568714 0.100607015 0.08050231
0.18874905 -0.14903033 -0.20286469 -0.15512943 0.18618965 -0.096007146 0.014576214 -0.109432764
0.05971108 -0.08448511 0.0838989 0.09092966 -0.15835458 0.102964416 -0.14995094 0.15203841
-0.12226335 -0.17660104 -0.22280484 -0.06526381 0.11069792 -0.018862668 0.2247232 0.25544924
0.15040983 -0.29669666 0.018411726 0.14846066 -0.16892047 0.12351773 0.1572193 0.16159207
-0.07186925 0.025908688 -0.009329924 0.10403253 -0.18517087 -0.12612854 0.11493928 -0.05602647
-0.03603293 0.09079593 0.15672196 0.023102237 0.06266436 0.22037974 -0.18535581 0.12015844
-0.2101529 -0.08133562 -0.023046622 -0.17609087 0.10548285 -0.11689319 -0.24408457 0.10982471
-0.14877659 0.04003791 0.047985625 -0.22125721 0.15195754 -0.034525096 -0.3006071 -0.12327373
-0.08243726 0.15779892 -0.014787361 -0.17979361 0.27465832 0.048534133 0.18183132 0.051222865
-0.2187237 -0.23800293 0.27232498 -0.22838186 0.13778259 0.10160706 0.17991388 0.24415272
0.18316443 -0.13595465 0.00737564 0.21593194 0.27498543 0.15082939 -0.19561969 -0.16176471
-0.21877019 -0.02293082 0.35331947 -0.11217732 0.19928035 -0.006762463 -0.22569577 -0.092584535
0.08404869 0.23865347 -0.2369705 0.20619644 0.24358305 0.17379867 0.17134686 0.12608194
0.27900082 0.16457984 -0.17943433 -0.22912729 -0.22774945 -0.06278789 -0.08901423 0.011970738
0.0257591 -0.013361005 0.11068921 0.08862764 0.16339453 0.16618262 0.04205724 0.044901583
0.02450914 0.08939589 -0.23470226 -0.11550304 -0.22572443 0.0694553 0.1778647 -0.1325507
-0.11816499 -0.025190191 0.06585734 0.14285752 -0.10512127 0.16843665 -0.09813372 -0.03610755
-0.1605493 -0.09176801 -0.1208359 0.018122213 -0.05816771 0.09835562 0.05879826 0.31295887
0.17994925 -0.04576847 -0.11501803 0.056390554 -0.15341975 -0.1454125 -0.22526467 -0.025945408
-0.1221942 0.21706544 -0.19831786 -0.16305241 0.028868303 -0.032885242 0.10602834 0.058728244
-0.06594986 -0.08917768 0.12705389 -0.18824233 0.10161904 0.04731714 0.16503659 -0.10684969
0.06631855 -0.07044731 0.07909194 -0.05581773 0.024941439 0.05617785 -0.13055697 -0.025456855
-0.00077734166 -0.012353266 0.06689413 0.08412646 -0.13541631 0.17083964 0.20746593 0.24304552
0.10339219 -0.19085298 -0.0925138 0.12698232 -0.14764822 0.20918867 -0.15561512 -0.04901319
0.19944906 -0.15787187 0.074584715 0.16316336 0.14618555 0.11715475 -0.021488696 -0.14696041
0.15234543 -0.072132505 -0.07560861 0.08993464 -0.14130004 0.12424191 0.14610337 -0.121622354
-0.07207469 0.08128279 0.23297516 -0.020572037 -0.17432375 -0.014844265 -0.22227935 -0.115122445
-0.06759383 0.15990053 0.24113773 -0.12741528 0.054042295 0.0352782 -0.043646276 -0.12863931
00000000: 2c71 1b3e 9a80 c6bd f774 33be 8304 793e
00000010: b8c7 88be d5e5 1a3e a6b5 8ebd 8e1f 693e
00000020: f229 053e 25b6 1dbd 2d92 2dbe 4936 f23c
00000030: ca62 99bd 6eb9 01be 2aea 853d df0b 0d3e
00000040: bc1b ce3d 08d4 e2bc eee7 bc3d 2859 0a3e
00000050: 6e13 cebc 55fc 05be a277 103d 62c0 26be
00000060: 7dca 0cbe 328e 523e 3398 8f3c e3d5 f03d
00000070: 5560 1ebe ae2c 12bd 0d0b ce3d 65de a43d
00000080: 6e47 413e 689b 18be c3bb 4fbe 40da 1ebe
00000090: 80a8 3e3e 659f c4bd 13d1 6e3c 491e e0bd
000000a0: 9b93 743d 8806 adbd 30d3 ab3d 5439 ba3d
000000b0: b427 22be 02df d23d bd8c 19be f5af 1b3e
000000c0: 3565 fabd e7d6 34be f426 64be 08a9 85bd
000000d0: 97b5 e23d e285 9abc d71d 663e 3eca 823e
000000e0: 0905 1a3e a0e8 97be 30d4 963c 1206 183e
000000f0: 7df9 2cbe ddf6 fc3d 19fe 203e 6478 253e
00000100: 2f30 93bd 753e d43c 8adc 18bc 020f d53d
00000110: 6f9d 3dbe d727 01be 4965 eb3d 037c 65bd
00000120: 4497 13bd 37f3 b93d b97b 203e e740 bd3c
00000130: 2c56 803d 3aab 613e eacd 3dbe a115 f63d
00000140: 5232 57be 4a93 a6bd 45cc bcbc 2a51 34be
00000150: 6407 d83d b265 efbd 4ef1 79be c7eb e03d
00000160: e458 18be cbfe 233d 938c 443d 4091 62be
00000170: c29a 1b3e 306a 0dbd 2ce9 99be f076 fcbd
00000180: ded4 a8bd 0a96 213e b046 72bc d11b 38be
00000190: 04a0 8c3e bacb 463d fd31 3a3e 11cf 513d
000001a0: 1bf9 5fbe 0ab7 73be 2e6e 8b3e efdc 69be
000001b0: e116 0d3e 5d17 d03d 583b 383e 2c03 7a3e
000001c0: 758f 3b3e b237 0bbe 5aaf f13b 431d 5d3e
000001d0: e4ca 8c3e 0573 1a3e 8750 48be a6a5 25be
000001e0: 4b05 60be 6ad9 bbbc 4ae6 b43e 39bd e5bd
000001f0: 2610 4c3e a797 ddbb cb1c 67be f69c bdbd
00000200: b821 ac3d 9361 743e 65a8 72be 2925 533e
00000210: d66d 793e 47f8 313e 8d75 2f3e a01b 013e
00000220: 32d9 8e3e 9e87 283e a2bd 37be 58a0 6abe
00000230: 2737 69be f096 80bd 184d b6bd ea20 443c
00000240: c004 d33c 1ee8 5abc 06b1 e23d 6882 b53d
00000250: e550 273e c72b 2a3e 3644 2c3d b9ea 373d
00000260: 64c7 c83c 3115 b73d ca55 70be dc8c ecbd
00000270: 4e24 67be 953e 8e3d 2a22 363e 5fbb 07be
00000280: 7c00 f2bd a95b cebc 37e0 863d 3e49 123e
00000290: d249 d7bd a87a 2c3e 55fa c8bd 83e5 13bd
000002a0: 0967 24be def0 bbbd d078 f7bd 0975 943c
000002b0: 4441 6ebd ac6e c93d 72d6 703d 253c a03e
000002c0: 9e44 383e b877 3bbd 938e ebbd c8f9 663d
000002d0: 111a 1dbe 04e7 14be c8ab 66be 778b d4bc
000002e0: f440 fabd 6746 5e3e d613 4bbe 36f7 26be
000002f0: 387d ec3c adb2 06bd 6325 d93d 078d 703d
00000300: b810 87bd caa2 b6bd 6a1a 023e 99c2 40be
00000310: a51d d03d 9ecf 413d 5aff 283e 03d4 dabd
00000320: 05d2 873d ae46 90bd f4fa a13d 22a1 64bd
00000330: fd51 cc3c bf1a 663d bab0 05be e58a d0bc
00000340: 84c6 4bba 5a65 4abc caff 883d 7e4a ac3d
00000350: 93aa 0abe 96f0 2e3e f371 543e ede0 783e
00000360: 49bf d33d f76e 43be e077 bdbd a707 023e
00000370: 1831 17be 8e35 563e 9259 1fbe 0ec2 48bd
00000380: 603c 4c3e 2aa9 21be dfbf 983d 4c14 273e
00000390: aab1 153e d4ee ef3d 1009 b0bc ca7c 16be
000003a0: 7100 1c3e 35ba 93bd b0d8 9abd a72f b83d
000003b0: f5b0 10be 8b72 fe3d 1f9c 153e 2415 f9bd
000003c0: e59b 93bd 9777 a63d 0a91 6e3e b086 a8bc
000003d0: ed81 32be 5c35 73bc 339d 63be 51c5 ebbd
000003e0: a26e 8abd f7bc 233e cfec 763e 2779 02be
000003f0: 745b 5d3d e07f 103d 70c6 32bd 06ba 03be

fc.bias f4 [10]
0.045534413 -0.0057529295 0.08517407 0.11534771 0.012085957 0.070251375 -0.18319054 0.06730773
0.03968958 -0.06745207
00000000: 4b82 3a3d 1283 bcbb be6f ae3d 6c3b ec3d
00000010: 2e04 463c f4df 8f3d 4d96 3bbe a3d8 893d
00000020: 8b91 223d 5024 8abd
