saved_models/FADA-few-shot-retraining/mnist/classifier_mnist_14.pt (torch_old, 3144 bytes, 2 tensors)

fc.weight f4 [10, 64]
0	0x3e092dde	0.13396403
1	0xbda715b5	-0.08158437
2	0xbe2d41a8	-0.16919577
3	0x3e7d6081	0.24743845
4	0xbe839501	-0.25699618
5	0x3e1f391d	0.1554913
6	0xbd7fe199	-0.062471006
7	0x3e5efd7b	0.21776383
8	0x3e0faca6	0.14030704
9	0xbc405cbf	-0.011740862
10	0xbe0f453f	-0.13991259
11	0x3ca3403a	0.019928087
12	0xbd84e99e	-0.064898714
13	0xbdb779d1	-0.089587815
14	0x3d4f36fe	0.050589554
15	0x3e1c3afa	0.15256873
16	0x3d8f7ac3	0.07005837
17	0xbc39c4d1	-0.011338429
18	0x3db7acd4	0.08968511
19	0x3dafc335	0.08582155
20	0xbbaf5a80	-0.0053513646
21	0xbe12e4b3	-0.14345054
22	0x3c3b2e46	0.011424607
23	0xbe205993	-0.1565917
24	0xbe0c5027	-0.1370245
25	0x3e3dfc75	0.18553336
26	0x3cb17d2c	0.021666132
27	0x3da7119c	0.081576556
28	0xbdb927fc	-0.090408295
29	0xbd4737b8	-0.048637122
30	0x3d8c79bf	0.06859159
31	0x3d71208b	0.058868926
32	0x3e12fcd9	0.14354266
33	0xbde2a9b4	-0.110675246
34	0xbe3bd026	-0.18341121
35	0xbe2a1274	-0.16608602
36	0x3e2f0b2d	0.17094107
37	0xbd6278fa	-0.055291153
38	0x3ca747d3	0.02041999
39	0xbdad1bf6	-0.08452599
40	0x3cd51502	0.026010994
41	0xbdbec3f3	-0.09314718
42	0x3daa5740	0.08317423
43	0x3d456285	0.04818966
44	0xbe2147c8	-0.15750039
45	0x3de1d7cf	0.1102749
46	0xbe0412c2	-0.1289778
47	0x3e27af6c	0.16375512
48	0xbdd61419	-0.10453052
49	0xbe18cf81	-0.14922906
50	0xbe4536c9	-0.1925918
51	0xbd50f8b0	-0.051018417
52	0x3de64048	0.112427294
53	0xbb82f373	-0.0039963066
54	0x3e4b1492	0.19832066
55	0x3e829ec2	0.25511748
56	0x3de05eab	0.109555565
57	0xbe89d292	-0.26918465
58	0x3cf513a9	0.029916601
59	0x3e140e6d	0.14458628
60	0xbe1668cd	-0.14688416
61	0x3e03c0fe	0.1286659
62	0x3e0950c3	0.13409714
63	0x3e16d6ab	0.14730327
64	0xbdd3b864	-0.10337904
65	0x3c8ed6a9	0.017436342
66	0x3ccf0a48	0.025273457
67	0x3d9a920e	0.07547389
68	0xbe33172a	-0.17489305
69	0xbe1e53b0	-0.15461612
70	0x3df32e90	0.118741155
71	0xbda485a1	-0.080333
72	0xbd013290	-0.03154236
73	0x3da66e83	0.08126547
74	0x3e13f203	0.14447789
75	0x3d028866	0.03186836
76	0x3d4cdbde	0.05001437
77	0x3e3b9ba8	0.18321097
78	0xbe4493df	-0.19197033
79	0x3dce36cd	0.10069046
80	0xbe5717c0	-0.21005154
81	0xbdcca92f	-0.09993207
82	0xbc01a612	-0.007913129
83	0xbe2386bb	-0.15969364
84	0x3df34999	0.11879272
85	0xbdcdaaa7	-0.10042315
86	0xbe6c740e	-0.23091146
87	0x3dfc6725	0.12324361
88	0xbe011c10	-0.12608361
89	0x3ccbbc62	0.024870101
90	0x3c8dbd71	0.017302247
91	0xbe56d326	-0.20978984
92	0x3e0da934	0.13834077
93	0xbccc5cf9	-0.024946677
94	0xbe90c6a7	-0.2827656
95	0xbddee9a3	-0.108844064
96	0xbd9d136c	-0.0766972
97	0x3e15ff36	0.14648136
98	0x3bfa4454	0.00763754
99	0xbe202d29	-0.15642227
100	0x3e841dbc	0.25803936
101	0x3d045d83	0.032315742
102	0x3e2ec045	0.17065533
103	0x3d8aa858	0.0677039
104	0xbe51ea82	-0.20499614
105	0xbe648508	-0.22316372
106	0x3e7f76d2	0.2494767
107	0xbe588f36	-0.2114838
108	0x3e1edd2f	0.15514062
109	0x3dbc0829	0.09181244
110	0x3e2473ed	0.16059847
111	0x3e5e9ee8	0.21740305
112	0x3e4ff689	0.2030889
113	0xbdea3051	-0.11434997
114	0x3cbc827f	0.023011444
115	0x3e4c8e68	0.19976199
116	0x3e8521c5	0.26002327
117	0x3e09d079	0.13458432
118	0xbe3dbb7e	-0.18528554
119	0xbe242aec	-0.16031998
120	0xbe5242ae	-0.20533249
121	0x3cc46450	0.023973614
122	0x3ea9f8a3	0.33197507
123	0xbdeb7a41	-0.114979275
124	0x3e4a84f5	0.19777282
125	0xbd039951	-0.032128636
126	0xbe5e1200	-0.21686554
127	0xbdf84d09	-0.12124068
128	0x3da64eed	0.08120523
129	0x3e706110	0.23474526
130	0xbe6137e3	-0.21993975
131	0x3e5e61d9	0.21717013
132	0x3e6fa5af	0.23403047
133	0x3e24d612	0.16097286
134	0x3e1e3e68	0.15453494
135	0x3de9cb84	0.11415771
136	0x3e891a2f	0.2677779
137	0x3e30643f	0.17225741
138	0xbe25ba15	-0.16184266
139	0xbe536982	-0.20645717
140	0xbe559cc0	-0.20860577
141	0xbd32228a	-0.04348997
142	0xbda6de26	-0.0814784
143	0x3be100d3	0.0068665533
144	0x3aa8d172	0.0012879802
145	0xbb8f9fc1	-0.004383058
146	0x3dd652fa	0.10465045
147	0x3d99c93d	0.07509086
148	0x3e1be1a7	0.15222798
149	0x3e0e668f	0.1390631
150	0x3cde36c0	0.027125716
151	0x3d2b8edb	0.041884284
152	0xbce177a1	-0.027522864
153	0x3da1c55f	0.07898974
154	0xbe606028	-0.2191168
155	0xbe1f1258	-0.15534341
156	0xbe70c75c	-0.2351355
157	0x3d7f578f	0.06233936
158	0x3e304705	0.17214592
159	0xbde0860f	-0.1096307
160	0xbe09a31f	-0.13441132
161	0xbbd47d4a	-0.006484662
162	0x3db3a22d	0.08771167
163	0x3df0a7f5	0.11750785
164	0xbdb87283	-0.090062164
165	0x3e28e66b	0.16494147
166	0xbdc7ccfa	-0.09755893
167	0xbc8b2c2f	-0.016988842
168	0xbe342a62	-0.17594293
169	0xbdc98f40	-0.09841776
170	0xbdccc77e	-0.099989876
171	0xba245cfa	-0.0006269958
172	0xbd24382a	-0.040092625
173	0x3dd4dbe3	0.103935026
174	0x3d44e17a	0.048066594
175	0x3e9bac89	0.3040507
176	0x3e25a371	0.16175629
177	0xbd62596c	-0.05526106
178	0xbdfa3c44	-0.12218526
179	0x3d7f6c39	0.06235907
180	0xbe030f4d	-0.12798806
181	0xbdcd21d5	-0.100162186
182	0xbe547441	-0.20747472
183	0x3c2700e8	0.010193087
184	0xbe03e9b2	-0.12882116
185	0x3e641493	0.22273473
186	0xbe47d775	-0.19515784
187	0xbe110df4	-0.14165479
188	0x3d2a111f	0.041520234
189	0xba80c6be	-0.0009824855
190	0x3dd86477	0.10566037
191	0x3d64cd59	0.055859897
192	0xbd89f0f1	-0.06735409
193	0xbdc48178	-0.09595007
194	0x3e02f090	0.1278708
195	0xbe48f454	-0.19624454
196	0x3dd766ae	0.105176315
197	0x3d59de7f	0.053190704
198	0x3e22a684	0.15883833
199	0xbdf09d01	-0.11748696
200	0x3db7e0ef	0.089784496
201	0xbd66944e	-0.056293778
202	0x3d7868bf	0.06064677
203	0xbd71cc7b	-0.0590329
204	0x3c4b8cc0	0.012423694
205	0x3d8aa1e9	0.06769163
206	0xbe05dbd0	-0.13072133
207	0xbd13e8ea	-0.036110796
208	0x3cb05f1a	0.021529723
209	0xbc9844b3	-0.018587446
210	0x3d84f18b	0.06491383
211	0x3db096b2	0.08622493
212	0xbe04a67a	-0.12954131
213	0x3e3053cd	0.17219467
214	0x3e58bc10	0.2116549
215	0x3e801ec8	0.25023484
216	0x3de30e63	0.110867284
217	0xbe675128	-0.22589552
218	0xbdb1d160	-0.08682513
219	0x3e0e3f06	0.13891229
220	0xbe2e94a3	-0.17048888
221	0x3e647751	0.2231114
222	0xbe0af220	-0.13568926
223	0xbd80e03c	-0.06292769
224	0x3e566de1	0.20940353
225	0xbe3942ca	-0.18091884
226	0x3d958690	0.073010564
227	0x3e2c1d4c	0.16808051
228	0x3e0714b5	0.13191493
229	0x3e0c22f1	0.13685204
230	0xbce696ad	-0.02814802
231	0xbe1a1136	-0.15045628
232	0x3e1ae1d2	0.15125206
233	0xbd977b08	-0.07396513
234	0xbda163d4	-0.07880369
235	0x3dbfe0f4	0.09369078
236	0xbe19f8d3	-0.15036325
237	0x3e0a7644	0.13521677
238	0x3e196be9	0.1498257
239	0xbdf90363	-0.12158849
240	0xbd510bc5	-0.051036615
241	0x3db4430b	0.0880185
242	0x3e6ed76f	0.23324369
243	0xbca2a2c1	-0.019852998
244	0xbe348801	-0.17630006
245	0xbbcba436	-0.006214644
246	0xbe6f1a6d	-0.23349924
247	0xbdef032e	-0.11670528
248	0xbd95d51b	-0.07316037
249	0x3e1b1f77	0.15148722
250	0x3e7de794	0.24795371
251	0xbdf2b0bd	-0.118501164
252	0x3d669d47	0.056302335
253	0x3d348f65	0.044082064
254	0xbd8afb02	-0.06786157
255	0xbe07592f	-0.13217615

fc.bias f4 [10]
0	0x3caea4c1	0.021318795
1	0xbc8f179f	-0.017467318
2	0x3d8bae77	0.06820386
3	0x3df0f9a7	0.117663674
4	0x3cdfdcf1	0.027327033
5	0x3d93b02e	0.07211338
6	0xbe2eb785	-0.17062195
7	0x3d9ea6ab	0.07746633
8	0x3d601f47	0.05471733
9	0xbd262f65	-0.040572543
