saved_models/FADA-few-shot-retraining/mnist/encoder_mnist_8.pt (torch_old, 197620 bytes, 10 tensors)

conv1.weight f4 [6, 1, 5, 5]
00000000: ea3f 6739 7b51 a83d 849a 21be 8ba5 d0bd
00000010: d9bc 0dbd a228 b3bc 4c22 21be 5ce4 b3bc
00000020: 2909 3bbe a11b 6037 ee6b 8cbd 6866 eb3c
00000030: 0bdf 0bbe c7ae 51be b482 eb3d e97b 78bd
00000040: 3c7d c43b ab51 dcbd ab59 7dbd 3a5f 843c
00000050: 8932 da3d cb02 32bd 2e0a 39be 2039 023d
00000060: de12 953d 361b 7e3e 526a 063e 4c54 d8ba
00000070: b173 913d 1136 f2bd d40a a63d e959 a13c
00000080: 8ede 74be e54d 7cbe b54d 15be f664 16be
00000090: 6678 98bd e0e0 27be e390 2fbe 1960 42be
000000a0: b050 d23d 1761 49be d7b2 25be edcd dfbd
000000b0: 62eb 7abc c55b b0bd 014b a63d 51bf edbc
000000c0: be2e 113e b968 813e 51a4 7abe 4286 d6bd
000000d0: 6397 ad3d a1ef bb3e 59ab 003e d28c 97be
000000e0: 27ed 103e 681d 123f f36d c53e a5b7 92be
000000f0: 308a 88bd 26fd ad3e 610e 123f 2df7 69be
00000100: ad8c aebe 987c 393d 3251 573e be75 213e
00000110: b1f0 74be 40d8 71be 61d4 f83d daf4 2d3e
00000120: ae73 a63d 173f 83be a36d e03c 4e30 2d3e
00000130: 5e8d fc3c 50b3 c6be 79bf 47be 9a8a 30bd
00000140: 2a43 b23e e86f 9d3e 6990 c0be 22ca c1be
00000150: 8502 19bd c092 563e d7df fa3e f70d 9cbe
00000160: 4e08 8ebe bf48 afbe db2c dabc 3509 bb3e
00000170: 4edf 6c3e 35e6 0ebc 9f92 9fbe a06e 2a3e
00000180: 9432 d13e b419 ee3e 0679 b13e 71d7 6b3c
00000190: 99c3 9e3e 723f e93e 9851 813e 23a6 6ebd
000001a0: 51ba acbc 7e7a a03e 6cc3 f33e 0b9d fb3e
000001b0: 8d4a 6f3e 0189 793d da8a b4be c364 8cbe
000001c0: c27d b33d bf7b 9fbd 8167 9fbd e1c6 81be
000001d0: 7825 f0be 028a 7dbe 24bc 15be eb98 52bd
000001e0: 26e7 d6be a976 4abe f62f 9dbe fb70 2bbc
000001f0: 8f71 c23c 25aa 493b 7489 babc 6d44 90be
00000200: b78f 7dbe 3311 4abe 7252 a5bd 338e 33be
00000210: 155b adbe 3b19 8ebe e598 65be dde8 efbd
00000220: 90fd b1be d33d 95be d90f b23d 4d51 3b3e
00000230: 1028 61bd 28f8 033e a17e b13e 4e8b b43e
00000240: 9e7c 773e 57fd a03e c114 f83e 724f b13e
00000250: 20bb 203e 607f cbbd
0.00022053687 0.08218666 -0.157816 -0.10187825 -0.034603927 -0.021869961 -0.1573574 -0.021959476
-0.18265213 1.3357873e-05 -0.068565235 0.028735355 -0.13659303 -0.20476829 0.11499539 -0.060665045
0.0059963744 -0.107577644 -0.061853092 0.016158689 0.1065417 -0.043459695 -0.1807029 0.03179276
0.07278989 0.24815068 0.13126495 -0.0016504615 0.071021445 -0.118267186 0.08107534 0.019696193
-0.23913023 -0.2463909 -0.14580424 -0.14686951 -0.07444839 -0.16394377 -0.17145114 -0.18981971
0.10269296 -0.19665943 -0.16181503 -0.10927949 -0.015314909 -0.08611254 0.081197746 -0.02902189
0.14177987 0.2527521 -0.24476744 -0.104748264 0.0847614 0.3670626 0.12565364 -0.29599625
0.14152966 0.5707612 0.38560447 -0.28655735 -0.06666982 0.339822 0.5705319 -0.22848196
-0.34091702 0.045284837 0.21027067 0.15767571 -0.23919941 -0.23617649 0.12149883 0.16987935
0.08127533 -0.2563407 0.027396029 0.16912958 0.030829128 -0.3880868 -0.19506635 -0.04310093
0.34816867 0.3074944 -0.37610176 -0.37849528 -0.03735592 0.20954418 0.489989 -0.30479404
-0.2774071 -0.34235188 -0.026632717 0.36530462 0.23132059 -0.008721878 -0.3116655 0.16643763
0.408589 0.46503985 0.34662646 0.014394627 0.31008604 0.45556217 0.25257564 -0.05826391
-0.021084936 0.31343454 0.47610033 0.49143252 0.23368283 0.060921673 -0.35262185 -0.27420625
0.08764221 -0.077872746 -0.07783414 -0.25347045 -0.46903586 -0.24759677 -0.14622551 -0.051415365
-0.41973227 -0.19771828 -0.30700654 -0.010463948 0.02373579 0.003077158 -0.02277062 -0.28177205
-0.24761854 -0.19733123 -0.08072366 -0.17534713 -0.33858553 -0.27753624 -0.22421606 -0.11714337
-0.34763765 -0.2914873 0.08694429 0.18292733 -0.054969847 0.12887633 0.34666923 0.3526253
0.24168631 0.31443283 0.48453334 0.34630924 0.15696383 -0.09936404

conv1.bias f4 [6]
00000000: a020 9abe 2afc e7bd 0aeb 3d3d 23c7 0c3e
00000010: e0ce 31bb 836c 89bd
-0.30103016 -0.11327393 0.04636673 0.1374784 -0.0027131364 -0.0671015

conv2.weight f4 [16, 6, 5, 5]
00000000: 7414 ac3c 5b3f f53d 77bc 4fbd ec3e eebc
00000010: d8bb 92bb c18c c5bd 64fd 1c3d 9546 253c
00000020: 423c 95bc 0948 22bd 998f 3abd d5ef 013c
00000030: f176 333d ac75 41bd 415c b0bd 2b51 33bd
00000040: 0161 5abe a4d6 b3bd ef22 efbd c192 58be
00000050: bb73 a8bd e02b 85be ae4d a8be b283 84be
00000060: d08d 30be 4e5c 903d f78e ed3c 1e53 1abe
00000070: 9016 d63c 6421 3abd 249e 063d df10 9fbd
00000080: d96f 4fbd 0e45 5b3d 8b6d 8cbd b7ec c0bd
00000090: 520e 96bd d549 95bc cbf2 dcbc a6d6 7abe
000000a0: ee46 94be fbc1 2bbe ed8e 15be c91d 4abd
000000b0: cc0b 53be 2a0f dbbd 0147 86be 0f8a 27be
000000c0: e48b 93be 01d4 3cbe 07e1 39be 50ea 05be
000000d0: cf35 2dbc 134a ec3d d12f b13d 38e9 a43d
000000e0: f685 1abd 370b 0b3e 8578 ee3c 4605 083d
000000f0: 3bc5 ff3d 6b88 dcbc 9fed 9f3d 4c05 7abd
00000100: 56d0 963d ba67 98bd 1df2 13be e9b0 89bd
00000110: 6bba b8bd 090e 103e df8c 83be 8a29 65be
00000120: 9e38 99be 62da 27be 14f2 533e e367 dfbc
00000130: 0478 2d3d 1c0a 9abd afb6 1f3d 12dc 7c3c
00000140: 6a93 903c 7638 7d3d 8b33 38be 7e2b f8bc
00000150: 0ebb fc3d 83ca 113e 7526 843e 33ba 853d
00000160: 2648 d6bd 96bc 95bd 8422 8fbd 942d 943e
00000170: f6f4 023e fdb3 adbc 7d0d 44bd c9e8 8dbe
00000180: 794c c0bd 7c1f dcbb 1241 49bd 5580 bcbd
00000190: 88f2 153d 45a8 e4bd 55f3 cbbe 6e7d 01be
000001a0: 9298 fdbd e1f4 11be aa00 5bbe 1306 323c
000001b0: 20d4 4ebc 3a8c 3bbd e72d b63d 294e 2cbe
000001c0: 2f9e 1dbe 6d5b 94bd d017 04be e6e8 803e
000001d0: f5ab 353d d6b2 9ebd 5fc8 0ebe ab88 b0bd
000001e0: 0889 da3d e12d 763e e257 5d3e 5397 293e
000001f0: c9f4 913d 150e 91bd 6fe5 d5bc 4187 7c3c
00000200: 6b3c 02be b1f1 cb3c c2bf b63d acfe b33b
00000210: 5dd7 b4bd e52b 99bd 48ab 98bd c25a 523d
00000220: f49a 903d 11d2 a63c 6ebb 833d 1e0a bbbc
00000230: 0056 0bbe 3dd6 1fbd c203 05bc 662d e63d
00000240: da7f 153e c970 1abe c821 0ebe 7348 9d3c
00000250: 7d1b 14bd b414 f2bd f914 e13c b324 413d
00000260: ab72 633d bfa8 12bd ec85 193d 71b8 edbd
00000270: edd0 a0bd 3541 b3bd 58a2 593d 3257 6e3d
00000280: fb9c fbbc 5e7d aabd a107 fb3c e813 2cbd
00000290: 127f 8a3d 0bd9 bdbd 2041 8abe 0e72 6cbe
000002a0: 5c56 2cbe 5904 e3bd 8614 96bd a267 52be
000002b0: 0ff3 17be 6c30 64bd 0421 ba3a 8ffa 4fbb
000002c0: 41b9 243d e221 0d3e 61bf 13bd 34a1 cd3c
000002d0: af64 a8bd ef61 ad3d 3617 babd 9df6 5cbd
000002e0: 2a19 d93c 4a63 6cbd c24e bcbd 1ec0 0cbe
000002f0: f2ad 02be a836 703d 5510 06be 0a2e c1be
00000300: 5494 96be edc6 09be 1d1e cabc 59f6 02be
00000310: c0f0 6cbe 46e9 54be e249 e1bc 273e d23d
00000320: f76e a03c 71aa 283c 750e 5c3b 9f74 e8bc
00000330: 686a 023d 7d4a 023e 7732 693e 71b1 5a3e
00000340: 893a fbbc 2f16 bfbd 981c b23d 7d95 b13d
00000350: 3212 0b3e 3201 b0bd 1ba6 0cbd 3c55 a6bd
00000360: 17ce a2bd 4f0e 2dbe bfc5 9c3d aef1 0e3e
00000370: bc7c e2bd 90b4 71be 53dd 36be 87df 093d
00000380: 8ddf af3c 86a5 7f3d a60d be3d cf85 f9bc
00000390: 0d4b f4bc 8a3c 8ebb 2b78 a7bc 6981 623d
000003a0: 95e3 55be e11d 00be 23d0 82bb a2e8 d73d
000003b0: 36b7 843d 8974 853e 6115 e73d c444 38bc
000003c0: a7db c43d 18f9 4c3e 126a 603e 91fd a63d
000003d0: ea28 e9bb c107 a5bd 1312 2c3e a53b 04ba
000003e0: 4dc7 29bd 9583 c5bb afb0 b93d 7fb2 83bd
000003f0: 905a d7bd 336f 813d f160 dc3d 3cfa cf3d
0.021005847 0.11974975 -0.050716843 -0.029082738 -0.004477959 -0.09645987 0.03832759 0.010087629
-0.01821721 -0.03961948 -0.0455471 0.007930716 0.043814603 -0.04723136 -0.08611346 -0.04377858
-0.21326067 -0.08781174 -0.11676585 -0.21149732 -0.08225199 -0.26010036 -0.32871765 -0.25881726
-0.17241597 0.07048856 0.028998835 -0.15070769 0.026133806 -0.045442 0.03286566 -0.0776689
-0.050643776 0.053532653 -0.06856831 -0.0942015 -0.0732695 -0.018223682 -0.026971241 -0.24495944
-0.28960365 -0.16773216 -0.14605303 -0.04934481 -0.20609969 -0.10696252 -0.26226047 -0.16361259
-0.28817666 -0.18440248 -0.18152247 -0.13077664 -0.010571911 0.11537566 0.086516984 0.080522954
-0.03772541 0.13578497 0.029110203 0.033208154 0.124887906 -0.026920518 0.078089945 -0.061040208
0.07363956 -0.07441659 -0.14447828 -0.06723196 -0.090199314 0.14067854 -0.25693414 -0.22379127
-0.29926008 -0.163919 0.20697814 -0.027271217 0.042350784 -0.075214595 0.03899258 0.015433328
0.017648418 0.061821423 -0.17988412 -0.030294176 0.12340365 0.14237408 0.2581059 0.06529655
-0.1046298 -0.073113605 -0.06989005 0.28941023 0.12788758 -0.02120399 -0.047864426 -0.27716663
-0.09389586 -0.0067176204 -0.04913432 -0.09204165 0.03660825 -0.11164907 -0.39834085 -0.12645504
-0.12382616 -0.1425357 -0.21386972 0.010865706 -0.012623817 -0.045788027 0.08895474 -0.1682669
-0.15392374 -0.072440006 -0.12899709 0.25177687 0.044353444 -0.07748954 -0.13943623 -0.08619817
0.10670668 0.24040939 0.21615556 0.16561632 0.07126767 -0.07082764 -0.026110379 0.015413106
-0.1271836 0.02489552 0.08923294 0.0054930057 -0.0883014 -0.07479075 -0.07454544 0.051356085
0.07060805 0.02036384 0.06432234 -0.022831973 -0.13607025 -0.039022673 -0.008118572 0.11239128
0.14599553 -0.15082087 -0.13880074 0.019199586 -0.036159027 -0.11820355 0.02747582 0.04715414
0.055529278 -0.03580546 0.037481233 -0.11607445 -0.078523494 -0.08752672 0.05313334 0.058188625
-0.030714503 -0.08324693 0.030643286 -0.04201117 0.06762518 -0.09269913 -0.2700281 -0.23090383
-0.16829818 -0.110848136 -0.07328133 -0.20547345 -0.14838813 -0.05571024 0.0014200513 -0.0031735038
0.040215734 0.13782457 -0.036071185 0.025101282 -0.08222329 0.08465945 -0.090864584 -0.053946126
0.026501257 -0.057711877 -0.09194709 -0.13745162 -0.12761667 0.058645874 -0.13092168 -0.37730438
-0.2941004 -0.1345479 -0.024672562 -0.12789287 -0.23138714 -0.20792112 -0.02750105 0.10265761
0.019584162 0.010294543 0.0033577953 -0.028375922 0.03183976 0.12723728 0.22773157 0.21356751
-0.03066756 -0.09330403 0.0869686 0.08671091 0.1358116 -0.08593978 -0.034338098 -0.08121726
-0.07949465 -0.1689999 0.076549046 0.13959381 -0.110589474 -0.23604035 -0.17857866 0.033660438
0.021468902 0.062413715 0.09279947 -0.030459313 -0.029820943 -0.004340713 -0.020443043 0.055299196
-0.20887597 -0.12511398 -0.003992097 0.10542418 0.06480257 0.26065472 0.112833746 -0.011246864
0.09612208 0.20016897 0.21915463 0.08153833 -0.007115473 -0.080581196 0.1680377 -0.0005044288
-0.041449834 -0.0060276487 0.09066903 -0.0643053 -0.1051532 0.06320038 0.107606776 0.1015515

conv2.bias f4 [16]
00000000: e07d f43b ccb7 3b3d 21fd 9dbd 9953 8f3d
00000010: 55de 8abd 78ac 413d 8d5f 99bd c25c 68bd
00000020: e9dc 08bd 3ca5 78bd 759c 88bd 7889 a6bd
00000030: 0b01 7e3b 26f8 28bd 4b8a 4fbd 2e06 e93d
0.0074612945 0.04582958 -0.07714296 0.06998367 -0.06780688 0.04728362 -0.07488928 -0.056729086
-0.0334138 -0.060704455 -0.06670467 -0.08131689 0.0038757946 -0.041252278 -0.050668996 0.11378132

fc1.weight f4 [120, 256]
00000000: 62af 69be aa1d ccbd 021a be3d 004f 75ba
00000010: 43d3 3ebe abaf c1be 1186 2dbe 86f9 9abe
00000020: 961a 91be dbce 47bd 33f8 edbd df04 a23d
00000030: bb9d 18be d675 b4bd eaaf 393e 0f80 fb3e
00000040: 8d84 8c3d 7017 27be f683 d9bd 4c97 30bb
00000050: 4140 dbbd 197f 98be b8a8 99be 167f 99bc
00000060: aefc 75be c8df 0dbe d28c 14be 41ad d93c
00000070: 7857 41bd 28bf aabd 058a 1a3e 0cad 9a3e
00000080: 9cf5 b13c 2ca5 a33d b3a9 82bd 6feb a6bc
00000090: 53d0 7fbd dfb0 dd3d 6e7b 4ebd 5eec aebd
000000a0: 8ede 833e 160d 103c 9547 2bbd ad65 86be
000000b0: c61b 2d3e b259 993d 67bc 5dbd cce4 8abe
000000c0: 9de6 b33c 383e d23c c599 833c 5ced 67bd
000000d0: ff4e afbd 8fe3 9ebe deba d0be b12e ccbe
000000e0: 6909 d5bd eb04 74bd da1c 3f3d 939d 133e
000000f0: ee67 8a3c 8090 f53c a913 6f3e 0ac9 c53e
00000100: 881e c93d c585 003d 3a1d 783d e87a d73d
00000110: 6d76 91bd d849 c7bd b29f e8bd 35e8 f9bc
00000120: 714f 9fbe 6097 84be 9ce9 83be 0137 9fbe
00000130: c970 86be 57f0 e33b 03de 17bd 8a13 933d
00000140: e028 7abd fe2f 113e fffe 9d3d dec7 a8bb
00000150: 78a7 313d 2c35 033e c2bd b13d 3343 773d
00000160: ebd3 38be f7bd d13d fc31 c83d a248 c13d
00000170: 29e3 993c bf52 453e edbd 7fbd f25c 6ebd
00000180: f2ba 40be d768 5a3d 2212 98bd 1a47 2cb9
00000190: 83b1 d0bd 66a0 323d 9a04 e8bd ea99 243d
000001a0: e29f 83be e17f 3c3d 38b2 98ba 9346 aa3d
000001b0: 2c62 f8bd 9fdd 35bd 9c1f 1d3e 282c da3c
000001c0: 7800 203d a05c da3d 4e3a 463d 3244 77bd
000001d0: 9274 313e 00b9 e73d 88da 4cbd 0129 88bd
000001e0: a23d df3d 50fb 3fba 08ed 07bd aaf1 73bd
000001f0: c2d1 6a3d ef67 0c3d 8f15 5e3d 1e2d 2c3e
00000200: 9579 b1bd c758 b63c 67ca ab3d daab ecbc
00000210: 5782 0abd 8fc0 49bd d2ff a93a 8887 0e3d
00000220: a444 52be 4c57 4bbe 48c5 a03c 9fde 183c
00000230: 27f6 70bd e875 3f3d 3af9 d63d 7fe8 16bd
00000240: 614f 2b3c 4aff 1d3e 7def acbd 7b10 5dbc
00000250: bff0 7c3d 88a4 c53d 6677 59be 0bbe f1bd
00000260: bd48 e83d cdc5 f93c 83ba e6bd 26ac 4b3d
00000270: e3bb 5b3e 5c11 a33d 677a 9c3c b6f6 d13d
00000280: 1e6c 283e 763c df3d 4efe aabd 0246 2cbd
00000290: 36fe 273e 2a40 2f3e e863 723d cb93 b33d
000002a0: c8fc c63d 377e 073c 582e 8b3c 54ff e63d
000002b0: 20ec 533d 6695 88bd 8f29 07be cfd8 43be
000002c0: 9ec2 6bbe 3068 1fbe 06b6 80be 7e07 e8bd
000002d0: a095 1ebe 4226 21be c50c 76be 193a 54be
000002e0: b335 75bd 3dca 053d 1970 eebd 15bb 153d
000002f0: e62c 823d cd5c fb3c eb13 613d b7b2 983e
00000300: d57b e3bd 859e 463d fb44 69bc 2c09 87bd
00000310: 287e b33d 7047 83bc d35a aa3c 293a 323d
00000320: d3b1 37bd 5c08 51bc 3a05 31bc b47a b5bd
00000330: c36e 3d3e 3ade 333c 37eb efbb 38c1 073e
00000340: 6fd1 1f3d 1941 e6bb 0e30 89bd b917 dcbd
00000350: 134b 603d 1520 e53c 35a0 87bd 9861 1e3d
00000360: a5c5 f23c 181e 12bc a2ad e83b a4e9 9e3e
00000370: 111f b737 8532 6d3c 283c d43d 7eea 053e
00000380: ac12 e5bd c41c 9e3c de63 d0ba 20ae 86bd
00000390: 0c1c d7bc c803 85bd f74c f03d 165e 3c3e
000003a0: d16d 05be 97ad 17bc 6ab8 5d3e 6fa5 c93c
000003b0: 3571 7abe 6a59 f9bd e006 943d b943 84bd
000003c0: e2a5 a23d 28bf 853d e5a1 47bd b7c1 113e
000003d0: 40d6 20be 530e a6bd 6be0 ff3d b8a2 483d
000003e0: 76cf bbbd d621 12be 6dbe 4ebc 54bc e4bd
000003f0: 1fb2 ceba 65c7 473d 618d 9ebc 5bb4 d8be
-0.2282081 -0.099665955 0.09282304 -0.000935778 -0.18635277 -0.37829337 -0.16945674 -0.30268496
-0.28340596 -0.048781257 -0.11619606 0.07911085 -0.1490392 -0.08811538 0.18133512 0.49121138
0.068612196 -0.16317534 -0.10620873 -0.0026945649 -0.10705615 -0.29784468 -0.30011535 -0.018737357
-0.24022171 -0.13854897 -0.14506844 0.026571872 -0.047202557 -0.083372414 0.15091713 0.3021015
0.021723561 0.079904884 -0.06380024 -0.020375935 -0.062454533 0.10824751 -0.05041068 -0.08541177
0.25755733 0.008792182 -0.041816313 -0.26249447 0.16905126 0.07487811 -0.054134753 -0.27127683
0.02196055 0.025664434 0.016064534 -0.056622848 -0.08559989 -0.31032988 -0.40767568 -0.39879373
-0.104021855 -0.059575003 0.046658374 0.14415579 0.01689526 0.02997613 0.23347344 0.38629943
0.098202765 0.031377573 0.060574748 0.105214894 -0.07102666 -0.097308815 -0.113585845 -0.030506233
-0.31115296 -0.2589674 -0.25764167 -0.31096652 -0.26257923 0.006956141 -0.03707696 0.07181461
-0.061074138 0.14178464 0.07714652 -0.005150779 0.0433726 0.12813252 0.086787716 0.06036682
-0.1804959 0.10241311 0.09775159 0.09437682 0.018785076 0.19269846 -0.062436987 -0.05819411
-0.18821314 0.05332264 -0.074253336 -0.00016429686 -0.10190108 0.04361 -0.11329003 0.040185846
-0.25707918 0.046020392 -0.0011649793 0.08314242 -0.121281 -0.044400807 0.1534409 0.026632383
0.039062947 0.10662198 0.048395447 -0.06036777 0.17329624 0.11314583 -0.050013095 -0.06648446
0.109004274 -0.000732352 -0.033185035 -0.05955664 0.057328947 0.034278806 0.05421978 0.16814086
-0.08665768 0.02225913 0.083882146 -0.028890539 -0.033815708 -0.049255904 0.0012969917 0.03479722
-0.20533997 -0.1985752 0.019625321 0.009330421 -0.0588285 0.046743304 0.10496755 -0.03684282
0.010455937 0.15429416 -0.08444116 -0.013492699 0.06175303 0.096505225 -0.21236953 -0.11803826
0.11341999 0.030489827 -0.11266043 0.04972472 0.21458392 0.079622954 0.019101335 0.102521345
0.16447493 0.10900204 -0.08349286 -0.042058952 0.16405568 0.1711432 0.05917731 0.08768424
0.09716183 0.008269838 0.016989872 0.11279169 0.05173886 -0.066691205 -0.13199447 -0.19125675
-0.2302346 -0.15567088 -0.25138873 -0.11329554 -0.15486765 -0.1573725 -0.24028309 -0.20725287
-0.059865665 0.032663573 -0.11642475 0.03655537 0.0635622 0.0306839 0.054950636 0.2982385
-0.111076035 0.04849102 -0.014237638 -0.06593546 0.08764297 -0.016025275 0.020795261 0.043512497
-0.04484732 -0.012758341 -0.010804469 -0.088612944 0.18499283 0.010978276 -0.007321741 0.13257301
0.03901809 -0.007026803 -0.06698619 -0.10746712 0.054759096 0.0279694 -0.06622354 0.03866729
0.02963526 -0.008918308 0.007100777 0.3103763 2.1829766e-05 0.014477377 0.103630364 0.13077733
-0.11185202 0.019300826 -0.0015898903 -0.065761805 -0.026258491 -0.06494862 0.1173343 0.18395266
-0.13030173 -0.009257696 0.2165238 0.024615018 -0.24457248 -0.121752575 0.07227874 -0.064582296
0.07941796 0.06530601 -0.04873838 0.14234053 -0.1570673 -0.08108201 0.12493976 0.048983306
-0.091704294 -0.1427072 -0.012618643 -0.11168733 -0.0015769637 0.04877414 -0.019354524 -0.423251

fc1.bias f4 [120]
00000000: f12b 673b b19b a1bb f7e9 f13d dcc0 f8bc
00000010: 2bd5 61bd 938f f73d 8090 763c c75e 3abc
00000020: 7493 753d 24a7 553d 9738 27bd 32fc 1ebd
00000030: d123 b0bd 5d10 cb3c a3f0 123d 79c8 b03d
00000040: 6d28 86bd eb47 28bc 31dd 9ebc 7f47 8abc
00000050: 3c51 353b ca43 783d 0a91 093d f41e 923c
00000060: 7b98 97bb b9df 6d3d 4326 1bbd 8c75 833d
00000070: b923 55bc d387 d13d a1ac 063d 6ea9 673d
00000080: c91a 023d 152c 9d3c 36e1 833d 768a 28bd
00000090: d890 33bd bf2a 18bd 936c 2fbc d6df c33c
000000a0: dc0c 773d da5f cebd 9207 33bc 73fd 23be
000000b0: a053 f6bb 7c97 af3c 61f7 b9bb e4e3 6bbc
000000c0: c306 88bd a2b5 ebbd 2bc7 a8bd 7c05 5dbd
000000d0: 42e4 423d 2f1a 313d e765 983c 2c83 bcbc
000000e0: 473b d93d efcf bd3c 943c 883d dc83 23bd
000000f0: 3e0d bfbd 6d49 edbc 02c1 e83c 257e 91bd
00000100: 65e8 ab3c 216c 9e3c 4056 8cbd 514c 7a3c
00000110: acec 813c 51fd 72bd 2eb6 a5bc 54d3 5fbd
00000120: 708b 4dbb 99bd 39bd 0c65 a7bc 015e 123d
00000130: 19e8 0dbc 144b 523d 4bd2 e6bd 6b2a 813c
00000140: 4139 003c ddbd 863c c0ad a0bc a017 b9bc
00000150: a1a4 4fbd dfce 5fbd 8ec8 26bd d08e b63d
00000160: d7bc 033d b47d f0bc ffb1 833b 11c5 393c
00000170: e40e 10bc 05f8 763d c905 823d 9b87 85bd
00000180: 677f f63d 9b8b 6ebc 6bff 983d cf95 123b
00000190: 0dae 21b8 d88a 67bd c621 c9bd afbc 13bd
000001a0: 47fe 7b3c ff06 9e3c 72d0 073d f056 2a3d
000001b0: 57af 71bd 9922 e9bd 3be9 fdbc 3e5a 483d
000001c0: afbc f1bc 50f4 d9bb eed7 cf3c 1bbd d9bd
000001d0: 215c d0b9 3d52 45bd 3e8e bbbc ad0e a4bb
0.0035273994 -0.00493189 0.118122034 -0.0303654 -0.055134933 0.120879315 0.0150491 -0.011375136
0.059955075 0.05216135 -0.040825453 -0.03881473 -0.086005814 0.024788076 0.03587402 0.08631987
-0.06550679 -0.010271053 -0.019392582 -0.016879795 0.0027666828 0.060611524 0.033585586 0.017837025
-0.0046263314 0.058074687 -0.037878286 0.06418905 -0.013009005 0.102309845 0.032879476 0.056558065
0.031763826 0.019186059 0.0643944 -0.04114767 -0.043839306 -0.03715014 -0.010707038 0.023910444
0.060314998 -0.10076876 -0.010927098 -0.16014652 -0.007517293 0.021434538 -0.005675242 -0.014397595
-0.06641915 -0.11509253 -0.08241113 -0.05396031 0.047580965 0.04323786 0.018603278 -0.023011766
0.106070094 0.02317044 0.06652179 -0.039920673 -0.093286976 -0.028965676 0.028412346 -0.07104138
0.020984838 0.01933867 -0.068523884 0.015276984 0.015859924 -0.059323613 -0.020228472 -0.054644898
-0.0031363629 -0.04534683 -0.020433925 0.03573418 -0.008661293 0.05134113 -0.11270579 0.015767297
0.00782615 0.016447956 -0.0196141 -0.022594273 -0.05069411 -0.054640647 -0.040718608 0.08913958
0.032162514 -0.029356815 0.0040190215 0.011338488 -0.008792613 0.060295124 0.0634876 -0.06520005
0.12036019 -0.014559652 0.07470592 0.0022367125 -3.854749e-05 -0.056528896 -0.09820895 -0.036068615
0.015380449 0.019290445 0.033157773 0.041586816 -0.059005108 -0.11383552 -0.030995002 0.048914187
-0.029508917 -0.006651439 0.025371518 -0.10631772 -0.00039741493 -0.04817413 -0.022894975 -0.0050066323

fc2.weight f4 [84, 120]
00000000: bbf6 603d c77e a63d 6681 483d 146b 90bd
00000010: 0bd2 3d3d 7c6b fdbd 973b e0bd c537 20be
00000020: 140d a23c 63f4 a1bd 603b 0e3e 615f 02bd
00000030: 7000 90bd cd40 253d b160 49bd f1e1 5cbd
00000040: f307 be3d 27c6 923d edb4 01bc 9821 40be
00000050: eca9 c7bd becd 5e3d 9b17 8cbd 92de a73c
00000060: 334e e6bd 85d9 033e 9002 f63d 54b2 6dbc
00000070: e42f a3bc 1dd6 ee3d 2b90 f3bc dd52 66bd
00000080: a1a4 533d 6949 1e3d 52a6 e83d bae5 eabd
00000090: c91c 823d bed8 933d b0cf 1b3e 0c28 63be
000000a0: 8be6 c2bb 13fe 3fbe 1b04 c5bd d6df 22be
000000b0: e9ab 653e 9d9d 49be fb13 6fbd f659 4c3e
000000c0: ae91 9c3c 41d9 1abd bfb4 c93d 786b 993d
000000d0: 3637 753d cc73 54bd 89bb 62bd b83d 3e3e
000000e0: 41ae f3bd 6901 89be 464c 8f3d 4c3f a23b
000000f0: 87c0 c4bc ca9f 67bd 4a19 5c3d 287b 653d
00000100: 5b85 f0bd 9167 0d3c 325e 3cba bd4b cabd
00000110: f081 92bd 3b66 5c3c 7712 aebe 9d30 f13c
00000120: aecb 373d b13e a2bc 2194 803d ca76 073e
00000130: 3294 e1ba 8046 af3d a046 26be 1328 523d
00000140: afff 76bd 00fb 0abe 2e21 c93d 4d69 e7bd
00000150: bdf4 f83d 88cd 2f3d 6fbb 89bd c02d 04bb
00000160: b956 05be f210 e8bc 1b4c ab3d a59f 2d3d
00000170: f617 213c 2f01 4cbe 63bd 2e3e 9b06 4abd
00000180: 24b4 bc3d d043 d6bc f306 a4bc 3f50 e1bd
00000190: c8ec 3ebd e53d 5dbe a53f 1c3e 690d a8bc
000001a0: 9c55 b0bd 4f87 f4bc b11b 1a3e 9a0a adbb
000001b0: a46c f93c 16ca f83d 3c9f 0abd 2f95 cf3d
000001c0: 1b26 8cbd d824 083e bea3 6d3d 91fb 1c3e
000001d0: 1619 dfbc 6309 b33c 8499 3ebd 4952 c4bd
000001e0: eda0 293e 7879 edbd 6fde 27be 6de2 663c
000001f0: 19d1 5cbd db00 b1bc 0478 0cbe 1945 783d
00000200: e5b5 de3c b6e2 4ebd 5dc1 bc3d 93fe 793d
00000210: 0554 dc3c 121b 173d d587 2c3d d598 e1bd
00000220: 2f95 00be 89dc 3abd 317d 203c 864d 54bc
00000230: 90f5 6abd 3344 1fbe f3aa 623d ec43 a03d
00000240: 4c12 213e 4498 10be 858f 0dbe 2193 f3bd
00000250: c3db 92bd 8418 11bc 41bb 73be b3d2 7cbd
00000260: fcca 9fbd f464 9cbd de6b dcbd 2d8b c23d
00000270: 4d12 d3bd cc72 3f3d b88b ef3d 766e 09bd
00000280: f31f a13c e00b 743e a367 c03d 4250 fcbb
00000290: ae3a 093c ebaa 82bd 0e35 aebd 1a3a cabd
000002a0: 01ee cbbc 5ee5 d83c b925 0fbe 210a 953a
000002b0: 0f70 123d e8c7 1dbd 1352 90bc b198 a2bd
000002c0: a69a a5bd 8c9e 9cbd c2ad 5dbe 9783 5abc
000002d0: 00bc cb3d 9f7a 433c cc59 41bd 0895 783d
000002e0: 6786 21be aedb e13c 07f6 c0bd d3cb e33d
000002f0: 59fd 85bd df5c 72bd f814 0dbd c409 f8bc
00000300: 14af b9bd 4349 6abe 652f 8e3d 4099 0cbe
00000310: 0aa5 1b3b db70 a8bc 54c8 f03c c753 f8bd
00000320: f006 143e b4d0 82bd 1740 0f3d 9c3a 3cbd
00000330: 8a0a a03d 07aa 11be 7eb9 b23b f41e 2abe
00000340: 1986 753d aa68 e6bc d9f4 353e 33c5 083e
00000350: 36ab 5c3d 412f 84be bfd9 0abd 66d5 ca3d
00000360: 172a ad3d e95e 98be bdaa 90bc 91eb 15be
00000370: aa5f f13d 08d3 2ebe 02ea 5fbd 0252 1c3e
00000380: 8e1c 2e3d 4e12 e2bd 5e72 cd3d 047b 25be
00000390: c54e fd3d f20c 7a3d d8fe 26bc 4cfb eabd
000003a0: 0273 18bc f34b 153e 6e4d 8e3d 8cd7 6fbc
000003b0: 14e3 153e a16f cebd 2cb5 343d ccad 62be
000003c0: 9a39 e13d aa81 883c a1f1 6bbe 253c eebd
000003d0: 6031 75bc e7be 5abd 8966 b53d dc21 ed3d
000003e0: 352e 8e3c 33bc 673c a64b ea3d 9839 e63d
000003f0: 50eb e93b 0e59 82bb e378 163e b29e 83bd
0.0549228 0.081296496 0.04895153 -0.070516735 0.04634289 -0.12374017 -0.10948866 -0.15646274
0.019781627 -0.07907941 0.13889837 -0.03182924 -0.070313334 0.040345002 -0.049164478 -0.053926412
0.0927886 0.07166701 -0.007916671 -0.18762815 -0.09749207 0.05439543 -0.0684044 0.020491872
-0.11245384 0.12875946 0.120122075 -0.014507849 -0.019920297 0.116619326 -0.02973183 -0.05623137
0.051670674 0.038644228 0.11359848 -0.11469598 0.063531466 0.07219075 0.15215945 -0.22183245
-0.005947893 -0.18749265 -0.09619924 -0.15905699 0.2242886 -0.19689031 -0.058368664 0.19956192
0.019112434 -0.037804846 0.09848928 0.07491201 0.059867106 -0.051868245 -0.05535463 0.18578231
-0.11898471 -0.26758888 0.0699697 0.004951393 -0.024017585 -0.05654887 0.053735055 0.056025654
-0.117441855 0.008630649 -0.0007185667 -0.09877727 -0.0715369 0.013452108 -0.33998463 0.029442126
0.04487198 -0.019805284 0.06278253 0.13228908 -0.0017210303 0.08558369 -0.16237879 0.05130775
-0.060302433 -0.13572311 0.09820782 -0.112993814 0.12156055 0.04292062 -0.06725203 -0.002016887
-0.13021363 -0.028328393 0.08364125 0.042388577 0.009832373 -0.19922327 0.17064433 -0.049322706
0.092140466 -0.026155382 -0.020022845 -0.11001634 -0.04661253 -0.21605642 0.15258653 -0.020514207
-0.08610079 -0.029849676 0.15049626 -0.005280805 0.030447312 0.1214792 -0.033843264 0.101358764
-0.068432055 0.13295305 0.058017485 0.1533034 -0.027233642 0.021855062 -0.046533123 -0.09586007
0.16565295 -0.11595434 -0.16393445 0.01409207 -0.05391035 -0.021606853 -0.13717657 0.06061277
0.027186343 -0.050509177 0.092165686 0.061033797 0.026895532 0.03689105 0.042121727 -0.110154785
-0.12556909 -0.045620475 0.009795473 -0.012957936 -0.057363093 -0.1555336 0.05533881 0.07825455
0.15729636 -0.14120585 -0.1382428 -0.11893297 -0.071708225 -0.008855943 -0.238019 -0.061724376
-0.07802388 -0.07636443 -0.107627615 0.09499202 -0.10306225 0.04674034 0.11696571 -0.03355261
0.019668555 0.23832655 0.09394767 -0.007699997 0.008375807 -0.06380256 -0.08506213 -0.09874363
-0.024893763 0.026476558 -0.13979234 0.0011370817 0.0357514 -0.038520724 -0.017617261 -0.0793928
-0.080861375 -0.07647428 -0.21648315 -0.0133370375 0.099479675 0.011931091 -0.047204778 0.060689002
-0.15773927 0.027570572 -0.09421926 0.11122861 -0.06542463 -0.0591706 -0.034443825 -0.030278094
-0.090665966 -0.2287951 0.069426335 -0.13730335 0.0023749494 -0.020561626 0.029392399 -0.12125354
0.14455771 -0.06387463 0.03497323 -0.04595433 0.0781451 -0.14225017 0.0054542413 -0.1661337
0.05994234 -0.02812608 0.17769183 0.13356476 0.053874217 -0.25817302 -0.033899065 0.09903984
0.084552936 -0.2975991 -0.01765954 -0.14640643 0.117858246 -0.1707269 -0.054666527 0.15265658
0.0425077 -0.110386476 0.100315794 -0.16160208 0.1236854 0.0610475 -0.010192595 -0.11473712
-0.009304764 0.14579754 0.06948362 -0.014638793 0.14637405 -0.10079885 0.04411809 -0.22136611
0.10997315 0.016663391 -0.23041393 -0.116325654 -0.014965385 -0.053404715 0.08857448 0.11578724
0.017356018 0.014143991 0.1144021 0.11241454 0.007138647 -0.0039779013 0.14694552 -0.06426753

fc2.bias f4 [84]
00000000: 84d1 023d fa04 94bd 582b a2bd 668a 833d
00000010: c179 c33d c79a 0abe 9304 d93d 0682 19bd
00000020: 6ba8 19bd 9220 c13d f43d d63c dc0e 46bd
00000030: 5dd8 6f3d 5cac 77bc 8323 dc3d c807 b5bc
00000040: 1390 fe3c fd95 2fbc 973b 3a3d fbd8 223d
00000050: a9c3 9fbd fb27 003d 4d94 d0bd 1afd b83c
00000060: 7bc4 d6bb 83cc ecbb dddf 153e f814 99bd
00000070: 4abb 063e d2d3 2cbd 34c6 67bd 4cc1 703d
00000080: 9646 0d3e f462 de3c 7213 92bd bb1d 3a3d
00000090: 7dbe 3dbd 77c8 053e 6b64 133c cb39 a13d
000000a0: 8848 a0bd 1b74 683e de1a 88bd 5dd0 ac3c
000000b0: 3992 ac3c 5c3b 41bd 03a0 a0bd a4a4 e2bd
000000c0: a105 693d 2ac8 b33d 4cb4 e9bd da29 b13d
000000d0: 8c56 d83c ad71 c5bc 11c8 b9bd fee7 993c
000000e0: 30f7 0dbe ff44 bc3d aa29 923d 071b 673d
000000f0: 2635 19b8 0f7e d5bd 4de9 29bd 936a 9c3d
00000100: 5c65 ef3d 6704 8cbc 67c6 aabd e98d c83d
00000110: ca5b 04be 858b 403c 2936 f63a d472 bc3d
00000120: e339 8ebc f950 213c 3134 583d 053a 5cbd
00000130: 57eb 92bd 2538 323e 0b8a 713e bdf0 723d
00000140: 345d 3c3d 1303 90bd d028 b63d 9eca edbc
0.03193809 -0.07227512 -0.079184234 0.06422882 0.09544707 -0.13535605 0.105965756 -0.037477516
-0.03751413 0.094300404 0.026152588 -0.048354015 0.05855595 -0.015116777 0.10748961 -0.022098437
0.03107456 -0.010716912 0.045466986 0.03975771 -0.07800991 0.03128813 -0.10184536 0.022581626
-0.006554184 -0.007226528 0.14636178 -0.074747026 0.13157383 -0.042194195 -0.056585506 0.058778092
0.13796458 0.027146794 -0.07132615 0.04543851 -0.046324242 0.13064753 0.0089961095 0.07872351
-0.07826334 0.2270054 -0.066457495 0.02109545 0.021065818 -0.04717575 -0.0784302 -0.11066559
0.056890134 0.08778413 -0.11411342 0.08650561 0.026408456 -0.024102056 -0.09071363 0.01878738
-0.13863826 0.091928475 0.07136853 0.05642226 -3.652754e-05 -0.104244344 -0.04148226 0.07637515
0.11689255 -0.017091943 -0.083386235 0.09792692 -0.1292564 0.011752014 0.0018784452 0.09201589
-0.017361587 0.009845966 0.05278415 -0.05376627 -0.07173794 0.1740423 0.23587815 0.059311617
0.045987323 -0.07031836 0.08894503 -0.02902728

fc3.weight f4 [64, 84]
00000000: b68e cd3d 77ed a33c 688b 873e 3407 57be
00000010: 9a69 2cbe c596 273e 9598 28be a7e2 fc3c
00000020: 72e9 6f3e 0ed4 02be 7dc4 b5bd 92fb 9fbd
00000030: d2fd 4c3d 95ce 22bd e117 81bd cc9d 0ebe
00000040: cc15 35be c348 b33d 45b7 49be 2aa7 4bbe
00000050: 8c00 62bd ffff 0f3e 0cd6 adb8 8ca9 e43c
00000060: 5fb1 cd3d 794b b5bb f5b8 963c 10d5 7fbe
00000070: 8b0e 68be f006 0b3d 7163 93bd 292e a5ba
00000080: e112 a4bd ecf3 febc 3ce0 e63d 33a5 1d3d
00000090: 1e70 de3d e985 8b3d 4c3c e4bd 8b44 0ebe
000000a0: 5609 023d cfb9 d23b c364 db3d 97ee 2bbe
000000b0: 4d0d 0e3d 6439 8ebd f1d0 cb3d 4d21 42bd
000000c0: bfd3 babd d1f8 e1bd 2cb3 e53d a179 053e
000000d0: e2c9 84be a082 a3bd a543 ef3d 0048 64bc
000000e0: 6dc1 063d b8e0 59bd a969 f3bd 1294 9d3d
000000f0: f41d 0e3e 0874 41be fb92 033e 029b b23d
00000100: 11bd 17be 5bf1 1b3e 5f83 9abe d6af 24be
00000110: e522 91bb 1b13 80bc 8e68 06ba 810d 40be
00000120: f131 d5bb f0de efbd 2814 9f3d 8d04 5f3d
00000130: c104 a8bc 9a67 10bd f63a fcbc 795c 993d
00000140: 3b6a a13e b392 e13d e200 d4bb df5f e8bd
00000150: f785 5a3d aa12 acbc ac37 b6bd 59f5 26bd
00000160: b257 21be 4790 793d b409 76bd 4653 51bd
00000170: 0739 e73d 6a20 01be dedf 423d 5dce 973d
00000180: 8d4d c8bd ab17 59be 4f76 f83d c3ab b5bc
00000190: 144d 7f3e 8674 c2bd fa6a 7bbe 2b9a ec3c
000001a0: 7cf7 b13d 7f02 29be 14a5 2c3d e78d 9cbd
000001b0: 179a fd3d 78ec c23d 73d9 b2bc 15e7 99be
000001c0: 04ce b4bd 076e 47be 4460 19bd c731 683d
000001d0: 6aa6 453e 67c3 b6bd 5232 673d 8fdf 343e
000001e0: b2fb 603e bc6e 533e a124 063d 5e30 c7bc
000001f0: 776d 2dbe 6009 c5bd 99f4 50bd a171 85be
00000200: de38 13bd e116 56be 178a 72be a007 05bc
00000210: 56c7 f73d 4cb2 b73d 1972 b5bd ff29 c53d
00000220: 156a 9dbe fcd9 52be ecde 31be adec 14bd
00000230: cc93 9abd e525 2d3e 10d4 afbe 713d 363e
00000240: 5a52 8bbe 1376 e6bd 5d8e 76be f995 9e3d
00000250: 4243 bdbc db3c ab3a 499a 12be 214f 5bbe
00000260: 205d e1bd 71d2 62be be0b e23b ad31 ecbd
00000270: de40 99bd 8983 4ebe 4227 23be 3dbc e0bd
00000280: b034 f2bd 4dfe 01be 51e8 01bd 799e d73d
00000290: 5dad 143e 1700 4b3e 8b8d 5fbe 8efa 30bc
000002a0: 1bff a53d 241d dbbd a956 1dbe 80fa 30bd
000002b0: c2d8 003e b003 f83d 97f3 4c3e f032 19bd
000002c0: 4ccd d9bd 141c de3c 7c61 9bbd 44fb 913d
000002d0: 102a 49bc f842 31bb b8ad f3bd 92fa 813e
000002e0: b25e 623d 2b6e 60bc a7c9 d3bc 61af 8b3d
000002f0: 97b1 ba3d bc29 c6bc 4903 b0bc ed38 843c
00000300: b15e 99bc 3eb9 c93d d0ae 09bd 6646 b33d
00000310: 6d85 aabd ecdd 57be 8371 fabb db49 13be
00000320: 2aa7 6ebd 1c37 fbb9 2f6b 57be e61e a2bd
00000330: b9fd 563d 1303 a23c 1ce4 cfbb 6055 6fbc
00000340: c54d ebbd 7bfa 21be 5f8f b0bb 760f b53d
00000350: 0699 12bc d958 453d 2b99 ffbc 1d9c 26bd
00000360: 533f 823d c334 18be 7c96 babd 47db 20bc
00000370: af29 51bd 2000 c73c 24c7 c2bd 16d3 27bd
00000380: fd5e a93d 648e d8bc c43e fd3d da1a d1bb
00000390: 512d 5abd 119e 98bd 71b0 133d fe53 ab3d
000003a0: cf11 2b3e ee87 63be 00b7 1f3d bd49 303d
000003b0: 6c88 97bd 70e7 d63d e90f 0dbc 78cd c63d
000003c0: 99f2 7ebd bdcf 8dbe 3445 8ebd b0a5 43bc
000003d0: eb80 debc 0156 8b3d f28d 10be 3be9 e0bd
000003e0: 97a6 6cbe 2faa 0ebe 511e 8ebc 5480 063e
000003f0: 0157 c0bd 0e42 8b3e cc01 8c3e c42b 223e
0.100369856 0.020010693 0.26473546 -0.20998842 -0.16837159 0.16366108 -0.16464455 0.030869795
0.23428896 -0.12776205 -0.08875368 -0.07811655 0.05004675 -0.039747793 -0.06303383 -0.13927382
-0.17684096 0.087541126 -0.19698818 -0.19887987 -0.055176303 0.14062499 -8.289152e-05 0.027912878
0.100435965 -0.0055326787 0.018398741 -0.2498362 -0.22661798 0.033942163 -0.07196701 -0.0012602258
-0.08011413 -0.03112217 0.11273238 0.038487624 0.108612284 0.06812651 -0.11144313 -0.13893335
0.031747185 0.0064308415 0.10712578 -0.16790234 0.034680653 -0.0694454 0.09951962 -0.04739504
-0.091224186 -0.11033786 0.11215815 0.13034679 -0.25935274 -0.07983899 0.11682824 -0.013933182
0.03289931 -0.053192824 -0.118853875 0.07694258 0.13878614 -0.18891919 0.12849037 0.08720972
-0.14818217 0.15228789 -0.30178353 -0.16082701 -0.0044292086 -0.01563411 -0.0005127274 -0.18755151
-0.0065061976 -0.11712444 0.077675164 0.0544477 -0.02051008 -0.035255052 -0.030789834 0.07488341
0.3152636 0.11014309 -0.006469832 -0.11346411 0.053350415 -0.021004993 -0.08897337 -0.040761326
-0.1575611 0.06092861 -0.060067847 -0.051104806 0.11290174 -0.12610021 0.047576778 0.074124075
-0.09780417 -0.21200435 0.121319406 -0.022176629 0.24931747 -0.09494881 -0.24552527 0.028882107
0.08689782 -0.16504858 0.04214962 -0.07644253 0.12382906 0.09517759 -0.021832203 -0.30059114
-0.08828357 -0.19475566 -0.03744532 0.056688096 0.19301763 -0.08923989 0.056444474 0.17663406
0.21971014 0.2064771 0.032749776 -0.024315055 -0.16936289 -0.09620929 -0.051014517 -0.26063254
-0.035942905 -0.20907165 -0.2368549 -0.008119494 0.12098567 0.08969554 -0.08859653 0.09627151
-0.30744997 -0.20590967 -0.17370194 -0.036358524 -0.07547721 0.16908987 -0.34341478 0.17796876
-0.27211267 -0.112529896 -0.24077745 0.07743449 -0.02310336 0.0013064401 -0.14316668 -0.21416904
-0.1100409 -0.2215059 0.0068983724 -0.115329124 -0.074830756 -0.20167364 -0.15932944 -0.109734036
-0.118264556 -0.12694664 -0.031715695 0.10528273 0.14519258 0.19824253 -0.21831338 -0.010801924
0.08105298 -0.106989175 -0.1536509 -0.043207645 0.12582687 0.12110078 0.20014797 -0.037402093
-0.106348604 0.027112998 -0.07586953 0.07128003 -0.012278095 -0.0027047973 -0.118983686 0.25386482
0.05526609 -0.013698141 -0.025852991 0.0682056 0.09115904 -0.024189822 -0.021485941 0.016140426
-0.01872191 0.09849785 -0.03361398 0.08753662 -0.0832623 -0.2108075 -0.007642926 -0.14383642
-0.05826489 -0.0004791551 -0.21036981 -0.0791605 0.052488063 0.019776857 -0.0063443314 -0.014607757
-0.11489443 -0.15818207 -0.005388185 0.088408396 -0.008947616 0.048180435 -0.031200966 -0.040676225
0.063597344 -0.14863877 -0.09110734 -0.009817905 -0.051065143 0.024292052 -0.09510639 -0.04097279
0.08270071 -0.026435085 0.12365487 -0.006381375 -0.053265873 -0.07452024 0.03605694 0.083656296
0.16706012 -0.22219822 0.03899288 0.043039072 -0.07399067 0.10493362 -0.00860975 0.09707159
-0.062243078 -0.27697554 -0.06946793 -0.011941358 -0.027161082 0.06803513 -0.14116648 -0.10981985
-0.23110424 -0.13932107 -0.01734844 0.13134891 -0.09391595 0.27198833 0.2734512 0.15837008

fc3.bias f4 [64]
00000000: 9d6f 7ebc a975 a2bc 6911 c83d d4af b5bd
00000010: c3e1 1fbe b8f4 dfbd c226 4abd f1d0 013d
00000020: 82b5 e9bd ab89 253e 9059 6cbc 57bc 18bd
00000030: 4d62 12be 9c2a 163d d5db c83c 2110 7cbc
00000040: 495f b23d 757c d9bd d73d 8c3e ede6 0b3e
00000050: 88dd 1e3e 91d0 a63d 5cce e23d f54b edbd
00000060: 807c 603d f82c 58bd 6dc5 bebc a640 af3d
00000070: f327 3f3d 777c 38bd 854e b53d d929 373d
00000080: 6bae 67bc 733d 943d c4b8 ddbd 3588 c93d
00000090: b153 d03b e6e0 c1bc 14a6 063e 92c5 eabd
000000a0: 95ca 423d de11 71bd 33dc 61bd 66fa 363e
000000b0: 73de 97bb a0ed 3f3d 83eb 5ebc 3630 d8bd
000000c0: dfd5 ccbd 9777 8cbd 88dd a53d 528e dbbd
000000d0: 2f48 923a b551 163c d235 d6bc 5fbe 98bc
000000e0: eb31 0e3e 199e ab3d 1cc6 eb3d b4f1 d6bd
000000f0: ed61 1dbe c45f d3bd 62d5 ef3b 167e 11bd
-0.01552954 -0.019831495 0.09768946 -0.08871427 -0.15613465 -0.10935348 -0.04935337 0.031693403
-0.11411573 0.16165797 -0.01442565 -0.03728899 -0.14295311 0.03666173 0.024518887 -0.015384705
0.087095805 -0.106194414 0.2739093 0.1366231 0.15514195 0.0814525 0.11074516 -0.11586753
0.054806232 -0.05277726 -0.0232875 0.085572526 0.046668958 -0.045040574 0.08852867 0.044717643
-0.014140706 0.07238283 -0.10826257 0.098404326 0.006357633 -0.02366681 0.13149291 -0.11463465
0.04755648 -0.05885493 -0.05514164 0.17868957 -0.0046346723 0.046857476 -0.013605955 -0.105560705
-0.1000173 -0.068587475 0.08098894 -0.10720505 0.0011160428 0.009174754 -0.02614871 -0.018645464
0.1388623 0.08379764 0.11512396 -0.1049532 -0.15369387 -0.10321 0.0073191384 -0.035520636
