saved_models/FADA-few-shot-retraining/mnist/encoder_mnist_11.pt (torch_old, 197624 bytes, 10 tensors)

conv1.weight f4 [6, 1, 5, 5]
-0.001583871 0.076890804 -0.1596356 -0.11730276 -0.05529976 -0.02151896 -0.1523213 -0.013991923
-0.17792879 -0.0012768735 -0.0832918 0.033539854 -0.13487606 -0.20137583 0.117176004 -0.081701495
0.007210208 -0.122183815 -0.05951772 0.017743375 0.08695073 -0.053091127 -0.18753375 0.021724707
0.06528229 0.2630572 0.11820866 -0.01865891 0.0472001 -0.14514966 0.08107015 0.019521553
-0.22267175 -0.24218237 -0.14809532 -0.15627506 -0.06451826 -0.1508681 -0.1621462 -0.19233482
0.08823979 -0.18085654 -0.15397999 -0.09930235 -0.018615723 -0.08630573 0.09211304 -0.015911652
0.14181504 0.24651156 -0.29343355 -0.14279872 0.07713865 0.3803597 0.11151944 -0.3173584
0.13196458 0.59088373 0.39520684 -0.326076 -0.10505758 0.33584583 0.5902953 -0.24331538
-0.36412117 0.037315477 0.22370614 0.16207731 -0.2516291 -0.24446785 0.119091004 0.14697252
0.04203611 -0.2683751 0.024363482 0.14813443 0.024714444 -0.411131 -0.21990857 -0.06502872
0.34961766 0.29744205 -0.39626673 -0.3819635 -0.038821597 0.21213506 0.4759409 -0.32094708
-0.2742715 -0.34216097 -0.007054563 0.36504498 0.23304036 0.009768918 -0.30205998 0.17637172
0.39994425 0.45871243 0.36189994 0.03534491 0.3104161 0.45308283 0.25023752 -0.053390086
-0.013548248 0.29128116 0.45397675 0.48861253 0.23581438 0.073200986 -0.38229722 -0.29357624
0.08185065 -0.07541005 -0.07333941 -0.25439942 -0.46787134 -0.23614043 -0.13220811 -0.05284796
-0.39551824 -0.18560243 -0.29438484 -0.012919539 0.018353222 0.014561125 -0.015254625 -0.25854358
-0.22051957 -0.17368788 -0.06338936 -0.16808908 -0.32837307 -0.25852764 -0.20721324 -0.11460895
-0.3393151 -0.29299545 0.071258895 0.18524599 -0.052520495 0.11698951 0.33583432 0.3216044
0.24654739 0.29559156 0.46750674 0.33962837 0.15631789 -0.08747705
00000000: e499 cfba ed78 9d3d 8477 23be 6e3c f0bd
00000010: 0082 62bd 8848 b0bc 1dfa 1bbe 613e 65bc
00000020: f732 36be c45c a7ba e494 aabd 1661 093d
00000030: f31c 0abe 7735 4ebe f9f9 ef3d 1d53 a7bd
00000040: 9c43 ec3b 823b fabd dac8 73bd 8e5a 913c
00000050: 3913 b23d 1576 59bd d908 40be 03f8 b13c
00000060: b9b2 853d 6faf 863e 6217 f23d 92da 98bc
00000070: e454 413d 1da2 14be 1b08 a63d aaeb 9f3c
00000080: 1004 64be a8fe 77be 4da6 17be 9206 20be
00000090: 2622 84bd 2b7d 1abe a709 26be 6bf3 44be
000000a0: 10b7 b43d 7532 39be eeac 1dbe 085f cbbd
000000b0: 0080 98bc 0fc1 b0bd c3a5 bc3d 2759 82bc
000000c0: f637 113e 876d 7c3e ec3c 96be d439 12be
000000d0: defa 9d3d 82be c23e 4e64 e43d cd7c a2be
000000e0: b921 073e 2844 173f 8d58 ca3e 6ff3 a6be
000000f0: 6e28 d7bd fcf3 ab3e 981d 173f ab27 79be
00000100: 176e babe 1dd8 183d 3913 653e 98f7 253e
00000110: 88d5 80be c855 7abe fce5 f33d f77f 163e
00000120: 0e2e 2c3d 7668 89be ed95 c73c 8db0 173e
00000130: f275 ca3c c37f d2be b62f 61be c72d 85bd
00000140: 1601 b33e 534a 983e 79e3 cabe b890 c3be
00000150: 6503 1fbd ef39 593e 87ae f33e 2d53 a4be
00000160: 506d 8cbe b92f afbe f729 e7bb 2de7 ba3e
00000170: 22a2 6e3e d00d 203c 9ba7 9abe ca9a 343e
00000180: 7ec5 cc3e 5bdc ea3e f34a b93e d3c5 103d
00000190: dcee 9e3e 79fa e73e 221f 803e 90af 5abd
000001a0: 79f9 5dbc ce22 953e a46f e83e 6c2b fa3e
000001b0: 5379 713e 66ea 953d 76bc c3be a04f 96be
000001c0: 50a1 a73d 9670 9abd f932 96bd a440 82be
000001d0: d58c efbe ccce 71be 9061 07be 1a77 58bd
000001e0: 5e81 cabe 900e 3ebe 9cb9 96be 79ac 53bc
000001f0: 7f59 963c c991 6e3c 89ee 79bc d35f 84be
00000200: e2cf 61be 3cdb 31be 48d2 81bd 8b1f 2cbe
00000210: 8420 a8be bc5d 84be b52f 54be 19b8 eabd
00000220: b5ba adbe 8003 96be 2ff0 913d 20b1 3d3e
00000230: bb1f 57bd 3298 ef3d 7af2 ab3e 55a9 a43e
00000240: eb76 7c3e c757 973e 0b5d ef3e c5e3 ad3e
00000250: cc11 203e 2b27 b3bd

conv1.bias f4 [6]
-0.30519393 -0.12552543 0.08080809 0.14780971 -0.015104343 -0.08342447
00000000: 6142 9cbe bd89 00be b67e a53d 6e5b 173e
00000010: 3578 77bc 73da aabd

conv2.weight f4 [16, 6, 5, 5]
0.022036074 0.11341723 -0.058014028 -0.032284666 -0.008156079 -0.11111163 0.036077533 0.010723975
-0.020139512 -0.03861286 -0.07335165 0.015716996 0.02182828 -0.058846325 -0.07519633 -0.038047537
-0.24655543 -0.098587215 -0.12016577 -0.1977654 -0.07766603 -0.24003421 -0.31558728 -0.27421182
-0.16533975 0.07293161 0.023633454 -0.15360181 0.032453522 -0.041401338 0.03346251 -0.06647617
-0.043279372 0.05570126 -0.065986745 -0.085821904 -0.07393516 -0.02662492 -0.016138872 -0.23768462
-0.28248867 -0.198176 -0.15892585 -0.029498562 -0.18014252 -0.099007055 -0.24425815 -0.16362467
-0.28360054 -0.17531314 -0.15197667 -0.13256903 -0.0051430757 0.08887417 0.06836412 0.12422455
-0.041222718 0.11275906 -0.0012470948 0.00085230346 0.13262369 -0.039927237 0.08266866 -0.066503875
0.0529 -0.07176657 -0.14429137 -0.031316888 -0.085579365 0.1344351 -0.23940758 -0.21196084
-0.29391745 -0.15081498 0.20690806 -0.01672317 0.059447765 -0.08110791 0.016913597 0.0014922384
0.028746892 0.07532625 -0.1299747 -0.026002895 0.09879268 0.15170152 0.26013884 0.08563161
-0.069862284 -0.08963489 -0.05767598 0.27465075 0.1261383 0.019956918 -0.021399608 -0.29410222
-0.0843856 -0.007226552 -0.03194483 -0.073150404 0.0398591 -0.100815505 -0.38867202 -0.11176844
-0.124038726 -0.13362913 -0.19257347 0.0126152625 -0.010368663 -0.03729918 0.103061594 -0.17794782
-0.19323115 -0.08503845 -0.107362494 0.25777978 0.056561142 -0.04078677 -0.14191961 -0.09582204
0.10598857 0.23812366 0.22723481 0.1805488 0.07065192 -0.04089812 -0.014535759 0.016024947
-0.13646981 0.022097996 0.09730199 0.005590514 -0.060826845 -0.04283171 -0.047649752 0.053470902
0.084784865 0.041390173 0.08344633 -0.006500694 -0.12765612 -0.029454943 -0.01313823 0.12015096
0.1769466 -0.1532042 -0.15104781 0.02603864 -0.0049522044 -0.079791486 0.023292398 0.05272981
0.07647177 -0.030482573 0.033732183 -0.12606002 -0.06279198 -0.07540328 0.046105497 0.040301703
-0.04361143 -0.095766805 0.00426606 -0.052141253 0.049522713 -0.100232475 -0.28889635 -0.24551702
-0.16786303 -0.112819225 -0.07701347 -0.22916494 -0.15392838 -0.05821786 -0.0034735121 -0.0054494706
0.043423045 0.14771897 -0.0320281 0.004951548 -0.076645 0.11371986 -0.098333225 -0.060962096
0.015912397 -0.058618907 -0.111734316 -0.17149132 -0.14407748 0.030974904 -0.14432818 -0.39608008
-0.28791925 -0.1354789 -0.03154186 -0.12987396 -0.24395616 -0.20872203 -0.033789277 0.094138525
0.019157877 0.0148176635 -0.024835294 -0.046968363 0.016642464 0.12968205 0.20565972 0.20536959
-0.018285139 -0.08884361 0.08621093 0.07313012 0.16017666 -0.10056324 -0.023979062 -0.07430403
-0.068293765 -0.1468545 0.07174588 0.15344319 -0.1131337 -0.22190234 -0.17339616 0.045036513
0.029489452 0.06364606 0.09594975 -0.010149858 -0.008908505 0.010202307 0.0016983052 0.076330096
-0.17859387 -0.11141052 0.013646075 0.12564223 0.0760105 0.26264673 0.10737635 -0.03250377
0.112287246 0.19929643 0.23734607 0.086766176 -0.02148303 -0.06781646 0.14668687 0.010975399
-0.024399718 0.0066055977 0.100165986 -0.061508894 -0.10811413 0.05641005 0.09405267 0.11607533
00000000: ff84 b43c 4b47 e83d 1ea0 6dbd ed3c 04bd
00000010: 13a1 05bc 7f8e e3bd 09c6 133d 9cb3 2f3c
00000020: 9efb a4bc 8528 1ebd 6439 96bd eec0 803c
00000030: 39d1 b23c d808 71bd 8900 9abd bcd7 1bbd
00000040: 0779 7cbe 18e8 c9bd 7919 f6bd 0383 4abe
00000050: 5e0f 9fbd 87cb 75be a894 a1be 7e65 8cbe
00000060: d34e 29be 2b5d 953d f29a c13c cb49 1dbe
00000070: fced 043d 7394 29bd fc0f 093d a924 88bd
00000080: b645 31bd 0127 643d 0f24 87bd 65c3 afbd
00000090: 516b 97bd 811c dabc ab35 84bc 9963 73be
000000a0: 5ba2 90be a6ee 4abe 75bd 22be f8a6 f1bc
000000b0: 4877 38be 36c4 cabd cf1e 7abe 3a8d 27be
000000c0: 1734 91be 4a85 33be c69f 1bbe 2dc0 07be
000000d0: 3f87 a8bb a903 b63d 7d02 8c3d 7169 fe3d
000000e0: 27d9 28bd 39ee e63d 8f75 a3ba 1e6d 5f3a
000000f0: 81ce 073e be8a 23bd 304e a93d 2f33 88bd
00000100: acad 583d 5afa 92bd 1ec1 13be 2346 00bd
00000110: 3c44 afbd 5ba9 093e 4327 75be 430c 59be
00000120: 597c 96be 3e6f 1abe b5df 533e 08ff 88bc
00000130: 807f 733d e71b a6bd 628e 8a3c 3697 c33a
00000140: 9a7e eb3c a644 9a3d 1618 05be 0604 d5bc
00000150: d153 ca3d a557 1b3e eb30 853e a05f af3d
00000160: f513 8fbd 7f92 b7bd a63d 6cbd 069f 8c3e
00000170: 662a 013e b17c a33c 3b4e afbc 9194 96be
00000180: 5cd2 acbd b6cc ecbb 95d8 02bd e1cf 95bd
00000190: 4c43 233d 5c78 cebd 0500 c7be dae6 e4bd
000001a0: 0408 febd 13d6 08be fb31 45be 3fb0 4e3c
000001b0: 53e1 29bc 06c7 18bd f511 d33d f437 36be
000001c0: 63de 45be a428 aebd dee0 dbbd b6fb 833e
000001d0: a8ac 673d 0710 27bd 6053 11be 593e c4bd
000001e0: 8910 d93d b0d6 733e 3eb0 683e c9e1 383e
000001f0: f4b1 903d c984 27bd 6427 6ebc c046 833c
00000200: bebe 0bbe db06 b53c 4446 c73d a130 b73b
00000210: 9225 79bd 4e70 2fbd 632c 43bd 4e04 5b3d
00000220: b0a3 ad3d be88 293d e9e5 aa3d c603 d5bb
00000230: 49b8 02be 7e4b f1bc bb41 57bc b511 f63d
00000240: 7d31 353e 90e1 1cbe 47ac 1abe fc4e d53c
00000250: 1a46 a2bb b869 a3bd b3cf be3c 37fb 573d
00000260: 3b9d 9c3d 97b6 f9bc c22a 0a3d e115 01be
00000270: 1599 80bd 096d 9abd 1ed9 3c3d 6613 253d
00000280: e6a1 32bd 6321 c4bd 4eca 8b3b 1192 55bd
00000290: 54d8 4a3d af46 cdbd 39ea 93be d068 7bbe
000002a0: 49e4 2bbe c40d e7bd 3db9 9dbd 37aa 6abe
000002b0: 679f 1dbe da75 6ebd dda3 63bb 7991 b2bb
000002c0: 5ddc 313d a443 173e e62f 03bd 9840 a23b
000002d0: 0ef8 9cbd f5e5 e83d ee62 c9bd 64b3 79bd
000002e0: b75a 823c 611a 70bd f6d4 e4bd 6c9b 2fbe
000002f0: 0c89 13be 15bf fd3c c4ca 13be 02cb cabe
00000300: 276a 93be fbba 0abe 0a32 01bd aefd 04be
00000310: a5cf 79be 3abb 55be a066 0abd b3cb c03d
00000320: fbf0 9c3c c9c5 723c 6373 cbbc e661 40bd
00000330: c755 883c 5fcb 043e 7698 523e 684c 523e
00000340: b7ca 95bc a3f3 b5bd 5b8f b03d 3fc5 953d
00000350: 5a05 243e 1af4 cdbd bd6f c4bc b62c 98bd
00000360: 9add 8bbd 0761 16be 81ef 923d 3620 1d3e
00000370: a4b2 e7bd 5e3a 63be c38e 31be 3578 383d
00000380: dd93 f13c de58 823d 4d81 c43d 974b 26bc
00000390: faf4 11bc 9427 273c ab99 de3a f452 9c3d
000003a0: 50e1 36be 332b e4bd c993 5f3c 5ba8 003e
000003b0: 65ab 9b3d a279 863e 22e8 db3d ac22 05bd
000003c0: dbf6 e53d 5d14 4c3e d90a 733e 77b2 b13d
000003d0: 2efd afbc 5be3 8abd 1535 163e 29d2 333c
000003e0: ebe1 c7bc c573 d83b d323 cd3d c0f0 7bbd
000003f0: f16a ddbd 390e 673d b09e c03d e7b8 ed3d

conv2.bias f4 [16]
0.008677773 0.036989365 -0.08861947 0.04685497 -0.06400361 0.07596199 -0.050415248 -0.08250753
-0.0062370976 -0.057854593 -0.07553947 -0.08530836 -0.007815329 -0.040834896 -0.065610394 0.11774311
00000000: 382d 0e3c 2982 173d 207e b5bd ffea 3f3d
00000010: 5314 83bd f691 9b3d 3880 4ebd b5f9 a8bd
00000020: 9160 ccbb f0f8 6cbd 70b4 9abd 26b6 aebd
00000030: de0b 00bc 7e42 27bd be5e 86bd 4d23 f13d

fc1.weight f4 [120, 256]
-0.21621196 -0.05722502 0.09810422 0.02899852 -0.19102092 -0.32317612 -0.11388409 -0.32200018
-0.25675997 -0.0466346 -0.052882005 0.14944507 -0.12659574 -0.08673629 0.13301407 0.4398525
0.12231457 -0.16115491 -0.09403154 -0.010933233 -0.14564878 -0.3721229 -0.28545088 -0.01856026
-0.24593285 -0.13432772 -0.1285737 0.06146472 -0.028679308 -0.068466365 0.14306705 0.2874586
0.013979993 0.049532656 -0.07219282 -0.026797624 -0.031404167 0.12323031 -0.037758324 -0.09556368
0.25584167 0.017316215 -0.048230823 -0.26937202 0.17118049 0.07293353 -0.05702221 -0.2712069
0.037931375 0.0055228546 -0.0142110335 -0.08930255 -0.088204324 -0.34413382 -0.4332581 -0.4050585
-0.11563317 -0.072373405 0.04096916 0.20794034 0.025155775 0.03936364 0.23099267 0.3966534
0.10379879 0.036100335 0.0631963 0.07347874 -0.0579439 -0.11662833 -0.08677267 -0.064925626
-0.30202755 -0.24700539 -0.25955892 -0.32409093 -0.2755333 -0.008907166 -0.049692344 0.11403737
-0.076632224 0.12347243 0.100051135 0.049090058 0.02046253 0.15711112 0.10199594 0.06729171
-0.17733485 0.090494245 0.117814526 0.08781045 -0.010984806 0.2270267 -0.032263897 -0.06029815
-0.17446674 0.038145464 -0.042744216 0.017725546 -0.11781979 0.05679577 -0.08131942 0.06591126
-0.2842093 0.03601231 0.02367949 0.10688571 -0.10638731 -0.009538826 0.15884829 0.057210054
0.05723513 0.09723754 0.039838117 -0.080505736 0.17062256 0.1085837 -0.09093453 -0.061381925
0.11071612 -0.027197657 -0.059777524 -0.07083354 0.045302488 0.032291275 0.053606648 0.185796
-0.08311338 -0.021186 0.053844124 0.006774573 -0.041263986 -0.033495527 0.0025803824 0.06547449
-0.18924741 -0.22793655 0.05595441 0.018242685 -0.042112354 0.04460884 0.12097148 -0.051455073
0.016599696 0.17222655 -0.09459354 -0.021563284 0.052290145 0.05568501 -0.19730276 -0.14670141
0.09888598 0.030778082 -0.10643562 0.029502349 0.21589768 0.08133969 0.024931153 0.08998511
0.16720155 0.11732091 -0.07351079 -0.029811626 0.17673147 0.20326963 0.074932106 0.07187778
0.09668549 -0.00539203 0.05423428 0.10050342 0.059503097 0.014956008 -0.1186742 -0.17881455
-0.25582823 -0.16150177 -0.25386855 -0.08720823 -0.15750664 -0.15860036 -0.2066584 -0.19192366
-0.06448623 0.057746742 -0.09985091 0.029910617 0.081214994 0.060321756 0.027923064 0.25863925
-0.1080236 0.04148107 0.03016015 -0.06392179 0.05314186 -0.048963554 0.0016663831 0.021235874
-0.058268048 -0.014852016 -0.013891942 -0.11831171 0.18380176 0.00419416 -0.018182252 0.120180696
0.017310198 -0.022501525 -0.03741846 -0.05450682 0.03929976 0.03337152 -0.082777806 0.058315758
0.02746745 -0.0108421175 -0.007083731 0.3169512 0.053369965 0.018506937 0.097374745 0.11801616
-0.14077896 0.0546717 -0.017207123 -0.031396985 -0.03237238 -0.04950713 0.1362925 0.22328229
-0.09649248 0.04528912 0.24556753 0.022771886 -0.20018512 -0.07107783 0.058224227 -0.051961295
0.10666271 0.08207301 -0.0056053735 0.16140832 -0.18146233 -0.057305817 0.17077555 0.04070842
-0.102452524 -0.11718384 -0.009364435 -0.13179009 0.014846586 0.07849775 -0.003848454 -0.42328855
00000000: ab66 5dbe c864 6abd deea c83d 4e8e ed3c
00000010: fd9a 43be 5777 a5be 103c e9bd 35dd a4be
00000020: 0b76 83be ec03 3fbd cd9a 58bd 2108 193e
00000030: 50a2 01be cca2 b1bd d734 083e 5934 e13e
00000040: 1080 fa3d cb05 25be 9c93 c0bd 4e21 33bc
00000050: f424 15be e586 bebe 9e26 92be b00b 98bc
00000060: d2d5 7bbe 358d 09be d3a8 03be 6ec2 7b3d
00000070: def0 eabc 1838 8cbd 2b80 123e c62d 933e
00000080: 570c 653c c1e2 4a3d d4d9 93bd b186 dbbc
00000090: a8a1 00bd 2c60 fc3d 79a8 1abd e4b6 c3bd
000000a0: aefd 823e bcda 8d3c af8d 45bd 21eb 89be
000000b0: f049 2f3e 2d5e 953d 1f90 69bd a1db 8abe
000000c0: ee5d 1b3d 10f9 b43b 65d5 68bc 41e4 b6bd
000000d0: 78a4 b4bd 4f32 b0be 01d4 ddbe d463 cfbe
000000e0: 15d1 ecbd 8238 94bd 47cf 273d 50ee 543e
000000f0: 7c13 ce3c c53b 213d 5889 6c3e 2816 cb3e
00000100: 7694 d43d f2dd 133d 106d 813d 067c 963d
00000110: 9556 6dbd d5da eebd dfb5 b1bd baf7 84bd
00000120: 5ba3 9abe fbee 7cbe e8e4 84be 3fef a5be
00000130: b312 8dbe 5def 11bc 338a 4bbd 6d8c e93d
00000140: 5bf1 9cbd 1ddf fc3d 9ce7 cc3d a812 493d
00000150: 09a1 a73c bde1 203e 3fe3 d03d 3cd0 893d
00000160: 4497 35be 0c55 b93d be48 f13d f7d5 b33d
00000170: 9ef9 33bc b079 683e 2627 04bd 31fb 76bd
00000180: 69a7 32be 6b3e 1c3d 8f14 2fbd 2a35 913c
00000190: 814b f1bd aea2 683d cc8a a6bd 7cfc 863d
000001a0: e283 91be a581 133d 7dfb c13c e5e6 da3d
000001b0: 97e1 d9bd bc48 1cbc 20a9 223e 1755 6a3d
000001c0: 626f 6a3d 7a24 c73d 4b2d 233d 31e0 a4bd
000001d0: aeb7 2e3e 2261 de3d e23b babd 9d6b 7bbd
000001e0: 22bf e23d 9fcd debc 47d9 74bd 2d11 91bd
000001f0: 1a8f 393d db43 043d a592 5b3d 4e41 3e3e
00000200: 5937 aabd 438e adbc a88b 5c3d 3dfd dd3b
00000210: 6d04 29bd 9b32 09bd a21b 293b 7d17 863d
00000220: 13ca 41be 3368 69be 7430 653d af71 953c
00000230: 017e 2cbd c2b7 363d e5bf f73d 8ec2 52bd
00000240: 16fc 873c 285c 303e 42ba c1bd 7ca5 b0bc
00000250: 312e 563d f715 643d bc09 4abe e538 16be
00000260: bc84 ca3d 5122 fc3c ebfa d9bd e9ae f13c
00000270: 4814 5d3e 6c95 a63d 6b3c cc3c 1d4a b83d
00000280: e236 2b3e f245 f03d d38c 96bd 8337 f4bc
00000290: 18f9 343e ea25 503e 0176 993d a834 933d
000002a0: 0b03 c63d a0af b0bb c424 5e3d bdd4 cd3d
000002b0: 85b9 733d 0b0a 753c 750b f3bd 291b 37be
000002c0: ebfb 82be b860 25be 0ffb 81be 3a9a b2bd
000002d0: 6c49 21be 2268 22be 429e 53be a387 44be
000002e0: 5b11 84bd d987 6c3d a27e ccbd 1c07 f53c
000002f0: 0c54 a63d f213 773d e9be e43c 5d6c 843e
00000300: 7a3b ddbd 0ee8 293d 6b12 f73c 6de9 82bd
00000310: 47ab 593d 028e 48bd 8a6a da3a dbf6 ad3c
00000320: 7aaa 6ebd df55 73bc 079b 63bc 694d f2bd
00000330: 8736 3c3e 2a6f 893b f2f2 94bc 4c21 f63d
00000340: 1ece 8d3c 1e55 b8bc 1944 19bd 8b42 5fbd
00000350: c9f8 203d 93b0 083d 6987 a9bd 81dc 6e3d
00000360: 6b03 e13c 23a3 31bc a41e e8bb 6d47 a23e
00000370: 779a 5a3d dc9b 973c 696c c73d 75b2 f13d
00000380: 5c28 10be 6fef 5f3d f4f5 8cbc 209a 00bd
00000390: e798 04bd fdc7 4abd 4390 0b3e 1da4 643e
000003a0: d99d c5bd 1681 393d 0e76 7b3e 1b8c ba3c
000003b0: 54fd 4cbe 4191 91bd 877c 6e3d 5ed5 54bd
000003c0: fb71 da3d e515 a83d 48ad b7bb 3948 253e
000003d0: 43d1 39be 81b9 6abd c9df 2e3e dfbd 263d
000003e0: a1d2 d1bd 15fe efbd 4a6d 19bc fbf3 06be
000003f0: 183f 733c 6ec3 a03d 5836 7cbb 47b9 d8be

fc1.bias f4 [120]
-0.007237934 -0.00493189 0.12275377 -0.05049894 -0.055134933 0.071042776 0.022835195 -0.0019105134
0.03848769 0.07949362 -0.034974825 0.019321436 -0.086005814 0.027476804 0.03544336 0.076493144
-0.052169874 -0.010271053 -0.019392582 -0.047580045 0.03762875 0.061881445 0.033585586 0.046544004
-0.0022357954 0.054954037 -0.020777198 0.041848745 -0.000593782 0.09557518 0.017336657 0.055158556
0.052098326 0.010312905 0.06903122 -0.0415327 -0.017773429 -0.034745045 0.0035980279 0.036253355
0.06521844 -0.08004081 -0.02327194 -0.16530967 0.017045608 0.027999057 -0.005675242 0.0060083317
-0.029819956 -0.14496806 -0.101540804 -0.049066603 0.034407612 0.04323786 0.00015443204 -0.032807685
0.096893765 0.045155913 0.066864856 -0.039920673 -0.06339785 -0.026840262 0.005382759 -0.07104138
0.047715377 0.014269696 -0.0643341 -0.005269896 0.021346658 -0.059323613 -0.01815432 -0.054644898
-0.0031363629 -0.045127448 -0.0030560617 0.043852616 -0.019481054 0.04384668 -0.08056316 -0.03938812
-0.023155397 0.013180011 -0.0026815783 0.044239473 -0.055383734 -0.07556142 -0.061495382 0.11280737
0.024044774 -0.03317807 0.02511723 0.0065039927 -0.010626549 0.061753 0.057262678 -0.06520005
0.13927388 -0.005022649 0.08984957 0.019862115 0.007951311 -0.050397497 -0.11972002 -0.025753796
0.06626395 0.018942859 0.009295136 0.062064752 -0.07566196 -0.08689807 -0.030995002 0.06143482
-0.013263944 0.007159983 -0.0067552533 -0.07002314 0.004013081 -0.04817413 -0.04522859 -0.0029704818
00000000: 312c edbb b19b a1bb 5466 fb3d fad7 4ebd
00000010: 2bd5 61bd e07e 913d e010 bb3c 316a faba
00000020: 45a5 1d3d 8dcd a23d c341 0fbd fd47 9e3c
00000030: d123 b0bd 0917 e13c 0f2d 113d 70a8 9c3d
00000040: 14b0 55bd eb47 28bc 31dd 9ebc 4be3 42bd
00000050: 9b20 1a3d 6677 7d3d 0a91 093d eda4 3e3d
00000060: 6c86 12bb 7c17 613d f134 aabc 9769 2b3d
00000070: 09a8 1bba ecbc c33d 9b05 8e3c f0ed 613d
00000080: 0e65 553d 75f7 283c 3e60 8d3d 311e 2abd
00000090: 9599 91bc d250 0ebd e4cc 6b3b 667e 143d
000000a0: 3f91 853d 70ec a3bd cca4 bebc f046 29be
000000b0: 3ba3 8b3c 475e e53c 61f7 b9bb 8ae1 c43b
000000c0: fb48 f4bc 8272 14be a0f4 cfbd 10fa 48bd
000000d0: ffee 0c3d 2f1a 313d 09ef 2139 5a61 06bd
000000e0: 3d70 c63d 68f5 383d 71f0 883d dc83 23bd
000000f0: bbd6 81bd 1ce0 dbbc db61 b03b 257e 91bd
00000100: 3371 433d 71cb 693c 99c1 83bd 17af acbb
00000110: 30df ae3c 51fd 72bd 5eb8 94bc 54d3 5fbd
00000120: 708b 4dbb 8fd7 38bd 3548 48bb cd9e 333d
00000130: bb96 9fbc 9498 333d 4cfe a4bd 7055 21bd
00000140: 63b0 bdbc f9f0 573c 6bbd 2fbb 7334 353d
00000150: 0eda 62bd f2bf 9abd 95e2 7bbd 8d07 e73d
00000160: 8cf9 c43c bae5 07bd a6c2 cd3c 721f d53b
00000170: fa1a 2ebc b7f0 7c3d 458c 6a3d 9b87 85bd
00000180: d09d 0e3e 0995 a4bb 0d03 b83d e0b5 a23c
00000190: 3746 023c 9b6d 4ebd c52f f5bd a0f9 d2bc
000001a0: 65b5 873d 0e2e 9b3c a04a 183c 9c37 7e3d
000001b0: a8f4 9abd 9ef7 b1bd 3be9 fdbc 14a3 7b3d
000001c0: 0351 59bc 4a9e ea3b 2c5b ddbb 4b68 8fbd
000001d0: 2a80 833b 3d52 45bd 9d41 39bd 6aac 42bb

fc2.weight f4 [84, 120]
0.040643312 0.081296496 0.04407293 -0.08694633 0.04634289 -0.12939684 -0.11368468 -0.16962995
0.011867971 -0.07781004 0.10547638 -0.0376649 -0.070313334 0.023063095 -0.03191147 -0.07390623
0.031224618 0.07166701 -0.007916671 -0.1884899 -0.080701225 0.044925448 -0.0684044 0.016527563
-0.14627035 0.11836117 0.100055404 -0.008592805 -0.033930145 0.11062113 -0.053718373 -0.09551472
0.019739546 0.038641278 0.114636116 -0.04714284 0.027455505 0.0616504 0.11922578 -0.23163229
-0.028111635 -0.18433802 -0.114135444 -0.16319574 0.21008451 -0.15932634 -0.058368664 0.20117448
0.0021209193 -0.05833268 0.07540587 0.04818445 0.08863482 -0.051868245 -0.055358987 0.16739696
-0.12004301 -0.24781577 0.05710038 0.004951393 -0.070655964 -0.045063514 0.049891423 0.056025654
-0.13757688 0.008630649 -0.039260034 -0.10414517 -0.062463447 0.013452108 -0.3118523 0.029442126
0.04487198 -0.017114198 0.027175551 0.119185284 0.04903014 0.06404445 -0.20948513 0.008003163
-0.073004514 -0.14621201 0.08993811 -0.09782819 0.09022157 0.021952877 -0.099227995 -0.010391478
-0.15440512 -0.071437 0.061728425 0.03106175 0.01652215 -0.20020044 0.15528354 -0.049322706
0.089539066 -0.030664979 -0.017352795 -0.110336654 -0.0629168 -0.21372716 0.090587795 -0.02836422
-0.09444371 -0.026197089 0.13016948 -0.009601721 -0.006460925 0.07448361 -0.033843264 0.089819096
-0.06378526 0.08530187 0.03756096 0.091460064 -0.033660647 0.021855062 -0.04723505 -0.073788404
0.16449445 -0.11595434 -0.15887448 0.045198362 -0.05391035 -0.03197387 -0.15755591 0.043326735
0.0015468334 -0.073208556 0.07809615 0.057215396 0.026895532 0.016479112 0.014853718 -0.11972644
-0.078094214 -0.045620475 0.009795473 -0.0020918094 -0.07814247 -0.14527866 0.05533881 0.024811422
0.15698808 -0.113740675 -0.10447701 -0.11350419 -0.039313667 0.0108271185 -0.19389848 -0.06902668
-0.061392 -0.010360626 -0.09570928 0.07166014 -0.037115023 0.047527853 0.15855621 -0.049190998
-0.0021462876 0.19883007 0.08028912 -0.0033836602 -0.0057842773 -0.09880768 -0.08506213 -0.06219524
-0.09006906 -0.005469907 -0.08569721 0.037479773 0.026234653 -0.038520724 -0.03421872 -0.06860804
-0.06167189 -0.10591026 -0.2412706 -0.0133370375 0.08965339 0.011931091 0.015335418 0.060689002
-0.17728628 0.027570572 -0.044256683 0.09810333 -0.091573425 -0.0591706 -0.030123817 -0.030278094
-0.090665966 -0.19399801 0.11318524 -0.067268506 -0.007893804 -0.0042825625 0.007217896 -0.0654642
0.121130906 -0.08290838 0.048598003 -0.05640693 0.1550368 -0.15395486 0.0007841082 -0.14690548
0.077359654 -0.06899122 0.17802016 0.1100843 0.10178335 -0.26148775 -0.05063723 0.09903984
0.072882764 -0.29399928 0.00049614365 -0.13373823 0.10321922 -0.18243892 0.016581273 0.18328874
0.032175977 -0.08030915 0.18833981 -0.17393023 0.18872996 0.015443997 -0.010192595 -0.07349949
0.0073467474 0.21595049 0.038360108 0.051645674 0.12907434 -0.10079885 0.043349333 -0.19775291
0.088987365 0.016663391 -0.27359343 -0.13004766 -0.014965385 -0.06556649 0.04703448 0.09700032
0.00084212126 -0.0064126505 0.11060711 0.10961057 0.007138647 -0.034954656 0.13209397 -0.08268064
00000000: 9a79 263d c77e a63d d185 343d eb10 b2bd
00000010: 0bd2 3d3d 9b80 04be 83d3 e8bd 79b3 2dbe
00000020: e171 423c df5a 9fbd 0004 d83d 8346 1abd
00000030: 7000 90bd d1ee bc3c 9ab5 02bd 265c 97bd
00000040: c5ca ff3c 27c6 923d edb4 01bc 7f03 41be
00000050: af46 a5bd bf03 383d 9b17 8cbd d064 873c
00000060: e5c7 15be 5767 f23d d9e9 cc3d d6c8 0cbc
00000070: 56fa 0abd 558d e23d cc07 5cbd 399d c3bd
00000080: d4b4 a13c 5146 1e3d 57c6 ea3d da18 41bd
00000090: 5eea e03c 2185 7c3d a52c f43d 0431 6dbe
000000a0: 5f4a e6bc 1bc3 3cbe d8bf e9bd c91c 27be
000000b0: 6520 573e 7226 23be fb13 6fbd af00 4e3e
000000c0: 1fff 0a3b 40ee 6ebd 656e 9a3d 0f5d 453d
000000d0: 2c86 b53d cc73 54bd 1bc0 62bd 1c6a 2b3e
000000e0: 1cd9 f5bd 6bc3 7dbe 17e2 693d 4c3f a23b
000000f0: 13b4 90bd 8594 38bd f35a 4c3d 287b 653d
00000100: f4e0 0cbe 9167 0d3c 21cf 20bd 104a d5bd
00000110: acd9 7fbd 3b66 5c3c 1bab 9fbe 9d30 f13c
00000120: aecb 373d 1333 8cbc 439f de3c 6a17 f43d
00000130: d4d3 483d bd29 833d 4583 56be b31f 033c
00000140: 6483 95bd 9ab8 15be 7931 b83d 255a c8bd
00000150: 16c6 b83d 85d6 b33c 0c38 cbbd 0541 2abc
00000160: 601c 1ebe 904d 92bd f2d6 7c3d 3675 fe3c
00000170: 7659 873c 5801 4dbe a602 1f3e 9b06 4abd
00000180: 4260 b73d 1f35 fbbc 7327 8ebc 2ff8 e1bd
00000190: 86da 80bd 4bdb 5abe 1886 b93d 155c e8bc
000001a0: b46b c1bd 479b d6bc 264b 053e 8950 1dbc
000001b0: 2bb6 d3bb dd8a 983d 3c9f 0abd 13f3 b73d
000001c0: d9a1 82bd bfb2 ae3d 85d9 193d 6a4f bb3d
000001d0: bfdf 09bd 6309 b33c 8a79 41bd 601e 97bd
000001e0: 3c71 283e 7879 edbd feaf 22be eb21 393d
000001f0: 19d1 5cbd 08f7 02bd 5656 21be 6077 313d
00000200: 1ebf ca3a 5eee 95bd e0f0 9f3d b15a 6a3d
00000210: 0554 dc3c 34ff 863c 025d 733c 2333 f5bd
00000220: dcef 9fbd 89dc 3abd 317d 203c bd16 09bb
00000230: 2909 a0bd eec3 14be f3aa 623d 5341 cb3c
00000240: 7cc1 203e dff0 e8bd 0bf8 d5bd e374 e8bd
00000250: 5e07 21bd 3a64 313c 538d 46be dc5d 8dbd
00000260: 2e76 7bbd 9dbf 29bc 3a03 c4bd 8dc2 923d
00000270: ec05 18bd 91ac 423d 8f5c 223e 807c 49bd
00000280: bba8 0cbb 1c9a 4b3e 9f6e a43d 66c0 5dbb
00000290: 098a bdbb ae5b cabd 0e35 aebd 70c0 7ebd
000002a0: 2176 b8bd e83c b3bb 0582 afbd 6484 193d
000002b0: 0eea d63c e8c7 1dbd ee28 0cbd 5f82 8cbd
000002c0: aa9b 7cbd 7ae7 d8bd a40f 77be 9783 5abc
000002d0: 329c b73d 9f7a 433c 6841 7b3c 0895 783d
000002e0: 898a 35be aedb e13c 7f46 35bd 66ea c83d
000002f0: d98a bbbd df5c 72bd 39c6 f6bc c409 f8bc
00000300: 14af b9bd 6aa7 46be aacd e73d 12c4 89bd
00000310: 0455 01bc bd54 8cbb 1a84 ec3b 1812 86bd
00000320: 7b13 f83d decb a9bd b30e 473d f40a 67bd
00000330: f8c1 1e3e 58a6 1dbe 9c8c 4d3a 646e 16be
00000340: bd6e 9e3d 454b 8dbd eb4a 363e e173 e13d
00000350: ca73 d03d b9e1 85be fc68 4fbd 66d5 ca3d
00000360: 8f43 953d 1387 96be a30f 023a adf2 08be
00000370: 9964 d33d 45d1 3abe 73d5 873c 0bb0 3b3e
00000380: f5ca 033d 2079 a4bd 27dc 403e c41a 32be
00000390: 6d42 413e d208 7d3c d8fe 26bc e786 96bd
000003a0: fcbc f03b 2022 5d3e 7d1f 1d3d 6a8a 533d
000003b0: 102c 043e a16f cebd 128f 313d bd7f 4abe
000003c0: 023f b63d aa81 883c 7014 8cbe 372b 05be
000003d0: 6031 75bc b947 86bd 3aa7 403d 1ba8 c63d
000003e0: cdc1 5c3a 3621 d2bb fb85 e23d 827b e03d
000003f0: 50eb e93b 9d2c 0fbd a443 073e 7854 a9bd

fc2.bias f4 [84]
0.021914307 -0.08078225 -0.106557325 0.09478311 0.101000965 -0.140584 0.110523365 -0.055146202
-0.043854304 0.063884325 0.08856275 -0.05159974 -0.010484173 -0.017722873 0.106258295 -0.033094164
0.035971425 -0.05187222 0.019296108 0.0523445 -0.07800991 0.029089889 -0.10184536 -0.019369561
0.0033296873 -0.009458712 0.15403049 -0.041646577 0.15092047 -0.042873554 -0.0777802 0.055283435
0.1702153 -0.05152948 -0.09298458 0.035509393 -0.050662916 0.10508038 0.018959183 0.07216712
-0.057692856 0.21191067 -0.066457495 0.048617966 0.010570597 -0.045594465 -0.063205704 -0.11066559
0.031713534 0.08538845 -0.089304656 0.11458715 0.0007081451 -0.012895587 -0.09242277 -0.084116496
-0.13863826 0.08671412 0.06058626 0.08655015 -0.00066065695 -0.09193694 -0.021010887 0.07871332
0.12791768 -0.0025418287 -0.091483675 0.09327372 -0.14087217 -0.010607211 -0.010465532 0.09532594
-0.020201454 0.008422102 0.065415815 -0.042578522 -0.033902325 0.18162546 0.21800132 -0.041980144
0.03014526 -0.07037944 0.08988242 -0.02180804
00000000: a285 b33c 2a71 a5bd ba3a dabd a61d c23d
00000010: 98d9 ce3d 41f5 0fbe 135a e23d fce0 61bd
00000020: 92a0 33bd c9d5 823d 6360 b53d 405a 53bd
00000030: cfc5 2bbc 8f2f 91bc f39d d93d bf8d 07bd
00000040: c656 133d f777 54bd df12 9e3c 3067 563d
00000050: a9c3 9fbd eb4d ee3c 4d94 d0bd eaac 9ebc
00000060: e236 5a3b b7f8 1abc 2bba 1d3e 9a95 2abd
00000070: e58a 1a3e 2e9c 2fbd 3a4b 9fbd e270 623d
00000080: eb4c 2e3e 9310 53bd b36e bebd 4c72 113d
00000090: eb83 4fbd 6234 d73d 4a50 9b3c 5bcc 933d
000000a0: 584f 6cbd 1cff 583e de1a 88bd a223 473d
000000b0: 4c30 2d3c 43c1 3abd fe71 81bd a4a4 e2bd
000000c0: 0de6 013d 24e0 ae3d 5ce5 b6bd abac ea3d
000000d0: d0a2 393a 0348 53bc 2648 bdbd 4545 acbd
000000e0: 30f7 0dbe 2c97 b13d 4c29 783d 3441 b13d
000000f0: f02f 2dba 6f49 bcbd 061f acbc 7334 a13d
00000100: dafc 023e cf94 26bb cb5b bbbd 4b06 bf3d
00000110: cb40 10be dec9 2dbc 9f77 2bbc 3f3a c33d
00000120: 857d a5bc dbfc 093c baf8 853d d166 2ebd
00000130: 2add 0abd 06fc 393e bd3b 5f3e 5ff3 2bbd
00000140: 31f3 f63c 1923 90bd 4614 b83d c6a6 b2bc

fc3.weight f4 [64, 84]
0.103869624 0.021743344 0.264543 -0.1782991 -0.14874628 0.15219374 -0.19008903 0.02980359
0.23702288 -0.105509 -0.108289085 -0.06844135 0.0050353627 -0.0392937 -0.08291731 -0.1231558
-0.18975617 0.05125538 -0.19512083 -0.2015409 -0.055176303 0.15015358 -8.289152e-05 -0.044649813
0.08440156 -0.03927922 -0.019334354 -0.23679127 -0.22263046 0.07312304 -0.0591466 0.024352042
-0.10470823 -0.042044353 0.104076505 0.033966314 0.09352892 0.07321736 -0.1252047 -0.15122561
0.027200872 0.0059617283 0.10712578 -0.18830441 0.029668793 -0.08475701 0.096689135 -0.04739504
-0.105492994 -0.12495209 0.10953388 0.1412189 -0.21802078 -0.06657758 0.09915615 0.06975111
0.03289931 -0.07432326 -0.12662219 0.061628167 0.13625935 -0.20801222 0.14082292 0.09306983
-0.1546668 0.13602109 -0.2435141 -0.18506435 -0.008652626 -0.010567033 0.0018757296 -0.17828925
-0.017554987 -0.10390173 0.07890384 0.07571643 -0.025855023 -0.046199497 -0.03070292 0.062336642
0.29342675 0.08148824 0.0070479442 -0.10550568 0.06878162 0.03526444 -0.03870274 -0.03430663
-0.17544326 0.040071372 -0.034505486 -0.018658154 0.11973537 -0.11340093 0.050256215 0.09012726
-0.06519249 -0.19522017 0.13816968 0.024459435 0.27301186 -0.06275274 -0.21171455 0.06467607
0.08689782 -0.12812853 0.04214962 -0.013287736 0.14749156 0.12037591 0.007981826 -0.31348765
-0.06962248 -0.17463331 0.006945926 0.072847486 0.20398982 -0.050418023 0.07499046 0.21044293
0.21854961 0.2106772 0.06212938 0.018539516 -0.15088284 -0.084718406 -0.051014517 -0.20094334
-0.01095075 -0.16445217 -0.21874706 -0.008119494 0.12862568 0.15218112 -0.07517199 0.09088682
-0.30178463 -0.19197991 -0.12174294 -0.08942598 -0.07547721 0.19903739 -0.27360797 0.19088627
-0.23398115 -0.09827527 -0.22190027 0.08982663 0.012121786 0.04162063 -0.11640725 -0.15949869
-0.055396833 -0.1821134 0.065309525 -0.08598687 -0.059522618 -0.16896127 -0.14847499 -0.042134482
-0.13766722 -0.12484306 -0.0022405772 0.13967544 0.17083392 0.22442323 -0.1710458 -0.019499745
-0.00428335 -0.14232904 -0.19958806 0.03391296 0.18986294 0.12847279 0.24154001 -0.03753732
-0.17917097 0.04271065 -0.035540547 0.11390426 0.0102755055 0.04540342 -0.08963079 0.17358676
0.06622899 0.021672428 0.02996541 0.10389605 0.09115904 -0.07630601 -0.021485941 0.018868249
-0.10133588 0.10071799 -0.0026986317 0.18487394 -0.027180003 -0.20731537 0.028482106 -0.1929375
-0.041131288 0.022362145 -0.29646286 -0.07020982 -0.043224372 0.055070173 0.016998205 -0.013287928
-0.11161926 -0.12646967 -0.005388185 0.10500522 -0.10140213 0.032951333 -0.028347783 -0.040676225
0.021171922 -0.14166774 -0.09895515 0.006095427 0.04254225 0.04170213 -0.079595864 -0.0073350645
0.08270071 -0.042472787 0.15587349 -0.038146377 -0.07636732 -0.01756706 0.015097926 0.06564285
0.15689728 -0.19536017 0.15806025 0.04894943 -0.053686123 0.111549936 -0.019155946 0.15894902
-0.059188534 -0.22967444 -0.085374594 -0.02159665 0.025309218 0.112217456 -0.11887509 -0.103532046
-0.23425755 -0.13036555 -0.008357864 0.17117253 -0.027478246 0.27720103 0.27205226 0.13571447
00000000: 99b9 d43d 191f b23c 2e72 873e 0a94 36be
00000010: f250 18be add8 1b3e b3a6 42be a926 f43c
00000020: 20b6 723e 1a15 d8bd abc6 ddbd fa2a 8cbd
00000030: afff a43b 6ef2 20bd 8dd0 a9bd 1c39 fcbd
00000040: 714f 42be 29f1 513d c1cd 47be bd60 4ebe
00000050: 8c00 62bd dcc1 193e 0cd6 adb8 b9e2 36bd
00000060: bada ac3d 3fe3 20bd 1463 9ebc 6979 72be
00000070: 3df9 63be 88c1 953d b543 72bd ef7d c73c
00000080: 4571 d6bd b336 2cbd 1026 d53d 4320 0b3d
00000090: 178c bf3d fcf2 953d a935 00be e3da 1abe
000000a0: 5dd4 de3c 9a5a c33b c364 db3d dfd2 40be
000000b0: f80b f33c 1595 adbd f404 c63d 4d21 42bd
000000c0: b60c d8bd e2e6 ffbd 4d53 e03d b09b 103e
000000d0: d740 5fbe d459 88bd 6112 cb3d acd9 8e3d
000000e0: 6dc1 063d cb36 98bd 3fa9 01be d16d 7c3d
000000f0: 9287 0b3e 2801 55be e233 103e 659b be3d
00000100: f960 1ebe 1d49 0b3e c35b 79be 8281 3dbe
00000110: bec3 0dbc 5921 2dbc 0bdb f53a 7591 36be
00000120: 7acf 8fbc 6eca d4bd 5698 a13d 3711 9b3d
00000130: eacd d3bc af3b 3dbd b184 fbbc b554 7f3d
00000140: 083c 963e 4ee3 a63d 71f2 e63b 5d13 d8bd
00000150: 61dd 8c3d 7271 103d c486 1ebd 1c85 0cbd
00000160: 66a7 33be e121 243d a055 0dbd fcd8 98bc
00000170: d137 f53d bf3e e8bd 76d9 4d3d a494 b83d
00000180: a483 85bd cce7 47be 5a7c 0d3e 275f c83c
00000190: 36c8 8b3e 8284 80bd b3cb 58be e374 843d
000001a0: 7cf7 b13d 2034 03be 14a5 2c3d ceb4 59bc
000001b0: 0708 173e a587 f63d 34c6 023c 7481 a0be
000001c0: 3b96 8ebd 13d3 32be a79a e33b 1031 953d
000001d0: b5e2 503e 2183 4ebd 9994 993d 5a7e 573e
000001e0: 78cb 5f3e c4bb 573e 607b 7e3d 2fe0 973c
000001f0: 0881 1abe d880 adbd 99f4 50bd 17c4 4dbe
00000200: c66a 33bc 2666 28be 3bff 5fbe a007 05bc
00000210: 73b6 033e 5ed5 1b3e c6f3 99bd de22 ba3d
00000220: 8483 9abe 6296 44be 5d54 f9bd f824 b7bd
00000230: cc93 9abd 75d0 4b3e 5816 8cbe b177 433e
00000240: c198 6fbe 8b44 c9bd d339 63be 06f7 b73d
00000250: 759a 463c 657a 2a3d ed66 eebd a053 23be
00000260: cae7 62bd ef7b 3abe 00c1 853d e219 b0bd
00000270: fdcd 73bd 2f04 2dbe d409 18be 3595 2cbd
00000280: a3f8 0cbe b8ad ffbd a6d6 12bb 1407 0f3e
00000290: 16ef 2e3e 34cf 653e a126 2fbe eebd 9fbc
000002a0: 585b 8cbb b4be 11be d060 4cbe 51e8 0a3d
000002b0: 6e6b 423e 5f8e 033e 4456 773e bcc0 19bd
000002c0: 9878 37be 5df1 2e3d f792 11bd a346 e93d
000002d0: 985a 283c f0f8 393d 5990 b7bd bac0 313e
000002e0: 11a3 873d 608a b13c 057a f53c 74c7 d43d
000002f0: 97b1 ba3d 5346 9cbd 4903 b0bc 9691 9a3c
00000300: 3089 cfbd 3c45 ce3d 87db 30bb 984f 3d3e
00000310: 99a8 debc 7b4a 54be 4e53 e93c 6891 45be
00000320: 4879 28bd d130 b73c fbc9 97be 2bca 8fbd
00000330: 0a0c 31bd 4391 613d d23f 8b3c 9cb5 59bc
00000340: a398 e4bd 4481 01be 5f8f b0bb fa0c d73d
00000350: ecab cfbd faf7 063d 9c39 e8bc 1d9c 26bd
00000360: bd70 ad3c 5911 11be ffa8 cabd 26bc c73b
00000370: c840 2e3d dacf 2a3d 2803 a3bd fb5a f0bb
00000380: fd5e a93d f2f7 2dbd 4d9d 1f3e 603f 1cbd
00000390: 7866 9cbd cce8 8fbc 4b5d 773c c26f 863d
000003a0: aea9 203e 7f0c 48be 8cda 213e 337f 483d
000003b0: fbe5 5bbd 4b74 e43d eeec 9cbc 88c3 223e
000003c0: ad6f 72bd c72f 6bbe e0d8 aebd 75eb b0bc
000003d0: 4755 cf3c 44d2 e53d c874 f3bd 9c08 d4bd
000003e0: 36e1 6fbe 8c7e 05be 6cef 08bc da47 2f3e
000003f0: 0f1a e1bc 4bed 8d3e 6f4a 8b3e bcf8 0a3e

fc3.bias f4 [64]
-0.01448176 -0.012268519 0.11268172 -0.08824075 -0.14388902 -0.09632497 0.0010249376 0.025852706
-0.017061103 0.15436856 0.0012401472 -0.08614044 -0.19286409 0.027940173 0.033254895 0.06298322
0.033530347 -0.0718722 0.24620304 0.12389548 0.1974537 0.07180495 0.122744806 -0.076847
0.048431814 -0.026639566 -0.038079448 0.064366266 0.025459453 -0.043252274 0.054898765 -0.030320678
0.026639543 0.05815567 -0.06366803 0.07332222 0.014694648 -0.049182404 0.1198664 -0.043247093
0.092513345 -0.110859536 -0.059774 0.17443466 0.016830236 0.055763796 -0.032660495 -0.107609786
-0.08448718 -0.098236054 0.08876828 -0.12011193 0.021551713 -0.03325507 -0.056084536 -0.04386492
0.093535475 0.04932001 0.14234585 -0.11707934 -0.1041638 -0.052461326 -0.0071890885 -0.0409355
00000000: e744 6dbc e601 49bc acc5 e63d 91b7 b4bd
00000010: a557 13be 0746 c5bd 3357 863a 0ec9 d33c
00000020: bac3 8bbc cb12 1e3e 6f8c a23a 666a b0bd
00000030: 2a7e 45be cae2 e43c 4936 083d 59fd 803d
00000040: 1e57 093d bb31 93bd a61c 7c3e eabc fd3d
00000050: 4d31 4a3e 790e 933d a161 fb3d f661 9dbd
00000060: 7060 463d 383b dabc 32f9 1bbd 76d2 833d
00000070: 5890 d03c 4c29 31bd 87dd 603d 1263 f8bc
00000080: 2c3b da3c a434 6e3d 6264 82bd f629 963d
00000090: d2c1 703c 7d73 49bd 847c f53d dd23 31bd
000000a0: a377 bd3d 530a e3bd 95d5 74bd 009f 323e
000000b0: 90df 893c 9468 643d 03c7 05bd 8562 dcbd
000000c0: 9d07 adbd fc2f c9bd 25cc b53d 3efd f5bd
000000d0: 388d b03c 7836 08bd e6b8 65bd b4ab 33bd
000000e0: 878f bf3d c703 4a3d 1cc3 113e 4bc7 efbd
000000f0: d553 d5bd b0e1 56bd 7292 ebbb fcab 27bd
