saved_models/FADA-few-shot-retraining/mnist/encoder_mnist_16.pt (torch_old, 197622 bytes, 10 tensors)

conv1.weight f4 [6, 1, 5, 5]
0	0xbb320897	-0.0027165764
1	0x3dac240c	0.08405313
2	0xbe158505	-0.14601524
3	0xbdc57240	-0.09640932
4	0xbd657d5e	-0.056027763
5	0xbcc22e46	-0.023703706
6	0xbe1fa82c	-0.15591496
7	0xbc3afd7c	-0.011412974
8	0xbe31bb4e	-0.17356607
9	0xbc9fafd2	-0.019493017
10	0xbda7086f	-0.081559055
11	0x3cd24fec	0.025672875
12	0xbe091b66	-0.13389358
13	0xbe4bebd8	-0.19914186
14	0x3dca414a	0.09875734
15	0xbd8f6e02	-0.07003404
16	0x3c0425a5	0.008065616
17	0xbde01334	-0.10941163
18	0xbd9ac6d5	-0.075574555
19	0xbc26b4f0	-0.010174975
20	0x3ddf438c	0.109015554
21	0xbcfdf6fc	-0.03100156
22	0xbe3343de	-0.17506358
23	0x3c5885c0	0.013215482
24	0x3d5084a8	0.05090776
25	0x3e7e7add	0.24851556
26	0x3dd9fa3f	0.10643434
27	0xbc165a38	-0.009176783
28	0x3d5812e1	0.05275238
29	0xbdfb2ff8	-0.12265009
30	0x3da0b8f9	0.07847781
31	0x3b89371d	0.004187478
32	0xbe6ffb42	-0.23435691
33	0xbe77c2ab	-0.24195354
34	0xbe195140	-0.149724
35	0xbe1f1075	-0.15533622
36	0xbdb2ea30	-0.08736074
37	0xbe366568	-0.17812121
38	0xbe33d7ba	-0.17562762
39	0xbe4b67e3	-0.19863848
40	0x3db91e57	0.0903899
41	0xbe499282	-0.19684795
42	0xbe2a359d	-0.16622014
43	0xbdd1e43c	-0.102486104
44	0xbca2e68c	-0.019885324
45	0xbdae5e97	-0.08514135
46	0x3db2259d	0.086985804
47	0xbcb04bf1	-0.021520587
48	0x3e196aed	0.14982195
49	0x3e799256	0.24372229
50	0xbe8e637b	-0.27810273
51	0xbe093512	-0.13399151
52	0x3da8c0ff	0.08239936
53	0x3ec16300	0.37770844
54	0x3e023920	0.12717104
55	0xbe999b4f	-0.30001304
56	0x3e05a6df	0.13051938
57	0x3f11b326	0.56913984
58	0x3ec76c18	0.38949656
59	0xbe942e06	-0.28941363
60	0xbd8940d8	-0.06701821
61	0x3eac005a	0.33594018
62	0x3f14e24c	0.581578
63	0xbe712c7d	-0.23552127
64	0xbead30b5	-0.33826223
65	0x3d6dc646	0.058050416
66	0x3e65b566	0.2243248
67	0x3e26db0d	0.16294499
68	0xbe853cd3	-0.26022968
69	0xbe6e31d1	-0.23261191
70	0x3e094ff6	0.13409409
71	0x3e1d86dd	0.15383478
72	0x3d725436	0.05916234
73	0xbe86c0a8	-0.2631886
74	0x3cb4a853	0.02205292
75	0x3e0c1a20	0.13681841
76	0x3cd65826	0.02616508
77	0xbecf0f22	-0.40441233
78	0xbe5b2023	-0.21398978
79	0xbd95c5ae	-0.07313095
80	0x3eacb706	0.33733386
81	0x3e9a7cd0	0.3017335
82	0xbec9b335	-0.39394537
83	0xbec3fb9a	-0.38277894
84	0xbd58bb16	-0.052912794
85	0x3e5197d0	0.20468068
86	0x3ef6f430	0.48233175
87	0xbe9f002f	-0.31054828
88	0xbe8873bf	-0.26650807
89	0xbeb23aa2	-0.34810358
90	0xbcb5460f	-0.022128133
91	0x3eb9afa7	0.36266825
92	0x3e7f6624	0.24941307
93	0x3c834f09	0.016028898
94	0xbe9f26c8	-0.31084275
95	0x3e1f6f58	0.15569818
96	0x3ecaea18	0.39631724
97	0x3eee0793	0.46490154
98	0x3eb1cc7b	0.3472632
99	0x39a5b832	0.0003160849
100	0x3ea14916	0.31501073
101	0x3ef072d4	0.46962607
102	0x3e887ef2	0.26659352
103	0xbd31919f	-0.043351766
104	0x3bcba325	0.0062145167
105	0x3e984dbe	0.29746813
106	0x3ef803e0	0.48440456
107	0x3f023e5f	0.5087642
108	0x3e784673	0.24245624
109	0x3dab2623	0.083568834
110	0xbebcd0d4	-0.36878073
111	0xbe84e854	-0.25958502
112	0x3dd47efc	0.10375783
113	0xbd836aa8	-0.064168274
114	0xbd63f04c	-0.055649087
115	0xbe7d9e78	-0.24767482
116	0xbee5d28b	-0.44887194
117	0xbe6b3f2f	-0.22973321
118	0xbdfe09f6	-0.12404244
119	0xbd0af4ce	-0.03392487
120	0xbecf6f01	-0.40514377
121	0xbe35961f	-0.17733048
122	0xbe93a3c6	-0.28835887
123	0x3b57cc3d	0.0032928132
124	0x3d1c0382	0.038089283
125	0x3bc1eba3	0.0059179827
126	0xbcd36e91	-0.025809558
127	0xbe8a4175	-0.27003065
128	0xbe77a2d0	-0.24183202
129	0xbe3f95a0	-0.18709421
130	0xbdbda57b	-0.092600785
131	0xbe4ad102	-0.19806293
132	0xbeb1d2df	-0.34731194
133	0xbe8ff1a3	-0.28114042
134	0xbe681e7d	-0.2266788
135	0xbe080649	-0.13283648
136	0xbebd0932	-0.36921078
137	0xbe977319	-0.2958
138	0x3d959619	0.073040195
139	0x3e278430	0.1635902
140	0xbd4f358b	-0.050588172
141	0x3e03ad54	0.12859088
142	0x3ead41ae	0.33839172
143	0x3eac1d88	0.3361628
144	0x3e755c6e	0.2396104
145	0x3ea75d3e	0.32688326
146	0x3efb84e3	0.49124822
147	0x3eaf3b28	0.3422482
148	0x3e207bf6	0.15672287
149	0xbdb8ed46	-0.09029631

conv1.bias f4 [6]
0	0xbe9d9eb1	-0.30785134
1	0xbde23683	-0.110455535
2	0x3d797273	0.060900163
3	0x3e16131e	0.1465573
4	0xbc9cd048	-0.019142285
5	0xbdae8f40	-0.085234165

conv2.weight f4 [16, 6, 5, 5]
0	0xbb4a90eb	-0.0030909132
1	0x3df25176	0.11831944
2	0xbd3e876b	-0.046515863
3	0xbcd3d5ee	-0.025858846
4	0xbc93b7c2	-0.018031958
5	0xbde53ead	-0.11193595
6	0x3d328014	0.043579176
7	0x3c90b075	0.017662266
8	0xbc83ad7a	-0.016073931
9	0xbd166dbf	-0.036725756
10	0xbd6428a9	-0.05570284
11	0x3cb661be	0.022263404
12	0x3d1077d9	0.035270546
13	0xbd5998e1	-0.053124312
14	0xbd896fcd	-0.067107774
15	0xbd1401cf	-0.036134537
16	0xbe62ab24	-0.22135597
17	0xbda46be1	-0.08028389
18	0xbde740b0	-0.11291635
19	0xbe4388f5	-0.19095214
20	0xbda86a78	-0.08223432
21	0xbe898896	-0.2686202
22	0xbea4ad19	-0.32163313
23	0xbe8a8567	-0.27054903
24	0xbe2628e7	-0.1622654
25	0x3d5d8e68	0.054090887
26	0x3d0cc794	0.03437002
27	0xbe15ae8b	-0.14617364
28	0x3cbe1cad	0.023207033
29	0xbd76f8eb	-0.06029598
30	0x3cd3ed0b	0.025869867
31	0xbd7825c2	-0.060582884
32	0xbd22c275	-0.03973623
33	0x3d4c3047	0.04985073
34	0xbd81cb43	-0.06337597
35	0xbdafe4e8	-0.08588582
36	0xbd8e93db	-0.06961795
37	0xbccfdc6d	-0.025373662
38	0xbcabf485	-0.02099062
39	0xbe6717d6	-0.22567686
40	0xbe8f6beb	-0.28012022
41	0xbe318bda	-0.17338505
42	0xbe17263f	-0.14760683
43	0xbd0e87cc	-0.034797475
44	0xbe3b1806	-0.18270883
45	0xbddfc2e5	-0.10925845
46	0xbe83ea01	-0.25764468
47	0xbe252590	-0.1612761
48	0xbe8f9745	-0.28045097
49	0xbe361c3c	-0.17784208
50	0xbe0bc5c6	-0.13649663
51	0xbe0d5082	-0.13800243
52	0xbcaec06f	-0.021331994
53	0x3ddfb35f	0.10922884
54	0x3ddff223	0.10934856
55	0x3deddec0	0.11614752
56	0xbd4b1b0c	-0.04958634
57	0x3dfe56c3	0.12418892
58	0x3d06589f	0.03279936
59	0x3c98107b	0.018562546
60	0x3df67a05	0.12034992
61	0xbd4c7ec6	-0.049925588
62	0x3db0296d	0.08601651
63	0xbd587e3d	-0.052854765
64	0x3d31dccb	0.043423455
65	0xbdb0ac10	-0.08626568
66	0xbe12e197	-0.14343868
67	0xbd884487	-0.066536956
68	0xbdcc3431	-0.09970892
69	0x3de841bd	0.113406636
70	0xbe84a293	-0.25905284
71	0xbe681b69	-0.22666706
72	0xbe9c02c4	-0.3047086
73	0xbe2e43bb	-0.17018025
74	0x3e380f61	0.17974617
75	0xbbc2fe06	-0.005950692
76	0x3d9c1e00	0.076229095
77	0xbd805846	-0.06266837
78	0xbc476c84	-0.012171868
79	0xbcbd7981	-0.023129227
80	0x3cf4a60c	0.029864334
81	0x3d9fbce6	0.077997014
82	0xbe2b0701	-0.1670189
83	0xbcac1ef0	-0.021010846
84	0x3db4c069	0.08825762
85	0x3e1a759a	0.15083924
86	0x3e88e9ea	0.26740962
87	0x3d9015fd	0.07035444
88	0xbdace4e8	-0.08442098
89	0xbdbfdfbb	-0.09368845
90	0xbd942879	-0.07234282
91	0x3e940b2a	0.28914768
92	0x3dfd294c	0.123613924
93	0xbb480d17	-0.003052538
94	0xbd068563	-0.03284205
95	0xbe98ac3b	-0.298189
96	0xbd96f279	-0.07370467
97	0xbbc4416f	-0.0059892456
98	0xbd5b76f9	-0.053580258
99	0xbdc052a7	-0.09390765
100	0x3d81de05	0.06341175
101	0xbdbbb888	-0.09166056
102	0xbed2813f	-0.41114232
103	0xbe083b1c	-0.13303798
104	0xbdd21f24	-0.10259846
105	0xbde1ab54	-0.11019006
106	0xbe61370e	-0.21993658
107	0xbad49445	-0.0016218504
108	0xbce6d866	-0.028179359
109	0xbcfd07b7	-0.030887468
110	0x3de0d81d	0.1097872
111	0xbe543ea2	-0.20727018
112	0xbe3c876a	-0.18411031
113	0xbda54d36	-0.080713674
114	0xbdf3258d	-0.118723966
115	0x3e81dfd2	0.25366074
116	0x3d306861	0.043068293
117	0xbd8bb508	-0.06821638
118	0xbe18be20	-0.14916277
119	0xbdd45728	-0.10368186
120	0x3ddd0b3f	0.10793161
121	0x3e7ca932	0.24673918
122	0x3e5e1343	0.21687035
123	0x3e28800e	0.16455099
124	0x3d84e424	0.06488827
125	0xbd95cbd8	-0.07314271
126	0xbd0c58bb	-0.034264307
127	0x3caafac0	0.02087152
128	0xbdfc0ae1	-0.123067625
129	0xba904f91	-0.0011010041
130	0x3d82ec0a	0.06392677
131	0xbc417628	-0.011807956
132	0xbda5aef1	-0.08090008
133	0xbd81a0b6	-0.06329481
134	0xbda839b0	-0.08214128
135	0x3d302203	0.043001186
136	0x3da0d29f	0.07852673
137	0x3cc5f8da	0.024166513
138	0x3d8521f6	0.06500618
139	0xbcc55090	-0.024086267
140	0xbe0ff860	-0.14059591
141	0xbd090ce8	-0.033459574
142	0xbc86cbf5	-0.016454676
143	0x3ddfc06f	0.10925376
144	0x3e2934a7	0.16523992
145	0xbe3cc7fb	-0.18435661
146	0xbe15b406	-0.14619455
147	0x3ca8e856	0.020618599
148	0xbcfda29c	-0.030961327
149	0xbdd2b80a	-0.10289009
150	0x3cbd3492	0.023096357
151	0x3d4a21d3	0.049348664
152	0x3d32eecc	0.043684766
153	0xbd2cbd0f	-0.042172488
154	0x3cb89a1d	0.022534424
155	0xbde40bed	-0.11135087
156	0xbda13d9b	-0.078730784
157	0xbda6d1aa	-0.08145459
158	0x3d68d9a6	0.05684819
159	0x3d318c6b	0.043346804
160	0xbc9eeb48	-0.0193993
161	0xbde0d51d	-0.10978148
162	0x3c81a9e5	0.015828082
163	0xbd26b9bc	-0.040704474
164	0x3d71b6d8	0.059012264
165	0xbda2c672	-0.07948007
166	0xbe97ae94	-0.2962538
167	0xbe69894d	-0.22806282
168	0xbe2094ef	-0.15681814
169	0xbddf12d7	-0.10892265
170	0xbd839853	-0.06425538
171	0xbe664d85	-0.22490509
172	0xbe137c27	-0.14402829
173	0xbd53027d	-0.051516045
174	0x3a0a137c	0.00052671856
175	0xbc0163c3	-0.00789732
176	0x3d211d26	0.03933444
177	0x3e0255b3	0.12728004
178	0xbd0b909a	-0.03407345
179	0x3b93fa48	0.00451592
180	0xbd9ced8d	-0.07662497
181	0x3da063cf	0.07831537
182	0xbde13572	-0.10996522
183	0xbd87295e	-0.06599687
184	0x3c3f3cdd	0.011672226
185	0xbd4f2595	-0.05057295
186	0xbdf921d4	-0.12164655
187	0xbe291821	-0.1651311
188	0xbe04b9ee	-0.12961552
189	0x3d50bf59	0.050963733
190	0xbe05dc36	-0.13072285
191	0xbec927bb	-0.39288124
192	0xbe8b0ccb	-0.27158198
193	0xbdeb0974	-0.114764124
194	0xbcfb245e	-0.03065699
195	0xbdfa9571	-0.12235535
196	0xbe8085dc	-0.25102127
197	0xbe4f5518	-0.20247304
198	0xbd1661e6	-0.036714457
199	0x3dbedc65	0.09319381
200	0x3cba07ff	0.022708891
201	0x3c2266e8	0.00991223
202	0x3be4505e	0.0069675883
203	0xbcd21f2a	-0.025649626
204	0x3ce147e6	0.027500104
205	0x3dec25e3	0.11530664
206	0x3e46557c	0.19368547
207	0x3e5eadc3	0.21745972
208	0xbcfc36f6	-0.030787926
209	0xbde1c5f2	-0.11024083
210	0x3da0d831	0.07853735
211	0x3daf5f37	0.08563083
212	0x3e1c8cdb	0.15288107
213	0xbdff8155	-0.1247584
214	0xbd7b0789	-0.061286483
215	0xbda2a36c	-0.079413265
216	0xbd756eaa	-0.05991999
217	0xbe17e08c	-0.14831752
218	0x3d4128e5	0.04715814
219	0x3e033ddd	0.12816568
220	0xbe0333ad	-0.12812681
221	0xbe6f09cc	-0.23343581
222	0xbe285c4d	-0.1644146
223	0x3cc92bfe	0.02455711
224	0x3b0cdd87	0.0021494345
225	0x3d4ce09f	0.050018903
226	0x3dbd19ac	0.09233412
227	0xbd2d1779	-0.042258713
228	0xbd20caa6	-0.03925576
229	0xbbd504cf	-0.0065008174
230	0xbcaec6ab	-0.021334967
231	0x3d84f80d	0.064926244
232	0xbe4121cd	-0.1886055
233	0xbe05cc36	-0.13066182
234	0xbd10663d	-0.035253752
235	0x3dd3b71a	0.10337658
236	0x3d7e827b	0.062136155
237	0x3e887b68	0.26656651
238	0x3de0dee2	0.109800115
239	0xbd31df72	-0.043425985
240	0x3dd69efc	0.104795426
241	0x3e502534	0.20326692
242	0x3e7727ac	0.24136227
243	0x3db9996e	0.090624675
244	0xbcd97caf	-0.026548712
245	0xbd3b6004	-0.045745865
246	0x3e2355fb	0.15950768
247	0x3cbc3f73	0.022979474
248	0xbcc8b6bc	-0.024501197
249	0x3a75b6d7	0.00093732536
250	0x3dc14b18	0.09438151
251	0xbd4d876b	-0.050177973
252	0xbdd5a1f0	-0.10431278
253	0x3d9204d1	0.07129825
254	0x3de12c9d	0.109948374
255	0x3dbb8826	0.09156828

conv2.bias f4 [16]
0	0x3bea3f3d	0.007148652
1	0x3d05f74d	0.032706548
2	0xbda28157	-0.07934826
3	0x3d805aa5	0.06267289
4	0xbd42a230	-0.047517955
5	0x3d993456	0.074806854
6	0xbd912e57	-0.07088917
7	0xbd87c318	-0.06629008
8	0xbb114d70	-0.00221714
9	0xbd8b76c1	-0.0680976
10	0xbdac692b	-0.08418497
11	0xbdb568db	-0.0885789
12	0xbb3a013c	-0.0028382083
13	0xbd45dce5	-0.048306365
14	0xbd5427be	-0.051795714
15	0x3de322d7	0.110906295

fc1.weight f4 [120, 256]
0	0xbe51d769	-0.20492329
1	0xbceebf28	-0.029143885
2	0x3e042f8a	0.1290876
3	0x3bec98ae	0.0072203493
4	0xbe3d3a8f	-0.1847937
5	0xbe9e02e5	-0.30861583
6	0xbe23dee7	-0.16002999
7	0xbe9a13a1	-0.300931
8	0xbe9b4374	-0.303249
9	0xbd3fd7ad	-0.046836544
10	0xbda383e3	-0.0798414
11	0x3dff2853	0.12458863
12	0xbe1a1165	-0.15045698
13	0xbe1176a2	-0.14205411
14	0x3e0c1630	0.13680339
15	0x3f0138ea	0.5047747
16	0x3e0fd5d0	0.14046407
17	0xbe05133d	-0.1299562
18	0xbdc5f0b6	-0.096650526
19	0xbb9b8c11	-0.004746922
20	0xbdb53c9a	-0.088494495
21	0xbe9ca9df	-0.3059835
22	0xbe8b9d6d	-0.27268544
23	0xbc6f2745	-0.014596765
24	0xbe79a7f6	-0.24380478
25	0xbe053ecb	-0.13012235
26	0xbe0b04d6	-0.13576064
27	0x3d7c7e94	0.06164415
28	0xbd3cbed4	-0.046080425
29	0xbdc18884	-0.094498664
30	0x3e217b5b	0.15769713
31	0x3e9c1e03	0.30491647
32	0x3d02cbd6	0.031932674
33	0x3dee101d	0.11624167
34	0xbd3873f6	-0.045032464
35	0xbc5c53c5	-0.013447707
36	0xbc8a911a	-0.016914893
37	0x3e179f2b	0.14806812
38	0x3b7a5b0b	0.0038201238
39	0xbd700b3c	-0.058604464
40	0x3e871551	0.2638345
41	0x3c6f6f0f	0.014613881
42	0xbd3a3396	-0.045459352
43	0xbe7cf7c1	-0.24703886
44	0x3e2b6d50	0.16740918
45	0x3db37f9b	0.08764573
46	0xbd2233cf	-0.03960019
47	0xbe95bb6e	-0.2924456
48	0x3d710cb0	0.05884999
49	0x3d3de52b	0.04636113
50	0x3d0e4c65	0.034740824
51	0xbd514816	-0.051094137
52	0xbd26efd4	-0.04075606
53	0xbea5c449	-0.32376316
54	0xbecaf9f9	-0.3964384
55	0xbecf4be9	-0.40487602
56	0xbdd1497e	-0.10219096
57	0xbd56aac8	-0.052408963
58	0x3d460fb1	0.04835481
59	0x3e511cfc	0.20421213
60	0xba85accc	-0.0010198592
61	0x3c6f2cb5	0.014598061
62	0x3e5f5cda	0.21812764
63	0x3ec3e6b9	0.38261965
64	0x3e23bff1	0.15991189
65	0x3d84f426	0.0649188
66	0x3d5890b6	0.052872382
67	0x3d966947	0.07344299
68	0xbce88d93	-0.02838782
69	0xbd9f2df4	-0.07772437
70	0xbdc62d25	-0.096765794
71	0xbd3c2d5b	-0.04594169
72	0xbe97d1ab	-0.2965215
73	0xbe4c817c	-0.1997127
74	0xbe7c63fc	-0.24647516
75	0xbeab71ff	-0.3348541
76	0xbe8ed5e3	-0.27897558
77	0x3cd59dfd	0.026076311
78	0xbd58eb31	-0.05295867
79	0x3de1ce7a	0.110257104
80	0xbd8d19de	-0.068896994
81	0x3e1252da	0.14289418
82	0x3d981bd8	0.07427186
83	0x3d60743f	0.05479836
84	0x3d581fcc	0.0527647
85	0x3e09cf2d	0.13457938
86	0x3df4cdc8	0.11953312
87	0x3db28a93	0.08717837
88	0xbe0d31b0	-0.13788486
89	0x3df54387	0.119757704
90	0x3e08eafa	0.13370886
91	0x3dd61ce5	0.1045473
92	0x3d51a34f	0.051181134
93	0x3e6bacd3	0.23015146
94	0xbc621118	-0.013798021
95	0xbceaeb4c	-0.028676651
96	0xbe45a1c7	-0.19299994
97	0x3d237412	0.039905615
98	0xbd5a906d	-0.05336039
99	0x3ca2d2e3	0.01987595
100	0xbde9f67a	-0.11423965
101	0x3cfa3571	0.030543061
102	0xbd92eea3	-0.071744226
103	0x3da70c82	0.081566826
104	0xbe8dd948	-0.27704835
105	0x3d123f62	0.035704978
106	0x3d40bedf	0.04705703
107	0x3df49c87	0.11943918
108	0xbe07fc24	-0.13279778
109	0xbd0307f1	-0.031989995
110	0x3e489e6e	0.19591686
111	0x3d87974a	0.06620653
112	0x3d965575	0.073405184
113	0x3de44b76	0.111472055
114	0x3d432b74	0.047648862
115	0xbd932ae2	-0.071859136
116	0x3e47c848	0.19509995
117	0x3e069dd3	0.13146143
118	0xbd2ba86e	-0.041908674
119	0xbd58d3f5	-0.052936513
120	0x3e23c110	0.15991616
121	0xbcfe95f0	-0.031077355
122	0xbd333a34	-0.04375668
123	0xbd80f201	-0.062961586
124	0x3d699832	0.05702991
125	0x3ce4b7c9	0.027919667
126	0x3d27b602	0.04094506
127	0x3e2d24e0	0.16908598
128	0xbd40c0b9	-0.047058795
129	0x3cf751e9	0.030190425
130	0x3e0194d5	0.12654431
131	0xba95e7d3	-0.0011436887
132	0xbd126ee2	-0.035750277
133	0xbd543329	-0.051806603
134	0x3c77ac8f	0.015116825
135	0x3d8f823f	0.07007264
136	0xbe5d62ba	-0.21619692
137	0xbe609d45	-0.21934994
138	0x3d55acbd	0.05216669
139	0x3d012aa5	0.03153481
140	0xbda2e591	-0.079539426
141	0x3d40fbe7	0.047115233
142	0x3e046e86	0.12932786
143	0xbc5fde8d	-0.0136639
144	0x3b995a37	0.004679944
145	0x3e1d8db9	0.15386094
146	0xbdab2e58	-0.08358449
147	0x3bffa103	0.0078011765
148	0x3d93c8f8	0.07216066
149	0x3dc3627b	0.09540268
150	0xbe528128	-0.20557082
151	0xbe0e4dc6	-0.13896856
152	0x3dd2095b	0.10255691
153	0x3caf9c88	0.021436945
154	0xbde4a3e8	-0.11164075
155	0x3d3033f1	0.043018285
156	0x3e474b13	0.19462232
157	0x3da9941e	0.08280204
158	0x3d0b68b9	0.03403542
159	0x3daefa26	0.08543806
160	0x3e28a2db	0.16468374
161	0x3dc1754c	0.09446201
162	0xbdb16811	-0.08662427
163	0xbc71009f	-0.014709621
164	0x3e368a2a	0.17826143
165	0x3e4c4ccd	0.19951172
166	0x3dba508a	0.09097393
167	0x3da03d12	0.07824148
168	0x3e01f69d	0.12691732
169	0x3d53b5b6	0.051686965
170	0x3d8be081	0.0682993
171	0x3e0986ed	0.13430376
172	0x3ddc5c8b	0.10759839
173	0xbc9903f1	-0.018678637
174	0xbdc1898d	-0.09450064
175	0xbe311c51	-0.17295958
176	0xbe81948f	-0.25308654
177	0xbe026f18	-0.12737691
178	0xbe6c9364	-0.231031
179	0xbd748d30	-0.05970496
180	0xbe17fbdd	-0.14842172
181	0xbe1d719d	-0.15375371
182	0xbe4ae72e	-0.1981475
183	0xbe4a57b9	-0.19760026
184	0xbd92d4d7	-0.07169502
185	0x3cfe1e71	0.031020375
186	0xbdc2eb0f	-0.0951749
187	0x3cc90f72	0.024543498
188	0x3da9d88a	0.08293255
189	0x3d2531bc	0.040330634
190	0x3ce9e753	0.028552687
191	0x3ea169a5	0.31525913
192	0xbe11f391	-0.1425307
193	0x3cdce8d8	0.026966497
194	0x3c4c2daf	0.012462064
195	0xbd25a341	-0.040438894
196	0x3d944c77	0.07241147
197	0xbc6d0830	-0.014467284
198	0x3d56a423	0.052402627
199	0x3c82d92a	0.015972693
200	0xbd1647f5	-0.036689717
201	0x3b220a73	0.0024725467
202	0xbc82980a	-0.015941638
203	0xbdc90470	-0.098152995
204	0x3e3015ad	0.17195769
205	0xbbc487fa	-0.005997655
206	0xbc2cacfa	-0.010539288
207	0x3dfaf2fa	0.12253375
208	0x3d0da6b7	0.03458282
209	0x3ca2811c	0.019836955
210	0xbc98d015	-0.018653909
211	0xbd2839d3	-0.04107077
212	0x3d9f1054	0.07766786
213	0x3ccb3051	0.024803312
214	0xbda02bc6	-0.07820849
215	0x3d9ae889	0.07563884
216	0x3c9f1576	0.019419413
217	0xbc928c02	-0.017889027
218	0xbb7c6842	-0.003851429
219	0x3ead97f7	0.33905002
220	0x3d14589a	0.03621731
221	0x3d2b3067	0.041794207
222	0x3dbeaf4c	0.09310779
223	0x3e0dad8d	0.13835736
224	0xbdb642c0	-0.0889945
225	0x3d25fd8c	0.040525004
226	0x3d93b44c	0.07212123
227	0xbcb02d79	-0.021506058
228	0xbc2d59c2	-0.010580482
229	0xbd78cdec	-0.060743257
230	0x3e28d226	0.16486415
231	0x3e76a887	0.24087726
232	0xbdf13b8f	-0.11778938
233	0x3cd4b66f	0.025965897
234	0x3e798ce7	0.24370156
235	0x3d7986c2	0.06091953
236	0xbe505c23	-0.20347647
237	0xbd45acd4	-0.048260525
238	0x3d7b00de	0.061280124
239	0xbcae26be	-0.021258708
240	0x3d9d5193	0.07681575
241	0x3db340e9	0.08752615
242	0xbc75fd93	-0.01501407
243	0x3e19a606	0.15004739
244	0xbe272819	-0.1632389
245	0xbd5f1632	-0.054464526
246	0x3e3876b1	0.18014027
247	0x3d0c9ed1	0.034331147
248	0xbde3f3b0	-0.11130464
249	0xbdf97a6c	-0.12181553
250	0x3b811f4c	0.0039404985
251	0xbe040fee	-0.12896702
252	0x3c1bf570	0.009518966
253	0x3db1a627	0.08674269
254	0x3cfba889	0.030720012
255	0xbee4c2ac	-0.44679773

fc1.bias f4 [120]
0	0x3caabb3d	0.020841235
1	0xbba19bb1	-0.00493189
2	0x3df80588	0.1211043
3	0xbd6bd978	-0.05758044
4	0xbd61d52b	-0.055134933
5	0x3d80c2be	0.06287144
6	0x3d3ebd87	0.046567466
7	0x3b9aa7ef	0.0047197263
8	0x3d412144	0.047150865
9	0x3dc97044	0.09835866
10	0xbd0343d6	-0.032047115
11	0xbcbe493c	-0.02322828
12	0xbdb023d1	-0.086005814
13	0x3c92ea20	0.017933905
14	0x3d43cd4b	0.047803205
15	0x3da93ea3	0.082639
16	0xbd865e2a	-0.06560929
17	0xbc2847eb	-0.010271053
18	0xbc9edd31	-0.019392582
19	0xbc68818d	-0.014191044
20	0x3c94ca26	0.018162798
21	0x3d587b04	0.05285169
22	0x3d09910a	0.033585586
23	0x3d171179	0.036881898
24	0xbc7c9c6a	-0.015418151
25	0x3d57e733	0.052710723
26	0xbd45dd4c	-0.04830675
27	0x3d354356	0.04425367
28	0x3afdcb64	0.0019362983
29	0x3ddde45d	0.108345725
30	0x3c4cc3ba	0.012497837
31	0x3d57a6a6	0.052649163
32	0x3d18a0d2	0.037262745
33	0x3cdbddf9	0.026839243
34	0x3d851333	0.064978026
35	0xbd949f26	-0.07256918
36	0xbd29d0d6	-0.041458927
37	0xbd6c130f	-0.057635363
38	0xbcb9481f	-0.022617398
39	0x3cbb2dce	0.02284899
40	0x3da1029c	0.07861826
41	0xbd9163b3	-0.07099094
42	0xbba15f62	-0.0049247006
43	0xbe2e8515	-0.17042954
44	0x3c13cf0a	0.00902153
45	0x3b1d146a	0.0023968467
46	0xbbb9f761	-0.005675242
47	0x3c21277f	0.009836077
48	0xbd37181b	-0.044700723
49	0xbdae5fc2	-0.08514358
50	0xbddf91cb	-0.1091648
51	0xbd51a32a	-0.051180996
52	0x3d19b6a1	0.037527684
53	0x3d311a2f	0.04323786
54	0x3ba23292	0.004949876
55	0xbcbd02d3	-0.023072636
56	0x3dd9451c	0.10608885
57	0x3cd939a1	0.026516737
58	0x3d8486ef	0.06471049
59	0xbd2383dc	-0.039920673
60	0xbd8687c1	-0.06568862
61	0xbcdbe01c	-0.026840262
62	0x3bb061db	0.005382759
63	0xbd917e25	-0.07104138
64	0x3d0e481c	0.034736738
65	0x3c9e835c	0.019349746
66	0xbd820f62	-0.0635059
67	0x3cf12fbd	0.029441709
68	0x3c4100c5	0.011779969
69	0xbd72fd51	-0.059323613
70	0xbc368578	-0.01114022
71	0xbd5fd354	-0.054644898
72	0xbb4d8b70	-0.0031363629
73	0xbd2a795c	-0.041619644
74	0xbd15724d	-0.03648596
75	0x3d04633a	0.032321192
76	0xbd166a5e	-0.036722533
77	0x3cc6d4f0	0.024271458
78	0xbda3b99e	-0.07994388
79	0xbd0c8225	-0.034303803
80	0x3bcd3c16	0.0062632663
81	0x3cfb8810	0.030704528
82	0xbad02a0b	-0.001588167
83	0x3aa5719f	0.0012622363
84	0xbd80ba9c	-0.06285593
85	0xbd94fbed	-0.072746135
86	0xbd8323d2	-0.064033166
87	0x3d9bcb29	0.07607109
88	0x3cd0cd30	0.025488466
89	0xbcce4ff7	-0.025184615
90	0x3adefeac	0.0017013154
91	0x3cd416ae	0.02588972
92	0xbc9188ce	-0.017765429
93	0x3d785e9f	0.060637113
94	0x3d4dcf92	0.050246783
95	0xbd85879b	-0.06520005
96	0x3e0688ea	0.13138166
97	0x3af75ca1	0.001887221
98	0x3dc57476	0.09641354
99	0x3cc52324	0.024064608
100	0xbb939879	-0.00450426
101	0xbd212058	-0.039337486
102	0xbdf10d0e	-0.11770068
103	0xbca25e67	-0.019820405
104	0x3d7b6939	0.061379645
105	0x3c3a2115	0.011360426
106	0x3d3b4bb6	0.0457265
107	0x3d71e5c6	0.05905702
108	0xbd8691d5	-0.06570784
109	0xbdba0875	-0.09083644
110	0xbcfde93b	-0.030995002
111	0x3d579d3c	0.052640185
112	0xbd0f0ff5	-0.034927327
113	0xbca4cf04	-0.020118244
114	0x3ca52959	0.020161318
115	0xbdc7bcc1	-0.09752799
116	0x3c9fd99a	0.01951294
117	0xbd45523d	-0.04817413
118	0xbcbc7442	-0.023004655
119	0xbcdd64a2	-0.027025525

fc2.weight f4 [84, 120]
0	0x3c848493	0.016176498
1	0x3da67ec7	0.081296496
2	0x3d099d9d	0.033597577
3	0xbdc672ce	-0.09689866
4	0x3d3dd20b	0.04634289
5	0xbde4629a	-0.11151619
6	0xbde07ceb	-0.10961326
7	0xbe1eebf2	-0.15519693
8	0x3a5bdeb3	0.0008387372
9	0xbdbca801	-0.09211732
10	0x3dd74e33	0.10512962
11	0xbd0d1812	-0.034446783
12	0xbd900070	-0.070313334
13	0x3d24f880	0.04027605
14	0xbd5fdf86	-0.054656528
15	0xbd9c0851	-0.07618774
16	0x3db29ee1	0.0872171
17	0x3d92c627	0.07166701
18	0xbc01b4ed	-0.007916671
19	0xbe50f919	-0.20407523
20	0xbda10c08	-0.07863623
21	0x3d42dc58	0.047573417
22	0xbd8c179b	-0.0684044
23	0x3ce5bb79	0.028043495
24	0xbe1dd651	-0.15413786
25	0x3dd2ed8b	0.10299214
26	0x3df13314	0.117773205
27	0x3b4c818a	0.003120514
28	0xbd2f0349	-0.042727742
29	0x3de26e44	0.11056188
30	0xbd28704e	-0.041122727
31	0xbd57a5f4	-0.0526485
32	0x3d2e45b9	0.04254696
33	0x3d3e8cf3	0.04652114
34	0x3dd0111a	0.10159512
35	0xbd633d23	-0.055478226
36	0x3d9074c2	0.0705352
37	0x3d92b7bf	0.07163953
38	0x3e1e126f	0.1543672
39	0xbe6283af	-0.22120546
40	0xbd96e285	-0.07367424
41	0xbe5bc98d	-0.21463604
42	0xbdf2e0cd	-0.118592836
43	0xbe1a0611	-0.15041377
44	0x3e6ac9a4	0.22928482
45	0xbe21a802	-0.15786746
46	0xbd6f13fb	-0.058368664
47	0x3e71c801	0.23611452
48	0x3cc98f69	0.024604516
49	0xbd05e181	-0.03268576
50	0x3db12303	0.08649256
51	0x3d5c08ae	0.053719215
52	0x3dcca382	0.09992124
53	0xbd5473cc	-0.051868245
54	0xbd87451a	-0.06604977
55	0x3e45b6a6	0.19307956
56	0xbdf89b2c	-0.12138972
57	0xbe6e7bc8	-0.23289406
58	0x3d6e9974	0.058251813
59	0x3ba23f4c	0.004951393
60	0xbcc41255	-0.023934523
61	0xbd389485	-0.045063514
62	0x3d4c5af3	0.049891423
63	0x3d657b28	0.056025654
64	0xbe06e5cf	-0.13173603
65	0x3c0d6791	0.008630649
66	0x3c326198	0.010887526
67	0xbd9b1f3a	-0.07574315
68	0xbd709f24	-0.05874552
69	0x3c5c663b	0.013452108
70	0xbea2dea0	-0.31810474
71	0x3cf1309d	0.029442126
72	0x3d37cbae	0.04487198
73	0xbd161095	-0.036636908
74	0x3d61f602	0.055166252
75	0x3de4199f	0.11137699
76	0x3cae779a	0.021297265
77	0x3ddbcdc5	0.10732607
78	0xbe3bfd52	-0.18358353
79	0x3ce05d37	0.027388198
80	0xbd954e46	-0.0729032
81	0xbdf53f99	-0.11975021
82	0x3dd034ee	0.101663455
83	0xbdb76538	-0.08954853
84	0x3dda027d	0.10645006
85	0x3d76f145	0.060288686
86	0xbdad8665	-0.08472899
87	0x3b746390	0.003729079
88	0xbdf8e094	-0.1215221
89	0xbd71201c	-0.058868513
90	0x3db01912	0.08598532
91	0x3d064f9e	0.032790773
92	0x3c9cf57a	0.019160021
93	0xbe2bca49	-0.16776384
94	0x3e2cdb64	0.16880566
95	0xbd4a069b	-0.049322706
96	0x3db6e4fe	0.089303955
97	0xbcf2ceb4	-0.02963958
98	0xbc1b4193	-0.009476083
99	0xbdf44671	-0.11927498
100	0xbc0d48a1	-0.008623273
101	0xbe5e8604	-0.2173081
102	0x3e0df952	0.1386464
103	0xbd0b3b4a	-0.03399209
104	0xbde18a90	-0.11012757
105	0xbd28c0f0	-0.041199625
106	0x3e0b2061	0.1358657
107	0xbcfbd94d	-0.030743266
108	0x3c058eb7	0.008151702
109	0x3dd9ba79	0.1063127
110	0xbd0a9f3c	-0.033843264
111	0x3dd9c44e	0.10633145
112	0xbd81de10	-0.06341183
113	0x3e0f89e9	0.14017452
114	0x3c622ec0	0.013805091
115	0x3e1198b3	0.14218406
116	0xbd024c20	-0.03181088
117	0x3cb30963	0.021855062
118	0xbd8c8b03	-0.06862452
119	0xbda32428	-0.07965881
120	0x3e0fc0bf	0.1403837
121	0xbded7978	-0.11595434
122	0xbe22a541	-0.15883352
123	0x3d3921eb	0.045198362
124	0xbd5cd119	-0.05391035
125	0xbc4e89dd	-0.012606111
126	0xbe1db99d	-0.15402837
127	0x3d888abb	0.06667086
128	0x3b98df6a	0.004665305
129	0xbd759e4c	-0.059965417
130	0x3de49c93	0.11162677
131	0x3d161370	0.03663963
132	0x3cdc5405	0.026895532
133	0x3d00c00c	0.03143315
134	0x3d0197b1	0.031638805
135	0xbdd6c4d7	-0.10486763
136	0xbda20ec2	-0.07912971
137	0xbd3adc89	-0.045620475
138	0x3c207d31	0.009795473
139	0xbce601a6	-0.028076958
140	0xbd70d719	-0.058798883
141	0xbe08bac2	-0.13352492
142	0x3d62aaf3	0.05533881
143	0x3d31a757	0.04337248
144	0x3e1f78d1	0.15573432
145	0xbe060549	-0.13087954
146	0xbdf43ad2	-0.119252816
147	0xbdd9576b	-0.10612377
148	0xbd5a3282	-0.053270824
149	0x3bbb6c38	0.005719688
150	0xbe5d812a	-0.21631303
151	0xbd883eed	-0.06652627
152	0xbd8bf3ec	-0.06833634
153	0xbcc45577	-0.023966534
154	0xbdc8cedc	-0.0980508
155	0x3d9e6bec	0.07735428
156	0xbd866614	-0.065624386
157	0x3d8cfac1	0.06883765
158	0x3e168fba	0.14703265
159	0xbc9ae11a	-0.018906165
160	0xbca3c31d	-0.019990498
161	0x3e65824f	0.2241299
162	0x3dc932d3	0.09824147
163	0xbc448efa	-0.011996979
164	0x3c093aae	0.008375807
165	0xbd726582	-0.059178837
166	0xbdae350e	-0.08506213
167	0xbdbd11bc	-0.09231898
168	0xbd96d79e	-0.073653445
169	0x3cffb089	0.031212108
170	0xbdb0b0b6	-0.08627455
171	0x3cb57d2d	0.022154415
172	0x3d274923	0.040841233
173	0xbd1dc7e8	-0.038520724
174	0xbba10a57	-0.0049145627
175	0xbd759778	-0.059958905
176	0xbd8fbbe1	-0.07018257
177	0xbdba4f0d	-0.09097109
178	0xbe67dd76	-0.22643074
179	0xbc5a8397	-0.0133370375
180	0x3dcdb274	0.10043803
181	0x3c437a9f	0.011931091
182	0x3c7b4168	0.015335418
183	0x3d789508	0.060689002
184	0xbe2b343c	-0.16719145
185	0x3ce1dbae	0.027570572
186	0xbdfb579d	-0.1227257
187	0x3dee2d24	0.11629704
188	0xbd65f2ce	-0.05613976
189	0xbd725cdf	-0.0591706
190	0xbc933b0b	-0.01797249
191	0xbcf809c4	-0.030278094
192	0xbdb9af14	-0.090665966
193	0xbe4a74b9	-0.19771089
194	0x3dfb66b5	0.12275449
195	0xbdc06a60	-0.093952894
196	0xbcbaa0e6	-0.0227818
197	0x3a4c7992	0.0007800098
198	0x3c00c32a	0.007859031
199	0xbd734110	-0.05938822
200	0x3e14d19c	0.14533085
201	0xbd7557ab	-0.05989806
202	0x3c8f7429	0.017511444
203	0xbd0d70fe	-0.034531586
204	0x3e077172	0.1322687
205	0xbe1844e2	-0.14870027
206	0x3ccea873	0.025226807
207	0xbe262100	-0.16223526
208	0x3da71247	0.08157783
209	0xbd120229	-0.03564659
210	0x3e467507	0.1938058
211	0x3e109539	0.14119424
212	0x3d9522ff	0.072820656
213	0xbe8a85a4	-0.27055085
214	0xbcec8cfb	-0.028875818
215	0x3dcad566	0.09903984
216	0x3dc47e4e	0.09594403
217	0xbe97c2e5	-0.2964088
218	0xbb118675	-0.0022205387
219	0xbe0da062	-0.13830712
220	0x3e02bf51	0.12768294
221	0xbe55dae3	-0.2088428
222	0xba9b3c14	-0.0011843466
223	0x3e3adcd0	0.18248296
224	0x3d284371	0.041079942
225	0xbda71010	-0.081573606
226	0x3e29adec	0.16570252
227	0xbe2d2b00	-0.16910934
228	0x3e1cbaf3	0.1530569
229	0x3d40635e	0.046969764
230	0xbc26fed8	-0.010192595
231	0xbdc76eda	-0.0973794
232	0x3cef18ee	0.029186692
233	0x3e53d370	0.20686126
234	0x3d3f6066	0.046722792
235	0x3d447d3f	0.047971006
236	0x3e1b15c5	0.15145023
237	0xbdce6fa1	-0.10079885
238	0x3d4b3278	0.049608678
239	0xbe3ff91e	-0.18747374
240	0x3db00ae4	0.08595827
241	0x3c8881aa	0.016663391
242	0xbe7a3930	-0.24435878
243	0xbe052b37	-0.13004766
244	0xbc753160	-0.014965385
245	0xbd756dee	-0.05991929
246	0x3d05dbb2	0.03268022
247	0x3ddd33c3	0.108008884
248	0xbc3851c8	-0.011249967
249	0xbc211f35	-0.0098341005
250	0x3e077716	0.13229021
251	0x3dec1298	0.11526984
252	0x3be9eb50	0.007138647
253	0xbcc8638e	-0.024461534
254	0x3de363c3	0.111030124
255	0xbd8fa157	-0.07013195

fc2.bias f4 [84]
0	0x3c813d3a	0.015776265
1	0xbd8464a7	-0.064645104
2	0xbdb7126a	-0.08939059
3	0x3d27061f	0.040777322
4	0x3dab8d04	0.08376506
5	0xbdfb388d	-0.122666456
6	0x3dcabd13	0.09899344
7	0xbc002ac3	-0.007822695
8	0xbcf20628	-0.029543951
9	0x3d877a10	0.066150784
10	0x3d902837	0.070389204
11	0xbd71fbfb	-0.059078198
12	0xbd39da87	-0.04537442
13	0x3a30a1b7	0.00067379646
14	0x3deddde7	0.1161459
15	0xbc8261f5	-0.01591585
16	0x3ccee76b	0.025256833
17	0xbd0df32a	-0.034655727
18	0x3d1572e7	0.036486533
19	0x3d8ec625	0.06971387
20	0xbd9fc3a9	-0.07800991
21	0x3ce70729	0.028201656
22	0xbdd0944d	-0.10184536
23	0x3cb9da1d	0.022687012
24	0x38bdb652	9.046182e-05
25	0x3ab519e3	0.0013816919
26	0x3e0eb3f1	0.1393583
27	0xbd924143	-0.07141354
28	0x3e2203dc	0.15821785
29	0xbcd310af	-0.025764791
30	0xbdcd671d	-0.10029433
31	0x3dad90d8	0.084748924
32	0x3e41b18f	0.1891539
33	0xbd79468e	-0.0608583
34	0xbda5f8ce	-0.08104096
35	0x3d2114ce	0.03932648
36	0xbd5e17a2	-0.054221757
37	0x3dd6ca64	0.10487822
38	0x3cda671e	0.026660498
39	0x3dbf9339	0.09354252
40	0xbd9d8c35	-0.07692758
41	0x3e2aba21	0.16672565
42	0xbd881ade	-0.066457495
43	0x3d6b5493	0.057453703
44	0x3bafe00a	0.0053672837
45	0xbd261214	-0.040544584
46	0xbda11c84	-0.07866767
47	0xbde2a4a4	-0.11066559
48	0x3d5f5c2b	0.054531258
49	0x3d8df3e4	0.06931284
50	0xbdf83bb3	-0.12120762
51	0x3dae4a0e	0.085102186
52	0xbcb048c4	-0.021519072
53	0xbd0e4ab8	-0.034739226
54	0xbdf24bd9	-0.11830873
55	0xbd94a077	-0.07257169
56	0xbe0df730	-0.13863826
57	0x3db336ca	0.087506846
58	0x3d8f37fd	0.06993101
59	0x3dd58a49	0.104267664
60	0xbb869b9d	-0.004107906
61	0xbdd87e1b	-0.10570928
62	0xbca9688e	-0.020679738
63	0x3d927277	0.07150739
64	0x3df40ca1	0.11916471
65	0xbbbbdc1d	-0.0057330267
66	0xbdb51d02	-0.088434234
67	0x3ddb3e65	0.1070526
68	0xbda9ebc9	-0.082969256
69	0x3ac69760	0.0015151314
70	0xbd59d21c	-0.05317889
71	0x3ddfc62c	0.1092647
72	0xba42e50e	-0.00074346445
73	0x3c3f9490	0.011693135
74	0x3d735e8d	0.059416343
75	0xbc744543	-0.014909091
76	0xbdc16aa5	-0.09444169
77	0x3e260374	0.16212255
78	0x3e5d0ca0	0.21586847
79	0xbd814787	-0.06312471
80	0x3cc7ca48	0.024388447
81	0xbdb9252e	-0.090402946
82	0x3dbd20d8	0.0923478
83	0xbd3ceccd	-0.04612427

fc3.weight f4 [64, 84]
0	0x3de36bf2	0.11104573
1	0x3c6a8507	0.014313943
2	0x3e83f92a	0.25776035
3	0xbe3051cd	-0.17218705
4	0xbe028cc8	-0.12749016
5	0x3e1b643c	0.15174955
6	0xbe33b2cc	-0.17548674
7	0x3cf989f3	0.030461287
8	0x3e7d80b1	0.24756123
9	0xbdc01e4e	-0.0938078
10	0xbdca2efb	-0.09872242
11	0xbd4fdf32	-0.050749965
12	0x3cafba86	0.021451246
13	0xbc907889	-0.0176356
14	0xbdb109c9	-0.086444445
15	0xbe09d47f	-0.13459967
16	0xbe3c7fed	-0.18408175
17	0x3dacda78	0.08440107
18	0xbe2c6071	-0.16833664
19	0xbe40b879	-0.1882037
20	0xbd62008c	-0.055176303
21	0x3e204b3e	0.15653703
22	0xb8add60c	-8.289152e-05
23	0xbd243b25	-0.040095467
24	0x3da2db0f	0.07951938
25	0xbd829b04	-0.06377223
26	0xbc1a86ce	-0.009431554
27	0xbe60b5d8	-0.21944368
28	0xbe513621	-0.20430805
29	0x3d8ad63b	0.067791425
30	0xbd824908	-0.06361586
31	0x3c653d84	0.013991717
32	0xbdbf7d72	-0.09350099
33	0xbd0f799b	-0.03502808
34	0x3dd532e3	0.104100965
35	0x3d3236eb	0.043509405
36	0x3dc426f3	0.095777415
37	0x3da9005d	0.082520224
38	0xbe13b7a5	-0.14425524
39	0xbe1b517a	-0.151678
40	0x3c9f3847	0.019436015
41	0x3c9e6cab	0.019338926
42	0x3ddb64c3	0.10712578
43	0xbe2dfe0a	-0.1699144
44	0x3d113aeb	0.03545658
45	0xbda54406	-0.08069615
46	0x3dcbbd10	0.0994817
47	0xbd42214d	-0.04739504
48	0xbdd28056	-0.102783844
49	0xbddd3b7b	-0.108023606
50	0x3e045615	0.12923463
51	0x3e1286f3	0.14309292
52	0xbe686780	-0.22695732
53	0xbd8d9ab0	-0.0691427
54	0x3dd8ca79	0.105854936
55	0x3d70827e	0.058718197
56	0x3d06c16d	0.03289931
57	0xbda29a8c	-0.07939634
58	0xbe0c6ddb	-0.13713782
59	0x3d73f478	0.059559315
60	0x3e1ce22e	0.15320656
61	0xbe42868c	-0.18996638
62	0x3e1cb807	0.15304576
63	0x3dc22e0f	0.09481441
64	0xbe1f4fd6	-0.15557799
65	0x3deda7e1	0.11604286
66	0xbe8355ca	-0.2565139
67	0xbe326458	-0.1742109
68	0xbcae8175	-0.021301964
69	0xbbda3f30	-0.0066603646
70	0x3bb7efd3	0.005613306
71	0xbe5002b8	-0.20313537
72	0xbc7d8803	-0.015474322
73	0xbdd0f583	-0.10203078
74	0x3db7b1ad	0.08969436
75	0x3d44d856	0.048057877
76	0xbca89cdd	-0.02058261
77	0xbd147bc3	-0.03625084
78	0xbcd38117	-0.02581839
79	0x3d503df0	0.05084032
80	0x3e8bf00c	0.2733158
81	0x3d937ffe	0.07202147
82	0x3c3f1b8c	0.0116642825
83	0xbdbc6180	-0.09198284
84	0x3d85b7e4	0.06529215
85	0x3d472503	0.04861928
86	0xbd2f1f93	-0.04275472
87	0xbc108bf3	-0.008822429
88	0xbe135ca8	-0.14390814
89	0x3d6a1195	0.057145674
90	0xbd2818cd	-0.041039277
91	0xbc87f512	-0.01659635
92	0x3e093e64	0.13402706
93	0xbdcb0c94	-0.099145085
94	0x3d87b0f0	0.06625545
95	0x3daff371	0.08591355
96	0xbd443f06	-0.047911666
97	0xbe215c6a	-0.1575791
98	0x3e1a1796	0.1504806
99	0x3cd25ffa	0.02568053
100	0x3e8993da	0.26870614
101	0xbd7dd21d	-0.061967958
102	0xbe5ab889	-0.21359457
103	0x3d8f9e76	0.07012646
104	0x3db1f77c	0.08689782
105	0xbde9f5d5	-0.11423842
106	0x3d2ca514	0.04214962
107	0xbcb91170	-0.022591323
108	0x3e0f60a9	0.14001717
109	0x3dd1da9a	0.10246773
110	0x3bacba56	0.0052712364
111	0xbe8d9eec	-0.2766031
112	0xbd2a0524	-0.04150881
113	0xbe099958	-0.13437402
114	0xbc14ccb7	-0.009082011
115	0x3db82e87	0.089932494
116	0x3e5eb83b	0.21749966
117	0xbd70de32	-0.058805652
118	0x3d9b12e7	0.07571965
119	0x3e5a4fb6	0.2131947
120	0x3e60649b	0.21913378
121	0x3e705ff8	0.23474109
122	0x3d8b4f45	0.06802229
123	0x3cb9c881	0.022678616
124	0xbdfe154f	-0.12406408
125	0xbd9805a2	-0.074229494
126	0xbd50f499	-0.051014517
127	0xbe5130c0	-0.20428753
128	0xbc45654a	-0.012048075
129	0xbe43bf7b	-0.19116013
130	0xbe4ba9dc	-0.19889015
131	0xbc0507a0	-0.008119494
132	0x3dfb9eb5	0.1228613
133	0x3e19e016	0.15026888
134	0xbd542176	-0.051789723
135	0x3dd745d7	0.10511368
136	0xbe933e3a	-0.28758413
137	0xbe2caf67	-0.16863786
138	0xbdfb9820	-0.12284875
139	0xbda11d1e	-0.07866882
140	0xbd9a93cc	-0.07547721
141	0x3e42fcc9	0.19041742
142	0xbe9d87d5	-0.30767694
143	0x3e499382	0.19685176
144	0xbe58015d	-0.2109427
145	0xbd87cd85	-0.066309966
146	0xbe4d223a	-0.20032588
147	0x3db6dfd9	0.08929414
148	0xbc98a2a6	-0.018632244
149	0x3d34f592	0.044179507
150	0xbde8cfc8	-0.11367756
151	0xbe36e399	-0.17860259
152	0xbdb23459	-0.08701391
153	0xbe3e97e8	-0.18612635
154	0x3d85823e	0.06518982
155	0xbd7a0b80	-0.061046124
156	0xbd512cf9	-0.05106828
157	0xbe12617c	-0.14295
158	0xbe0fa66d	-0.1402833
159	0xbd2bd0a0	-0.041947007
160	0xbddbb61c	-0.10728094
161	0xbdcf1908	-0.10112196
162	0xbb32c968	-0.0027280692
163	0x3e1bc9d1	0.15213706
164	0x3e21476a	0.15749899
165	0x3e669b7c	0.2252025
166	0xbe3dfe89	-0.18554129
167	0x3c181212	0.009281652
168	0x3d86c041	0.06579638
169	0xbe2174b6	-0.15767178
170	0xbe45fd54	-0.19334918
171	0x3d0664ca	0.032810964
172	0x3e560884	0.20901686
173	0x3e0713aa	0.13191095
174	0x3e67cc7c	0.22636598
175	0xbbbdc3a2	-0.0057911435
176	0xbdd25559	-0.10270185
177	0x3d6c8fcc	0.057754323
178	0xbd46b055	-0.048508007
179	0x3e08a2dd	0.13343377
180	0x3d36d52e	0.044636898
181	0x3ce3a641	0.027789237
182	0xbde5fa9c	-0.112294406
183	0x3e8a378a	0.26995498
184	0x3db9d3ee	0.090736255
185	0x3d68e5aa	0.05685965
186	0x3d700586	0.058599018
187	0x3db6ff99	0.0893547
188	0x3dbab197	0.09115904
189	0xbd83dd5f	-0.064387076
190	0xbcb00349	-0.021485941
191	0x3d9c51ee	0.07632814
192	0xbc81576e	-0.01578876
193	0x3e145b14	0.14487869
194	0xbbaeb118	-0.00533117
195	0x3e5a4d7b	0.21318619
196	0xbd101e26	-0.035185
197	0xbe5f6ba5	-0.21818407
198	0x3d413553	0.047169995
199	0xbe42469d	-0.1897225
200	0xbd9831a1	-0.07431341
201	0x3c90e4f3	0.017687296
202	0xbe635ef5	-0.22204192
203	0xbdc2f354	-0.095190674
204	0x3d432375	0.047641236
205	0x3d1cae8a	0.03825239
206	0x3bb0c8e4	0.005395042
207	0x3c9bc80c	0.019016288
208	0xbd8b3990	-0.067980886
209	0xbde5ad3d	-0.11214683
210	0xbbb08f5f	-0.005388185
211	0x3e185c1a	0.14878884
212	0xbb96b143	-0.004598768
213	0x3d67cb28	0.05659023
214	0x3d33481c	0.04376994
215	0xbd269c1d	-0.040676225
216	0x3d9205b8	0.07129997
217	0xbdf81110	-0.121126294
218	0xbcabb53d	-0.020960445
219	0x3d9c4042	0.07629444
220	0x3d71671a	0.058936216
221	0x3dc8b9b1	0.09801043
222	0xbd71c8f0	-0.05902952
223	0x3b6ecd8d	0.0036438436
224	0x3da95efd	0.08270071
225	0xbc00fbe9	-0.00787256
226	0x3e3abf54	0.18237048
227	0xbbe1ecdb	-0.0068946905
228	0xbcbd9bcf	-0.023145584
229	0xbcf073e5	-0.029352138
230	0x3d8cb593	0.0687057
231	0x3e00a712	0.12563732
232	0x3e3ac025	0.1823736
233	0xbe510c7f	-0.20414923
234	0x3df546ce	0.119763955
235	0x3dc49adc	0.095998496
236	0xbd5e07da	-0.054206707
237	0x3e04115e	0.1289725
238	0x3bf2508c	0.007394856
239	0x3e20bd5b	0.15697233
240	0xbd205a64	-0.039148703
241	0xbe82d451	-0.2555261
242	0xbd0b5e68	-0.03402558
243	0xbd528adb	-0.051401954
244	0x3d47874f	0.048713025
245	0x3e08b515	0.13350327
246	0xbe0d94bd	-0.1382627
247	0xbdae7676	-0.085186884
248	0xbe65b42a	-0.22432008
249	0xbe06314d	-0.13104744
250	0x3c92a419	0.017900513
251	0x3e52da97	0.20591198
252	0xbd510d35	-0.051037986
253	0x3ea0d1f9	0.31410196
254	0x3e878914	0.2647177
255	0x3e0b6b9d	0.1361527

fc3.bias f4 [64]
0	0xbc6b86e2	-0.01437542
1	0x3b231f3b	0.002489044
2	0x3e08c602	0.13356784
3	0xbdb75148	-0.0895105
4	0xbe1c3606	-0.15254983
5	0xbdd1abd3	-0.10237851
6	0xbcea9354	-0.028634705
7	0x3ca587e6	0.020206403
8	0xbd9d35a9	-0.076762505
9	0x3e115a49	0.14194597
10	0x3cc39fdc	0.023879938
11	0xbd9c8455	-0.07642428
12	0xbe30ba4e	-0.1725857
13	0x3cd12671	0.025531026
14	0x3d1afb76	0.037837468
15	0x3da8e350	0.082464814
16	0x3cbb1c86	0.02284075
17	0xbd9f2b6d	-0.07771955
18	0x3e6088be	0.21927163
19	0x3dc9b0c9	0.09848172
20	0x3e39fef7	0.18163668
21	0x3d51b212	0.05119521
22	0x3d5709f2	0.05249972
23	0xbdc3e066	-0.09564285
24	0x3d1b298d	0.037881423
25	0xbcd8d943	-0.026470786
26	0xbd13a5b9	-0.036046717
27	0x3dab8e04	0.08376697
28	0x3d3be506	0.04587271
29	0xbd215ff7	-0.03939816
30	0x3cad1328	0.021127298
31	0xbd374db1	-0.044751827
32	0x3c16777f	0.0091837635
33	0x3da0625e	0.07831262
34	0xbe05073e	-0.12991044
35	0x3d54ffe5	0.052001853
36	0x3ccdadc5	0.025107274
37	0xbd01bae2	-0.031672366
38	0x3e104f3d	0.14092727
39	0xbd8ef626	-0.06980543
40	0x3db0f1d5	0.08639876
41	0xbdebbded	-0.11510835
42	0xbd40039a	-0.046878435
43	0x3e1d0ef6	0.15337738
44	0x3cc237e7	0.023708297
45	0x3d5737df	0.052543517
46	0xbb5d0880	-0.003372699
47	0xbddea89f	-0.10872006
48	0xbdbd65e4	-0.0924795
49	0xbe0c5235	-0.13703234
50	0x3d9f96e1	0.0779245
51	0xbdbd82d7	-0.09253471
52	0x3d640e4c	0.055677697
53	0xbc9ce177	-0.019150479
54	0xbd66c745	-0.056342382
55	0xbd73e57e	-0.059545033
56	0x3d5765b8	0.05258724
57	0x3d05e413	0.03268821
58	0x3e1d0463	0.15333705
59	0xbe08f424	-0.13374382
60	0xbdcf2f99	-0.101165004
61	0xbd68457d	-0.056706894
62	0xbc36632a	-0.011132041
63	0xbd152a34	-0.0364172
