saved_models/FADA-few-shot-retraining/mnist/encoder_mnist_18.pt (torch_old, 197624 bytes, 10 tensors)

conv1.weight f4 [6, 1, 5, 5]
00000000: 08c4 86bc f707 9e3d 9775 22be f19a d1bd
00000010: cf30 37bd e059 ffbc 80e2 1abe 4540 78bb
00000020: 776c 2cbe 52bb 133b 5600 b0bd 1805 033d
00000030: 3b20 04be c374 45be 1465 023e 55c5 a7bd
00000040: d6ae beb9 49c4 02be 1708 76bd 2fde d23c
00000050: 2e56 b43d c164 44bd e05e 3abe f0df e23c
00000060: d239 943d 3e3c 583e 468b bb3d 574e eabc
00000070: b3ed 223d c3b1 1bbe f772 493d 28e1 2dba
00000080: 7391 73be ae21 81be 8c06 24be 9231 3abe
00000090: a925 bebd 621d 2fbe 3137 2abe 8e01 47be
000000a0: 40cf 933d 6f63 51be 5b21 2ebe 31f6 cabd
000000b0: 2085 3bbc c02f cbbd 0613 993d 7fcd f6bc
000000c0: 9a87 213e eba1 873e 484a 8bbe d300 0abe
000000d0: b063 a43d 6100 c43e f91b 043e d4d6 99be
000000e0: eccd 093e 695b 163f ec2f d33e 8195 99be
000000f0: eafb 94bd 5c00 af3e c483 163f 5eb1 60be
00000100: 229d afbe b421 7f3d d9a7 663e aa96 203e
00000110: a24e 6fbe 52f5 6dbe cea9 193e 2872 233e
00000120: 3307 5b3d 5458 82be c859 a83c 978e 243e
00000130: c285 843c 4e2b d4be 7699 4ebe 1489 5abd
00000140: d5fd af3e 0d2a 8a3e 98a5 cfbe dd1e bcbe
00000150: c479 0cbd 7fc8 4e3e 12b5 e73e 8f14 a0be
00000160: 7b18 80be e5c6 acbe 9488 7cbc 3bb9 b63e
00000170: 755f 803e 1f1e 033d fd25 9abe 2184 2c3e
00000180: d650 cd3e 5282 ec3e 809c b93e 9c70 ac3c
00000190: c96a 983e 7e68 e23e 8858 7c3e c785 54bd
000001a0: dba5 5abb 6257 963e 5674 ea3e d084 fa3e
000001b0: 5ba7 6b3e 928c 993d 3a8f c1be 0793 91be
000001c0: e9bb 9d3d 1a3a adbd c747 8dbd d618 87be
000001d0: a031 f2be 1aa4 81be d8f3 0fbe 7cfe 32bd
000001e0: 2146 d6be 07f3 49be 8433 a0be f9f3 8dbc
000001f0: 9988 a23c 2ec1 53bc de3e ddbc bb3a 83be
00000200: e380 67be 4655 28be 7e7d b2bd 02a4 35be
00000210: 69d2 a6be 6d33 84be 426e 4abe 4652 06be
00000220: e878 b3be 670c 94be 3ef4 be3d b641 3c3e
00000230: 7958 73bd 8d91 033e c8a9 b53e ee9c b23e
00000240: 69f7 7b3e 0080 9f3e f156 fe3e 46d5 bb3e
00000250: 2da1 1f3e b65c d8bd
-0.016450897 0.07716363 -0.1586517 -0.10234631 -0.044724282 -0.031170785 -0.15125465 -0.0037880105
-0.16838251 0.0022542072 -0.08593814 0.03198728 -0.1290292 -0.19282822 0.1273387 -0.08191935
-0.00036369887 -0.1277019 -0.06006631 0.025740711 0.088055 -0.04794765 -0.18200254 0.027694672
0.07237591 0.2111673 0.09157424 -0.028601808 0.03977747 -0.1520453 0.049181905 -0.0006632977
-0.23785953 -0.25221008 -0.16018122 -0.18182972 -0.09284527 -0.17101052 -0.16622616 -0.19434187
0.07217264 -0.20448087 -0.17004912 -0.099102385 -0.011445314 -0.09921217 0.074743316 -0.030127285
0.15774384 0.2649072 -0.2720511 -0.13476877 0.080268264 0.3828154 0.12901296 -0.30046713
0.13457459 0.5873323 0.412475 -0.29996875 -0.07274611 0.34179962 0.5879481 -0.2194266
-0.3429957 0.062288 0.22524966 0.15682474 -0.2336984 -0.23238114 0.15006182 0.15961516
0.053473663 -0.25458014 0.020550624 0.16070019 0.016177062 -0.4143929 -0.20175728 -0.053353384
0.34373346 0.26985207 -0.40556026 -0.36742297 -0.034295812 0.2019367 0.45255333 -0.31265685
-0.25018677 -0.33745494 -0.015413422 0.35688195 0.25072828 0.032011148 -0.30107108 0.16847278
0.40100735 0.46193177 0.36252213 0.02104979 0.2976897 0.44220346 0.24643147 -0.051885393
-0.0033363018 0.29363543 0.45791882 0.48929453 0.2301306 0.07497515 -0.37804586 -0.28432485
0.07701857 -0.084583476 -0.06898456 -0.26386136 -0.47303486 -0.25320512 -0.14057863 -0.043699726
-0.4185038 -0.19721614 -0.31289303 -0.01732825 0.019840525 -0.012924476 -0.027007516 -0.25630745
-0.2260776 -0.16438779 -0.08715342 -0.17738345 -0.32582405 -0.25820485 -0.19768623 -0.13117322
-0.35053182 -0.28915712 0.09323929 0.18384442 -0.059410546 0.12848492 0.35481095 0.34885353
0.24606098 0.31152344 0.49675706 0.36686152 0.15588827 -0.10564558

conv1.bias f4 [6]
00000000: 9c1e 9dbe b9c1 eabd 30d1 943d c186 ff3d
00000010: b264 57bc 0d4f b5bd
-0.30687416 -0.11462731 0.07266462 0.12476874 -0.013146566 -0.08852968

conv2.weight f4 [16, 6, 5, 5]
00000000: c986 d53c 3906 f43d d0f7 65bd 46a7 ffbc
00000010: c149 aabc 880d c2bd bd17 1e3d 5741 7d3c
00000020: 34d7 92bc eefd 46bd bfb7 36bd 1601 d33c
00000030: c4d7 0c3d 8ce0 66bd 518a afbd 528c b6bc
00000040: bb73 75be 4fca bdbd 9dc5 e1bd e737 49be
00000050: 26ab 9bbd 46f9 87be 253d acbe a7e1 86be
00000060: 00ea 22be 319a 963d 6ed9 f53c dca9 1fbe
00000070: d4cc b83c e38c 4cbd c1a8 113d 0f4f 7bbd
00000080: bec8 b4bc 6775 833d 850e 7dbd 8561 87bd
00000090: 1ad8 57bd 645c b5bc 98ac d4bc 7a93 76be
000000a0: adad 87be 9ba9 50be 72a1 2fbe 90ad 41bd
000000b0: 183a 4bbe cda3 c5bd de15 82be c918 2dbe
000000c0: 8054 8bbe 1afe 2dbe a8f1 18be f6eb e9bd
000000d0: 8b34 14bb b2a0 ef3d 29df d83d 6731 f23d
000000e0: c358 eebc e750 073e 4071 af3c eb12 1b3d
000000f0: d290 0d3e 3eec 3cbd abf2 9b3d 492a 3cbd
00000100: abd3 873d 9e29 a0bd b628 0cbe ad5f e4bc
00000110: 1b8d acbd 2594 103e cd63 71be caf1 42be
00000120: 2db6 8ebe cc62 24be 5d7f 553e a6ec cbbc
00000130: bb65 6f3d a7b5 b8bd 3b8d 0f3b b7d8 b63a
00000140: e03f 8d3c 759e 8d3d b312 0cbe 354d 96bc
00000150: 9739 f63d 6466 1e3e 1467 883e 0d57 b03d
00000160: 56ef b4bd c8f2 a5bd 8102 24bd 71fe 8f3e
00000170: 7ebd 043e e779 30b9 21ae 5fbd 3d7f 94be
00000180: 02d8 a0bd c734 973b 1016 0fbd 8675 b5bd
00000190: ca71 513d e006 abbd fdc9 c9be 01fc f7bd
000001a0: 36c6 eabd 2c97 e8bd d48e 2dbe e7cd 9d3c
000001b0: 29c0 6cbb dbcb b5bc 0b57 d03d e457 30be
000001c0: 29ee 2ebe 43f3 d2bd 5854 02be 9734 7d3e
000001d0: 9839 2f3d 4698 80bd ea61 20be 1472 b7bd
000001e0: 0a70 f23d 7200 823e 2785 673e 6ac5 2d3e
000001f0: 9184 9b3d aeec 1fbd 6040 bbbb 0934 8c3c
00000200: 1946 09be 0a3b 703c ad8e 9e3d 1f08 0bbb
00000210: 9aa7 87bd f8c4 22bd b8ad 4dbd aa85 903d
00000220: 6cfb c53d 40a6 493d d5d2 a83d c241 dfbb
00000230: e062 b5bd 1fb0 d0bc 141f 8abc 3503 d53d
00000240: 6e54 1b3e cc8f 38be 3a78 21be f46d c73c
00000250: 395e 97bc 320e c9bd 75d4 0f3d e81b 733d
00000260: 5b7b 6e3d dc9a aebc 788b 3f3d 1faa e9bd
00000270: 0411 6ebd b3e5 86bd 44cc 913d a18f 813d
00000280: 3a14 19bd d80d a6bd 5d4e 263d 9f58 f2bc
00000290: 6f47 8e3d f8fe bdbd 1fc9 91be d805 61be
000002a0: 0566 18be 42cc c3bd ad12 72bd ade9 55be
000002b0: aefe 00be 5f0d 21bd 4366 5c3c 3041 8f3c
000002c0: 27e2 6d3d b542 1d3e acdc a6bb 8523 f63c
000002d0: 9b9e 82bd 3ff9 ea3d f5e1 92bd d0d8 33bd
000002e0: cb75 e13c 3a75 36bd 0cc9 bbbd 7d72 14be
000002f0: 7ef3 f1bd 166d 693d 1b2b 0bbe b1d6 c8be
00000300: cdfa 8dbe 7c1a cdbd 186c 58bc a28f d1bd
00000310: 3549 66be 3b36 38be 783f afbc 8aa9 dc3d
00000320: 456a 1b3d 62f1 1a3d d7aa bb3c 2a45 f2bc
00000330: a8e0 f93c 9c12 243e 6985 663e bac1 5e3e
00000340: 054c a2bc 97d9 c7bd 9bdd f63d 4563 a63d
00000350: 37be 1a3e f979 bbbd 1bdc 2abd a0ec 7dbd
00000360: 7ff5 6fbd 395f 04be 7b1a 963d 728b 193e
00000370: 974b fcbd 42d1 57be f687 26be 3f06 503d
00000380: a08f 1f3d 8159 703d a667 bc3d 943e 56bc
00000390: eec7 703c 81e2 a43c 512b bd3b d344 b93d
000003a0: 2f1c 31be fda6 c2bd 3e26 ca3b e033 1f3e
000003b0: a919 e53d 8d77 8f3e 8013 fe3d e4b8 3abc
000003c0: 5fe3 0d3e d78b 663e 9322 803e 7cae cf3d
000003d0: 98d6 8d3b bbe4 adbd 6839 2b3e ceb0 093d
000003e0: 142c 0fbc 8922 943c e360 d43d b1c3 09bd
000003f0: b570 96bd 2770 b13d 0023 f13d c806 063e
0.026065247 0.119152494 -0.056144536 -0.031207692 -0.020787122 -0.09475237 0.038596857 0.015457473
-0.017924882 -0.04858201 -0.044608828 0.025757354 0.034385458 -0.05636649 -0.08571304 -0.022283707
-0.23969929 -0.09267103 -0.1102402 -0.19650231 -0.07601003 -0.26557368 -0.336404 -0.26344034
-0.15909576 0.073536284 0.030010905 -0.1559214 0.022558607 -0.049939048 0.035561327 -0.061354693
-0.022068378 0.06418877 -0.061781425 -0.06610397 -0.052696325 -0.022138782 -0.025961205 -0.24079695
-0.26499692 -0.203772 -0.1715143 -0.047284663 -0.1984638 -0.09650383 -0.25407308 -0.16903986
-0.27212906 -0.16991463 -0.14935935 -0.11421959 -0.0022614326 0.11700572 0.105894394 0.11825829
-0.02909506 0.13214456 0.021416306 0.03785984 0.13824776 -0.046123736 0.076146446 -0.045938764
0.06632169 -0.07820438 -0.13687405 -0.027877653 -0.08425351 0.14119013 -0.23573227 -0.19037548
-0.27873364 -0.16053313 0.20849366 -0.024893116 0.058446627 -0.090190224 0.0021904248 0.0013950084
0.017242372 0.06914989 -0.13679008 -0.018347362 0.12022703 0.15468746 0.26641142 0.086103536
-0.08834712 -0.081029475 -0.04004145 0.2812381 0.1296291 -0.0001683008 -0.05460942 -0.29003325
-0.078537 0.004614446 -0.03493315 -0.088603064 0.05113391 -0.08350921 -0.39411917 -0.12108613
-0.11463587 -0.11356959 -0.16949016 0.019263221 -0.0036125279 -0.022191932 0.10172852 -0.17221028
-0.17083038 -0.10300305 -0.12727487 0.24727093 0.042779535 -0.06279044 -0.15662351 -0.089573056
0.11837776 0.25390965 0.22609387 0.16969839 0.075936444 -0.039044075 -0.005714461 0.017114656
-0.13405646 0.0146625135 0.07742057 -0.0021214557 -0.06623764 -0.039738625 -0.0502145 0.070567444
0.096670955 0.049230814 0.08243338 -0.006813259 -0.088567495 -0.025474606 -0.016860522 0.10401002
0.15168926 -0.18023604 -0.15768519 0.024344422 -0.018477546 -0.09817161 0.035114724 0.059352785
0.05822311 -0.021314077 0.046763867 -0.11409401 -0.058121696 -0.065867804 0.07119039 0.06326223
-0.037372805 -0.08108109 0.040602077 -0.029583273 0.069472186 -0.09277147 -0.28473756 -0.21974885
-0.14882667 -0.095604435 -0.059099842 -0.20889921 -0.12597153 -0.039319392 0.0134521155 0.017487139
0.058077004 0.15357478 -0.005092224 0.030046234 -0.06377908 0.11473321 -0.07172004 -0.04390794
0.027521988 -0.04454539 -0.09169206 -0.14496799 -0.118140206 0.056988798 -0.13590662 -0.39226297
-0.27730408 -0.10014817 -0.013209365 -0.10232474 -0.22488864 -0.17989437 -0.021392569 0.107745245
0.037943143 0.037827857 0.022908611 -0.029573996 0.030502632 0.16022724 0.2251183 0.21753588
-0.01981164 -0.09758299 0.12053987 0.08124403 0.15111624 -0.09154124 -0.041713815 -0.06199324
-0.058583733 -0.1292695 0.073292695 0.149946 -0.12319105 -0.2107592 -0.16262802 0.050787207
0.03895533 0.058679108 0.09199457 -0.013076443 0.014696104 0.020127537 0.005772986 0.0904633
-0.17295907 -0.09504507 0.0061691096 0.15547132 0.11186535 0.28020898 0.12406063 -0.01139662
0.13856266 0.22514282 0.25026378 0.10140702 0.00432856 -0.084908925 0.16721117 0.03361588
-0.008738536 0.018082874 0.10370042 -0.03363389 -0.07345716 0.086639695 0.11774254 0.13088524

conv2.bias f4 [16]
00000000: 3a05 803c a9a0 733d 3698 b8bd 6a8c 963d
00000010: 09f9 91bd 215c 823d 4533 9bbd 2772 92bd
00000020: 5762 17bc 8884 51bd ad19 8ebd 0f5e 9fbd
00000030: c18a 19bb 8181 3dbd 664f 5bbd d7b1 f13d
0.015627492 0.05947939 -0.09013407 0.073510006 -0.07127578 0.063652284 -0.07578138 -0.07150679
-0.009239755 -0.051151782 -0.06938491 -0.07781612 -0.002342865 -0.046266083 -0.053542517 0.118014984

fc1.weight f4 [120, 256]
00000000: 708d 3dbe a59e 0bbd 3ca6 f13d 8776 18bc
00000010: 4b41 34be 0474 abbe c8f9 bdbd f761 8fbe
00000020: 43e8 97be 56f0 16bd fd95 90bd 6c75 173e
00000030: 7345 16be bd94 01be e6e5 063e 60ef 033f
00000040: 10ba d93d 42f7 0abe 68e9 e7bd a4a3 fdbc
00000050: e57f e8bd c7b7 9cbe 68d3 8abe e03e 14bd
00000060: cf01 88be a308 25be d228 13be 0fdf 403d
00000070: 5fbd 7fbd 6e87 ddbd c76b 0e3e 32f4 a53e
00000080: ab25 223d 98ae a23d 9176 8abd 8493 0cbd
00000090: 9a49 96bc bc1a e83d c786 65bd 8dee d9bd
000000a0: 9c9e 833e 16c6 983b bd05 e2bc b9fc 7bbe
000000b0: 94f3 2a3e 8e7c 913d 3feb 2dbd 5ce6 87be
000000c0: e205 863d 4392 fc3c 5a1c 4f3c 076b 74bd
000000d0: f5a1 13bd 5e24 95be 841f d1be c668 e2be
000000e0: 7f19 d5bd c202 55bd 4094 283d 2a25 463e
000000f0: fbfd 29ba 24ac 953c da32 623e 93d6 c73e
00000100: c505 e53d eca9 e03c 6c3a 163d b8e7 a73d
00000110: 5097 60bd 0802 6dbd 8b6d f9bd d9aa 5fbd
00000120: 1169 aebe 762a 4fbe 44cf 60be dfdb b3be
00000130: c452 90be c14b 983b c0e8 7ebc 9efd e93d
00000140: 34e1 4dbd d384 243e 9e06 e83d 0579 8c3d
00000150: c9db 2b3c 188f 033e 863d d33d 0f46 a23d
00000160: 5169 19be d527 eb3d 4189 f73d 2a8a c43d
00000170: d344 79bb 2df9 6c3e 4ca2 28bd 106b fbbc
00000180: 6f6c 49be 5210 9a3d c058 42bd d8c7 853c
00000190: 4e5f e9bd 24f8 403d 9801 bdbd d83b 443d
000001a0: e4a9 8dbe 25e6 143d c77a 883b 35ca d73d
000001b0: 9672 fcbd acef 03bd c2a7 3e3e ac90 d33d
000001c0: 18df 5d3d 6fca c03d 5ce1 433d d411 90bd
000001d0: b67f 483e 0ff2 113e 6089 4abd 60e3 69bd
000001e0: 2aae 123e 52de b53b 1f71 7dbd 157d b5bd
000001f0: c4c0 5c3d a32f 023d cb86 1e3d fb74 243e
00000200: 0e9b a4bd 11d2 643d 93e7 033e 1b65 5cbc
00000210: b2ba 41bd a7ac 88bd 0134 163d 2332 7d3d
00000220: 2c1d 69be 69ff 5bbe f4b2 943c 2867 203c
00000230: 153e babd c7e5 e73c 9871 cf3d f8df c5bc
00000240: 10b7 39bc fc0a 2d3e 951b 7dbd 6982 d03c
00000250: 9965 b23d bc72 e43d 5e72 50be 0aeb 08be
00000260: 09bb cc3d ca25 0b3c 7920 03be a47c 283d
00000270: 8970 503e 91d9 913d a325 a13c f75c 8c3d
00000280: 090a 193e c3d3 c33d 458e 7cbd e11a febc
00000290: 440e 313e 8780 433e d023 983d 63df 8c3d
000002a0: 159c 093e 9282 7d3c 89e5 053d 2829 e73d
000002b0: d8df a23d 6cb6 4a3a fb70 13be 94bc 2bbe
000002c0: 7a0d 6bbe fafe 1fbe b8b6 64be 6c80 e3bd
000002d0: 0cb1 17be 8027 17be 8525 44be b13c 68be
000002e0: c809 95bd 5002 293c ee27 f5bd cb10 9c3c
000002f0: 639f 7c3d b2a6 c23c 7b48 473d a18c 933e
00000300: bce9 0bbe 3eeb 083d 47ee eb3c bf83 8abd
00000310: 7d2a 803d 8665 adbb ce84 973c 780f f63c
00000320: 0ce1 3cbd beb2 04bd ab89 e4bc 27fd c7bd
00000330: 46ed 223e f83f d1bc 9e9e f7bb 3ff5 f23d
00000340: 9928 193d 616e 823c 3b27 adbc c497 f2bc
00000350: 204c 703d 5e7f a33c b0cd b9bd 64fe 683d
00000360: 9c57 7f3b 4a05 02bd 9cc3 913b 9715 9e3e
00000370: 49d8 763c c708 da3c 2f3b d73d 40be 003e
00000380: 885c 98bd bccf 4b3d 4955 443d 70e8 24bd
00000390: 30fa 79bc fc84 8fbd 270c 1f3e 9483 683e
000003a0: 197d 09be 57c8 4d3c 8b33 5f3e a35d b13d
000003b0: d6a1 3cbe 39ed a4bd 4d18 853d 9e92 373c
000003c0: 7ea0 9f3d 1723 e93d e926 0cbc 5da9 2c3e
000003d0: a4e9 21be f676 5abd 9eb5 203e c67d 2b3d
000003e0: e0e0 ccbd 2ade 12be f6ac 5f3c 334a 05be
000003f0: 5291 75bc 053a 633d 3904 323d e9dc e2be
-0.18510985 -0.034086842 0.11799285 -0.009305603 -0.17603032 -0.3348695 -0.092761576 -0.2800443
-0.2966939 -0.036850296 -0.07059858 0.14790887 -0.1467493 -0.12654395 0.13173637 0.5153713
0.10631192 -0.13570884 -0.113238156 -0.030961819 -0.11352519 -0.3060896 -0.27114415 -0.036192775
-0.2656388 -0.16116576 -0.1437104 0.047087725 -0.062436458 -0.10816847 0.13908301 0.3241287
0.039586704 0.07943457 -0.06760896 -0.03432037 -0.018345643 0.11333224 -0.056036737 -0.10641203
0.25706947 0.0046622856 -0.027590627 -0.24608125 0.1669448 0.07103835 -0.042460676 -0.26542938
0.06544091 0.030831462 0.012641037 -0.05967238 -0.036043126 -0.29129308 -0.40844357 -0.4422056
-0.104052536 -0.052004583 0.041157007 0.19350114 -0.00064846844 0.01827056 0.22089711 0.39030895
0.11182741 0.027424775 0.03667681 0.08198494 -0.054831803 -0.057863265 -0.12179097 -0.054606292
-0.34064534 -0.20231041 -0.21954066 -0.35128686 -0.28188145 0.0046477024 -0.015558422 0.11425327
-0.0502636 0.16066293 0.11329387 0.0685902 0.010489413 0.12847555 0.10314469 0.07923519
-0.14981581 0.11482207 0.12086726 0.09596665 -0.0038035407 0.23141928 -0.041170403 -0.0306907
-0.1967027 0.07522644 -0.04744792 0.016330644 -0.11395131 0.047111645 -0.092288196 0.047908634
-0.2766868 0.036352295 0.004165027 0.10536615 -0.12326543 -0.03221099 0.18618682 0.10330328
0.054167837 0.09413611 0.04782234 -0.070346504 0.19579968 0.14252494 -0.049447417 -0.057101607
0.14324251 0.0055501843 -0.06187546 -0.08861748 0.053894773 0.03178371 0.038702767 0.1606025
-0.08037387 0.055864397 0.12881307 -0.01345184 -0.047297187 -0.06673556 0.03667069 0.061815392
-0.22765034 -0.2148415 0.018151738 0.009790219 -0.090938725 0.028307809 0.10129088 -0.024154648
-0.011335149 0.16898721 -0.061793882 0.02545281 0.087107845 0.11154696 -0.20356128 -0.1337091
0.099966116 0.008492896 -0.12805356 0.04113449 0.20355429 0.071215756 0.019671267 0.06853669
0.14945234 0.09561875 -0.061659116 -0.031018676 0.17290598 0.19091998 0.07428706 0.06878545
0.13438447 0.015473025 0.032689605 0.11287147 0.07952851 0.00077328715 -0.14398567 -0.16771156
-0.2295436 -0.1562461 -0.22335327 -0.11108479 -0.14813632 -0.14761162 -0.19154938 -0.22679402
-0.07277256 0.010315493 -0.119705066 0.019050976 0.06167544 0.023761127 0.048653107 0.2881823
-0.13663381 0.03342747 0.028800143 -0.0676341 0.06258104 -0.0052916436 0.018495943 0.030036673
-0.04611306 -0.032397024 -0.027897676 -0.09765082 0.15910825 -0.025543198 -0.0075567504 0.11863183
0.037392233 0.015921773 -0.02113687 -0.029613383 0.05866635 0.019958194 -0.09072435 0.05688323
0.0038962131 -0.031743325 0.0044483673 0.30875847 0.015066215 0.026615513 0.10509335 0.12572575
-0.07439524 0.049758658 0.047932897 -0.040260732 -0.015257403 -0.07007787 0.1553198 0.22706443
-0.13426627 0.012559972 0.21797006 0.08660438 -0.1842111 -0.08053059 0.06498776 0.01120439
0.07794283 0.11383646 -0.008554199 0.16861482 -0.15811783 -0.053336106 0.15694281 0.041867994
-0.10003829 -0.14342561 0.013652077 -0.13016586 -0.01498826 0.055475254 0.04346106 -0.44309166

fc1.bias f4 [120]
00000000: f676 063c b19b a1bb 3dd9 023e aa5e 1bbd
00000010: 2bd5 61bd 65b5 ad3d 14bd ce3b b77b d1bc
00000020: b7a7 763d 6371 d63d a732 28bd 9487 33bd
00000030: d123 b0bd ab2d 1f3d 992c 813d 71d0 9e3d
00000040: 6db0 a0bd eb47 28bc 31dd 9ebc 6ad3 07bd
00000050: 80c3 bb3c e2dc 983d 0a91 093d a8a3 013d
00000060: 8ea2 c6bc 8f93 633d 2fd9 0bbd 7288 943d
00000070: 585c ebbb df3d e23d b921 e93b aefe 6f3d
00000080: efaa 033d eea3 f73c ff9c 753d 8774 4ebd
00000090: 7ba5 f2bc f3cc 10bd 74da 06bc bcea 053d
000000a0: a454 4b3d 7913 abbd 3460 b0bc c842 32be
000000b0: 138d ffba d858 803c 61f7 b9bb d383 583b
000000c0: b278 26bd 5cf1 19be c650 cebd 2a71 7abd
000000d0: 0e89 733d 2f1a 313d f4f7 ddbb 8b0f a2bc
000000e0: 1c54 ac3d a940 d93c 8580 973d dc83 23bd
000000f0: 51cf 95bd 1ce0 dbbc db61 b03b 257e 91bd
00000100: 3169 f13c 216c 9e3c 1417 70bd 39c2 493c
00000110: 145d 723c 51fd 72bd 1bdb f0bc 54d3 5fbd
00000120: 708b 4dbb 1683 2abd d944 e3bb bb73 563d
00000130: e5d0 f2bc 9437 8f3d e432 afbd c5f3 93bc
00000140: 636a 0c3c 5a72 883b 3923 efba a1a5 c83b
00000150: 68f4 8cbd 0b60 b0bd e39d 55bd 2956 ca3d
00000160: f878 963b b1d8 fdbc 613c 5fba 064d 233d
00000170: b05b 96bc 2b01 4d3d 47a8 8f3d 9b87 85bd
00000180: 9422 043e f744 9abb 45de ac3d 7f0d a5bb
00000190: ec4d 3d3c 1f1a 50bd 05f6 e1bd 06a9 6fbc
000001a0: 4b1c 353d cdf1 103d 0e3d e93c ed10 7d3d
000001b0: 579e a5bd 98b7 d5bd 3be9 fdbc c68e 9c3d
000001c0: e7f5 7abd 4449 39bc 7274 1f3d a36f b1bd
000001d0: 05b5 bc3c 3d52 45bd 1a4b 12bd d50a 19bd
0.008207073 -0.00493189 0.12778182 -0.037932076 -0.055134933 0.08481864 0.006309161 -0.025571687
0.06021854 0.104708456 -0.04106393 -0.04383047 -0.086005814 0.03886191 0.063073345 0.07754601
-0.078461505 -0.010271053 -0.019392582 -0.033160605 0.02292037 0.07464005 0.033585586 0.031650215
-0.024247434 0.055560645 -0.03414267 0.072525874 -0.007182639 0.11046957 0.0071146158 0.05859249
0.032145437 0.030229535 0.059964176 -0.050404098 -0.029619923 -0.035351705 -0.008230794 0.032694563
0.049641266 -0.083533235 -0.021530248 -0.17408288 -0.0019497 0.015667364 -0.005675242 0.0033037558
-0.040642448 -0.15033478 -0.10074 -0.061143078 0.059456877 0.04323786 -0.006773943 -0.019782802
0.0841448 0.02652009 0.0739756 -0.039920673 -0.07314933 -0.026840262 0.005382759 -0.07104138
0.029469104 0.01933867 -0.05861576 0.012314373 0.014792699 -0.059323613 -0.029401353 -0.054644898
-0.0031363629 -0.04162892 -0.0069356975 0.052356463 -0.029640624 0.069930226 -0.085546285 -0.018060574
0.008570286 0.0041640224 -0.001824475 0.00612326 -0.06882554 -0.08612069 -0.052152526 0.09879715
0.0045920573 -0.030987116 -0.0008515772 0.039868377 -0.018354267 0.050049942 0.07014518 -0.06520005
0.12903816 -0.0047079283 0.08440832 -0.0050370093 0.011554223 -0.05080616 -0.110332526 -0.014627701
0.044216435 0.03538685 0.028471496 0.06178372 -0.080868416 -0.10435408 -0.030995002 0.07644419
-0.061269667 -0.011308972 0.03892941 -0.08663871 0.023035536 -0.04817413 -0.035716154 -0.037363846

fc2.weight f4 [84, 120]
00000000: 62e5 923d c77e a63d 5f9d 603d 0e43 a2bd
00000010: 0bd2 3d3d af81 ddbd f02f c9bd 0387 15be
00000020: 138f d33c 91d9 b2bd 5a17 e23d 454e 41bd
00000030: 7000 90bd bb32 003d 23ea 07bd 1839 9fbd
00000040: 6333 b43d 27c6 923d edb4 01bc 9393 3ebe
00000050: 565f 8cbd ac35 3f3d 9b17 8cbd 61e1 493d
00000060: 215e 1cbe 4712 043e 14ca 033e 0baf c7bb
00000070: 8f18 c3bc 9aee f73d 3a42 1bbd 61fd 3bbd
00000080: 6a68 b23d 936f 4c3d d47d e43d 7790 44bd
00000090: 21b2 8e3d b4ee c13d 76e2 163e 49b3 4cbe
000000a0: 2b37 45bd 07d1 3bbe 0dd5 cebd aab3 06be
000000b0: dadb 673e 2e41 1ebe fb13 6fbd 9cc1 6f3e
000000c0: 3d44 3d3d 1ac1 27bd 050e cf3d 5bed 803d
000000d0: cbf3 bb3d cc73 54bd 8329 3abd b385 563e
000000e0: 6560 f4bd bb30 48be 8769 7a3d 4c3f a23b
000000f0: de9a 14bc 8594 38bd f35a 4c3d 287b 653d
00000100: ab99 02be 9167 0d3c 7a13 b13c 4131 f8bd
00000110: ae39 93bc 3b66 5c3c 9f33 aabe 9d30 f13c
00000120: aecb 373d c285 aebc c05d 9f3d 53c8 033e
00000130: 2598 393d df9e 043e 5b3d 1dbe 9bf0 8d3c
00000140: b06f b3bd 3d77 e9bd 9221 c03d f59c d4bd
00000150: 1462 e73d 0b91 353d 810d 1bbd 961c 39bb
00000160: 2b92 efbd 73fe 4fbd 7cfa 973d e5f6 043d
00000170: b3b6 0dbc 9880 2cbe f291 233e 9b06 4abd
00000180: 9c61 bd3d 0742 89bc d5cf 97bc 9d9b fcbd
00000190: 638b 42bd f580 5ebe 0527 1c3e 8eea 47bc
000001a0: f790 74bd 8411 c5bc 9555 103e f5e0 66bc
000001b0: 81c7 873c 62de e03d 3c9f 0abd af5f d13d
000001c0: 1814 84bd 6ba2 1e3e a365 ce3c bbf0 313e
000001d0: 8c12 debc 6309 b33c fe42 65bd 6a58 99bd
000001e0: 9782 2f3e 7879 edbd 6d8d 14be c72e 393d
000001f0: 19d1 5cbd bd39 24bc 0174 15be 0b5f 3f3d
00000200: f682 3f3c 2be6 48bd 46d9 b53d 7742 6d3d
00000210: 0554 dc3c a6a3 683c 47a1 683d b03e e1bd
00000220: dd0a d8bd 89dc 3abd 317d 203c 6a15 b4bc
00000230: de5b 15bd f685 28be f3aa 623d 2fdc 9a3d
00000240: 1ecb 2f3e d1d4 bfbd bf7b 06be 3166 ebbd
00000250: 11ad bbbd 2579 acbc 7ad9 5abe 1fdc debb
00000260: 306a 75bc 5ecd 77bc bab9 f4bd e57a a93d
00000270: 9902 a3bd 030a ab3d 6551 053e add3 8ebc
00000280: 334f 11bc 7990 713e abbf bb3d 961b 65bc
00000290: a1cb 0c3c 49f9 61bd 0e35 aebd 208f 9ebd
000002a0: f329 1bbd 118b 1d3d 959a debd 5713 b0bb
000002b0: 1286 903d e8c7 1dbd d8a6 7ebc f420 a0bb
000002c0: 398f 57bd f489 88bd 3082 86be 9783 5abc
000002d0: 3cb4 d53d 9f7a 433c 6841 7b3c 0895 783d
000002e0: eb43 37be aedb e13c cbc9 dbbd 2485 bd3d
000002f0: 814f 35bd df5c 72bd 4cd3 1cba c409 f8bc
00000300: 14af b9bd 04dc 3abe 9c30 f63d de68 dabd
00000310: 92ba 193c 2f7e b93c a7df 0a3d 31b5 b3bd
00000320: 8e4f fe3d 92ea 68bd dc81 1d3d a906 5ebd
00000330: c01b ef3d a025 05be 2ab4 7f3d d2cc 16be
00000340: 6599 c83d 15b9 15bd fa49 2a3e 882d ec3d
00000350: 3f2e a93d a4e0 86be 2fc2 8fbd 66d5 ca3d
00000360: c59c 9f3d 933c 89be fc82 a1bc 6486 01be
00000370: e572 d63d 03b3 43be 3274 8cbc 257a 313e
00000380: 6cdf 4d3d 28b5 79bd 5757 2c3e fce8 38be
00000390: d0f6 143e e80d 5a3d d8fe 26bc abf5 0bbe
000003a0: f26b da3b accc 4f3e 7658 153d 2e48 263d
000003b0: 316e 073e a16f cebd 2d43 3b3d f461 36be
000003c0: bee2 a33d aa81 883c 62e4 7fbe 372b 05be
000003d0: 6031 75bc 813a 99bd 5146 253d 5cd8 b53d
000003e0: 4683 8cbc 7942 0bbc 0454 d73d be0d d23d
000003f0: 50eb e93b 7f50 1cbd f467 f33d e733 b9bd
0.071726575 0.081296496 0.05483758 -0.07922946 0.04634289 -0.10815751 -0.098235965 -0.14602284
0.025825059 -0.08732904 0.1103961 -0.047193784 -0.070313334 0.03129838 -0.033182275 -0.07774562
0.08798864 0.07166701 -0.007916671 -0.18610983 -0.068541214 0.046682045 -0.0684044 0.049287204
-0.15270282 0.12897597 0.12870055 -0.006093865 -0.023815421 0.121060565 -0.037904955 -0.045895938
0.08711322 0.049911093 0.11156812 -0.047989335 0.06967569 0.09469357 0.14734825 -0.19990267
-0.048148315 -0.18341456 -0.1009923 -0.13154474 0.2264246 -0.15454552 -0.058368664 0.234137
0.046207655 -0.04095564 0.10110096 0.06295272 0.09177359 -0.051868245 -0.045449745 0.2094944
-0.11932448 -0.19549839 0.061135795 0.004951393 -0.009070126 -0.045063514 0.049891423 0.056025654
-0.12753932 0.008630649 0.021615732 -0.121187694 -0.01797184 0.013452108 -0.3324251 0.029442126
0.04487198 -0.021304015 0.07781553 0.12869386 0.045311112 0.1295123 -0.15355437 0.017326644
-0.08761537 -0.11399696 0.09381403 -0.103815 0.11298004 0.044327777 -0.037854675 -0.0028245798
-0.11697801 -0.05077977 0.07420823 0.03246202 -0.008649516 -0.1684593 0.15973642 -0.049322706
0.09247133 -0.016755117 -0.01853172 -0.123343684 -0.04749621 -0.2172888 0.1524926 -0.012201918
-0.05970856 -0.024056204 0.14095147 -0.01409172 0.016574623 0.10979916 -0.033843264 0.10223328
-0.06449145 0.15491645 0.025194949 0.17376988 -0.027108453 0.021855062 -0.05597209 -0.07487567
0.1713966 -0.11595434 -0.14507075 0.045210626 -0.05391035 -0.0100235315 -0.14595033 0.0467215
0.011688938 -0.04904763 0.08879332 0.057924714 0.026895532 0.014199173 0.05679443 -0.10998285
-0.10548947 -0.045620475 0.009795473 -0.021982867 -0.036464565 -0.16457352 0.05533881 0.07561528
0.17167327 -0.093667634 -0.13133143 -0.11494101 -0.09163869 -0.02105386 -0.21372023 -0.006801143
-0.01497893 -0.015124647 -0.11949487 0.082753934 -0.0795948 0.08351519 0.13019331 -0.01743492
-0.00886898 0.23590268 0.09167417 -0.013983628 0.008593471 -0.055169377 -0.08506213 -0.07742143
-0.037881803 0.038462702 -0.10869328 -0.0053733992 0.07056822 -0.038520724 -0.015542708 -0.004886741
-0.052626822 -0.066669375 -0.262712 -0.0133370375 0.104347676 0.011931091 0.015335418 0.060689002
-0.17897002 0.027570572 -0.10731848 0.0925391 -0.044265274 -0.0591706 -0.00059824134 -0.030278094
-0.090665966 -0.18247992 0.1202099 -0.10664533 0.009382861 0.022643177 0.033904698 -0.08774794
0.124175176 -0.05686433 0.03845392 -0.05420557 0.11675215 -0.13002634 0.062427677 -0.1472657
0.09794883 -0.03655346 0.16629782 0.11532122 0.08260774 -0.26343262 -0.070194595 0.09903984
0.07793573 -0.26804027 -0.019715779 -0.12648922 0.10471133 -0.19111256 -0.01714525 0.1733175
0.0502619 -0.06096378 0.16830193 -0.18057626 0.14547276 0.05323592 -0.010192595 -0.13667934
0.0066657 0.2029292 0.036461316 0.04059618 0.13225628 -0.10079885 0.04571836 -0.17810804
0.08002232 0.016663391 -0.24989465 -0.13004766 -0.014965385 -0.07481862 0.040350262 0.08879158
-0.01715244 -0.008499735 0.105140716 0.10256527 0.007138647 -0.038162705 0.11885062 -0.09043103

fc2.bias f4 [84]
00000000: e7e0 2d3d 2ac3 86bd 5aea efbd 4142 883d
00000010: 8145 c83d e561 0ebe b406 0a3e 2849 13bd
00000020: 488a 14bd 71f7 813d af48 823d 5a59 41bd
00000030: 9a1b bf3a 8288 76bc 5297 c93d de36 03bd
00000040: f852 8b3c bc6a 0cbc 8b06 9c3d ddb0 913d
00000050: a9c3 9fbd 8a3a c73c 4d94 d0bd ab3c 223d
00000060: bcec cfbb 2987 85bb 11e0 1b3e 7ae1 8bbd
00000070: c26d 413e 8dcd 7abb f180 d6bd f67a 723d
00000080: a0d5 513e 838a 57bd ed99 c0bd 3b6c ec3c
00000090: fad9 7ebd 8866 d23d 4902 e03b 4fb6 9e3d
000000a0: 82b2 91bd c8a0 453e de1a 88bd 17c7 373d
000000b0: f0ff ae3c bf23 a8bc 490a 47bd a4a4 e2bd
000000c0: e368 4d3d 0053 ae3d 20d8 fabd 8a2a 833d
000000d0: 6510 00bd 3afb fcbc e98a cabd f479 98bd
000000e0: 30f7 0dbe eded a03d fa3a 8b3d fdde ef3d
000000f0: 50e8 c93b 31a0 c4bd eb97 febc f660 973d
00000100: 4050 073e 41b1 d7bc 1e8f a7bd bec0 be3d
00000110: dcc2 e7bd b2cb a03c b7fb 38bb b9b3 f53d
00000120: beaf 0dbd 6db9 f43b 51d5 ab3d 8a71 d7bb
00000130: 61b4 abbd 42d8 343e 844f 703e f113 c2bd
00000140: 372c d9bc a0c5 ecbd a82f a13d 6328 e1bc
0.04245081 -0.06580193 -0.11714621 0.06653262 0.09778882 -0.13904531 0.1347912 -0.03595844
-0.036264688 0.06346024 0.063615195 -0.047204353 0.001458037 -0.015047194 0.09843315 -0.032034747
0.017007336 -0.008570369 0.076184355 0.07113812 -0.07800991 0.024319906 -0.10184536 0.03960864
-0.0063453596 -0.0040749502 0.15222193 -0.068301156 0.18889526 -0.003826949 -0.10473812 0.059199296
0.20491648 -0.05262233 -0.09404359 0.028860202 -0.062219597 0.102734625 0.00683621 0.07749616
-0.07114126 0.19299614 -0.066457495 0.0448676 0.021362275 -0.020524858 -0.048593793 -0.11066559
0.050148856 0.08511925 -0.12248254 0.06404598 -0.031265635 -0.030881513 -0.09889776 -0.07445136
-0.13863826 0.07857881 0.06798358 0.117124535 0.006161727 -0.096008666 -0.0310783 0.07391541
0.13214207 -0.026329638 -0.08181594 0.093141064 -0.11316463 0.01962838 -0.0028226206 0.1199717
-0.03459143 0.0074683935 0.08390296 -0.006574814 -0.08384014 0.17660621 0.23467833 -0.0947646
-0.026510341 -0.115611315 0.07870418 -0.027485078

fc3.weight f4 [64, 84]
00000000: 7693 fb3d 4eec 9cbb 10d6 763e c9c3 1ebe
00000010: cc95 00be 9258 193e a3eb 4dbe 7769 48bc
00000020: b8b3 883e 61a6 06be a5cf 71bd 657a 85bd
00000030: 7f7e f63a 7fdb b4ba 1de9 cdbd 8f9c f2bd
00000040: d289 54be 4585 653d 2484 23be 78c0 41be
00000050: 8c00 62bd 90e1 183e 0cd6 adb8 01e1 94bd
00000060: 2e1a 8d3d dfd6 8bbd 424b f8bc aad7 4dbe
00000070: f1a8 53be 4386 7b3d 3e49 9bbd 8db9 8ebc
00000080: 5a92 f1bd aa58 03bd f536 dc3d 4ff0 fc3b
00000090: ac62 dc3d 9fbd 5a3d 56e9 21be caff 39be
000000a0: ce1e 493c 735e 3ebc c364 db3d 85da 54be
000000b0: df5e 0f3d 5350 abbd b996 0a3e 4d21 42bd
000000c0: c673 f5bd 8c7d 14be 93e4 053e 3345 1e3e
000000d0: af4d 40be 7bc1 c4bd f986 bb3d 135a 6e3d
000000e0: 6dc1 063d 01e3 bfbd 302d 0dbe 6708 1b3d
000000f0: 9f6d 0f3e 02b2 3abe 697d 103e 40bc d83d
00000100: 8d02 1bbe f028 dd3d bc08 5abe aae3 3cbe
00000110: a335 55bc 7dff 29bc 780f 86bc 72af 39be
00000120: 1dcf d6bc e9e0 c1bd 493b c93d 6099 463d
00000130: 62ac c0bc e494 7cbd 4323 7abd 81d7 063d
00000140: ff6f 803e 7ada 0b3d 8ed9 853c a625 a9bd
00000150: 3389 ad3d 5893 913c f883 8ebd fd64 3cbb
00000160: 7021 27be 3471 2f3d 4f8e 3abd c78e cebc
00000170: 4437 153e be24 debd d4c4 be3d 4422 b93d
00000180: b93e 55bd 9659 1fbe ef6b 023e 6686 df3c
00000190: d875 833e c3e3 7fbd 2586 3fbe 3dc6 833d
000001a0: 7cf7 b13d 65d7 06be 14a5 2c3d 773e e2bc
000001b0: 4d30 063e 79b0 cf3d 4f8e 41bc 5fab 9bbe
000001c0: eb97 38bd 7e37 14be a32c 65bc e3a4 aa3d
000001d0: 963b 4d3e 8796 94bd 4d2e 943d 4e44 4a3e
000001e0: 0dd9 663e 4444 483e 2395 2c3d 8974 8f3c
000001f0: f0d7 10be 6a52 a9bd 99f4 50bd 914a 5abe
00000200: ba8e 03bc 321d 56be d056 57be a007 05bc
00000210: fe9a f13d 5952 1b3e 76ef 7cbd b76e f33d
00000220: b315 88be 808b 49be c033 dcbd fe34 a1bd
00000230: cc93 9abd f1bd 3b3e 3e21 9dbe 74ae 373e
00000240: 3339 5bbe d84c dabd 9233 4fbe 0615 c93d
00000250: 2391 333c 327b 0a3c 09e8 8ebd a2dc 27be
00000260: b401 cdbd a4f0 3dbe 945c 783d 6b79 a1bd
00000270: b4c4 8dbd 9a07 2abe 1588 17be 9097 86bd
00000280: 6ed3 13be b1a7 10be f2cb a8bc 0cca 173e
00000290: 94d8 0c3e f1a8 3a3e ec4d 29be a991 17bb
000002a0: cc8f 873d 9ba8 fabd 4956 30be 26cf 123d
000002b0: b3b7 5b3e e442 0a3e a9c3 823e 1e5e e93c
000002c0: 336e c4bd 1711 da3d 6e84 dbbc 7110 1c3e
000002d0: 2b38 683d a3cc f53c 6e5d a5bd 6622 753e
000002e0: 3e87 c23d d468 9e3d 904c 963d 7d45 e13d
000002f0: 97b1 ba3d 5b28 72bd 4903 b0bc 0898 993d
00000300: af58 693b 75e1 173e 9733 523c 736f 493e
00000310: 11ad 6fbc f2d8 54be 81ed 523d a3a7 2dbe
00000320: 6e94 c8bc 548e d33c afb5 55be bb79 33bd
00000330: c56f 0d3d ced7 b33d 6389 fa3c 0ed5 313d
00000340: 1376 aabd 98fd b1bd 5f8f b0bb 070b 283e
00000350: e227 08bb e26e a33d 790e 213d 1d9c 26bd
00000360: f78b d13d 07ee a8bd ec2a bbbc e4f5 8e3d
00000370: eb20 c13c 3370 f63d e286 02bd 23a9 c63b
00000380: fd5e a93d 6b0b 4c3b bc8e 233e f699 203d
00000390: e192 37bc b310 4bbd 38ab b83d 48ae 173e
000003a0: 2e3a 513e ddb5 40be d749 cf3d a5a3 d33d
000003b0: ad10 0dbd 5e5c 313e f13d 0b3d 5762 163e
000003c0: 1845 95bc 74bc 70be d625 94bc 1c74 05bd
000003d0: a5a5 383d 99e4 1a3e 4bbb cbbd 408f a2bd
000003e0: 34f2 4ebe 8d8b c9bd cb29 673c d2f6 573e
000003f0: 7d6f 7fbd 46e0 8d3e 7821 823e b9df 033e
0.12283985 -0.004788912 0.24105096 -0.15504374 -0.12557143 0.14975193 -0.2010942 -0.012232176
0.26699615 -0.13149406 -0.059035916 -0.065174855 0.0018806009 -0.0013798325 -0.100542285 -0.118462674
-0.207557 0.0560353 -0.15968376 -0.18921077 -0.055176303 0.14929795 -8.289152e-05 -0.072694786
0.06889759 -0.06828093 -0.030309323 -0.201018 -0.20669915 0.06140734 -0.07582329 -0.017422462
-0.117954925 -0.03206698 0.1075267 0.0077190767 0.10761008 0.053403493 -0.15811667 -0.18163982
0.012275411 -0.011619198 0.10712578 -0.20786484 0.035002586 -0.0836493 0.13534059 -0.04739504
-0.11984973 -0.14501017 0.13075475 0.15456085 -0.18779634 -0.09607216 0.09156603 0.05819137
0.03289931 -0.093694694 -0.13786769 0.03784981 0.14006661 -0.18231967 0.1411034 0.10582781
-0.15137692 0.10798824 -0.21292394 -0.18446222 -0.013013276 -0.010375855 -0.016364798 -0.18133333
-0.026221806 -0.09466726 0.09825761 0.048486114 -0.023519699 -0.06166543 -0.061068784 0.032920364
0.25085446 0.034143902 0.01633909 -0.08259134 0.08473434 0.017770454 -0.06958765 -0.0028746717
-0.16321349 0.04283257 -0.045545872 -0.025214566 0.14571863 -0.10846852 0.09314886 0.09039739
-0.05206177 -0.15561518 0.12736486 0.027285766 0.25675845 -0.06247307 -0.18703516 0.06434295
0.08689782 -0.13168104 0.04214962 -0.027617676 0.13104363 0.10141081 -0.011813714 -0.30404183
-0.045066755 -0.14474294 -0.013987693 0.08332231 0.20042261 -0.07255273 0.07235394 0.19752619
0.22543736 0.19557291 0.042134415 0.017511623 -0.14144874 -0.08267672 -0.051014517 -0.21317507
-0.008029634 -0.20909575 -0.2102921 -0.008119494 0.117971405 0.15168132 -0.061751805 0.118863516
-0.26579055 -0.19682121 -0.10752058 -0.078714356 -0.07547721 0.18334176 -0.30689424 0.17937642
-0.21408539 -0.10659188 -0.20234516 0.09818463 0.010959896 0.008452224 -0.06977851 -0.16392758
-0.100100905 -0.18548828 0.060635164 -0.07884487 -0.06922284 -0.16604462 -0.14798005 -0.06571877
-0.14436123 -0.14126469 -0.020605061 0.14823169 0.13754493 0.18228509 -0.16533631 -0.0023127592
0.06619224 -0.1223919 -0.17220415 0.035842083 0.21456794 0.13502079 0.25539902 0.028487261
-0.09591331 0.10647791 -0.026796546 0.15240647 0.05669419 0.030004805 -0.08074461 0.23938903
0.09498452 0.07734838 0.07338822 0.10999582 0.09115904 -0.059120517 -0.021485941 0.07499701
0.0035605838 0.14832099 0.012829683 0.19671421 -0.014628665 -0.20785883 0.051496033 -0.1695848
-0.02448484 0.025824703 -0.20870088 -0.043817263 0.03453042 0.08781396 0.03058309 0.043416075
-0.08323302 -0.08690947 -0.005388185 0.16410457 -0.0020775725 0.079801336 0.039320443 -0.040676225
0.10231774 -0.08248525 -0.022847615 0.06980494 0.023575267 0.12033119 -0.031866916 0.006062643
0.08270071 0.0031134735 0.15972418 0.03920933 -0.011204452 -0.049576472 0.090170324 0.14812577
0.2043235 -0.18819375 0.10121506 0.10333947 -0.03443973 0.17320392 0.03399462 0.14685951
-0.018221423 -0.23509389 -0.018084448 -0.032581434 0.045079846 0.15126266 -0.09947833 -0.07937479
-0.2020958 -0.0984107 0.014109085 0.21090248 -0.062362183 0.2771017 0.2541616 0.12878312

fc3.bias f4 [64]
00000000: fc25 24bd 1406 d6bc be20 313e 6db9 e3bd
00000010: 3891 f0bd a1e1 f9bd 3725 12bd 1ae0 f7bb
00000020: ddca eabd 9c80 be3d ba9d 163d caf1 c8bd
00000030: 50db 25be 9a97 29bc d71b 803d af2a 433b
00000040: aeaf 193d 296b 69bd 2680 2a3e 3fee 053e
00000050: af7e 2b3e 70cd 7e3d f55b 823d f766 9cbd
00000060: 9a38 7d3d 9f2a 85bc 76ba c7bb 7c4f ed3d
00000070: e29b 643c a86e 94bb 88fa 073d 4f88 1bbd
00000080: 6bdd c53c 13b4 4c3d c75b d9bd 879d c73d
00000090: 711b 3d3d e324 8abd 3b8f d63d 0330 b5bd
000000a0: 7b9b da3d c870 01be 7e53 2dbd 52c0 493e
000000b0: a9b4 853d 396a 2f3c 3a05 29bd 670c 0fbe
000000c0: a033 cebd a8ba 21be 7ba6 4f3d d916 9bbd
000000d0: 43e6 7b3c 3521 e7bc 3539 7abd 046f cabd
000000e0: 3408 a63d d309 c23c c07d 1b3e 4a96 35be
000000f0: cc7f f4bd f19d d6bd 479f a03c f09d f8bc
-0.040075287 -0.026125945 0.17297646 -0.111193515 -0.11746448 -0.122012384 -0.035680022 -0.007564557
-0.11464474 0.09301874 0.036771514 -0.098117426 -0.16196942 -0.010351086 0.0625531 0.002978008
0.037521057 -0.05698696 0.16650447 0.13079165 0.16747545 0.06220764 0.06365196 -0.076368265
0.061821558 -0.016255675 -0.006095226 0.11587426 0.013953181 -0.004529793 0.03319791 -0.03797179
0.024153432 0.04997642 -0.10613208 0.09746843 0.04616875 -0.06745317 0.10476538 -0.08847048
0.10674187 -0.12640679 -0.042315952 0.1970227 0.06528599 0.010706478 -0.04126475 -0.13969575
-0.100684404 -0.1579386 0.050695878 -0.07572717 0.015374723 -0.028214077 -0.061089713 -0.09884456
0.08107033 0.023686325 0.15184689 -0.17733112 -0.11938438 -0.10479344 0.0196072 -0.030348748
