saved_models/FADA-few-shot-retraining/mnist/encoder_mnist_15.pt (torch_old, 197624 bytes, 10 tensors)

conv1.weight f4 [6, 1, 5, 5]
00000000: 3343 84bc 38ec a53d 33d8 1abe bbc8 d6bd
00000010: 9d88 25bd 0996 24bd e40e 13be 15e7 e0ba
00000020: 9c15 3abe f118 25bc 5a3c a0bd 782e 273d
00000030: ec25 fdbd 709a 46be ffa7 f13d 9238 a5bd
00000040: 5aa9 1f3c c655 eabd e37b 80bd b674 003c
00000050: 2bcc bf3d d91d 4abd 6dd4 3abe 9db5 c63c
00000060: f97e 8a3d 70cf 633e 362e d33d 90d0 75bc
00000070: a03f 4a3d dfce 07be ec56 5d3d f3da e7bb
00000080: b86f 6fbe 13cb 75be 71ef 0bbe f45c 1bbe
00000090: 9f00 afbd 4403 25be 43ee 1bbe 17ce 35be
000000a0: f718 a83d 341f 48be d9ea 21be 0933 c4bd
000000b0: 7e61 75bc edd5 cebd d569 933d 9ce5 f7bc
000000c0: e9eb 0a3e f257 743e 921d 91be a4fb f9bd
000000d0: 2b7f c93d 3137 c23e aabb f33d fbec a3be
000000e0: ebe5 fc3d c02f 133f 278c cb3e ae46 96be
000000f0: 7e26 92bd 8c03 ae3e 4dd3 123f 4eb6 61be
00000100: 3b5a abbe a4bb af3d 4f5e 7b3e aab0 423e
00000110: a1ae 64be 38fd 6cbe f18f 273e 9d0b 503e
00000120: 0940 cc3d 0692 73be 9415 f73c f7a0 213e
00000130: b1d2 b13c 56bc c8be 14e8 3cbe c3f2 31bd
00000140: 2b55 b93e 5876 9f3e 6bde c0be bcd0 bbbe
00000150: fbcb 19bd 0fa4 623e 90e4 fa3e 856e a1be
00000160: f7a1 89be 89c0 afbe 010f 59bd b7cc b13e
00000170: 693c 753e 3c98 b43b 1347 a2be ce69 003e
00000180: 44e4 c13e d4df f03e 1807 bd3e 1a0d 0f3c
00000190: c6ad a13e 9263 f03e 11a8 8a3e 1e78 12bd
000001a0: 1aab 963c a22b 973e 9cc9 f13e b829 023f
000001b0: c820 7b3e 602a ac3d 6486 bdbe 5653 8ebe
000001c0: 162a b03d 0d43 93bd d58f 5cbd a031 7abe
000001d0: 7e1a ecbe f884 7dbe e5ec 01be a332 04bd
000001e0: 8201 ccbe 66cc 42be f8c2 9abe 793a 7c3b
000001f0: 2e76 193d e9f2 cebb 804f aebb dfaf 7dbe
00000200: a4d0 5cbe b255 26be de03 aabd 4d73 23be
00000210: 8589 a5be 9cd8 80be dac2 47be a6ad fcbd
00000220: d47b b3be ed75 94be 5430 c13d 5322 3f3e
00000230: 6010 57bd 4107 053e ec0c a93e 39b8 b23e
00000240: e46e 863e 1d75 a63e 3d4a fd3e 2b45 b43e
00000250: 309d 2e3e 5c68 9ebd
-0.016145324 0.08101696 -0.15121536 -0.10487505 -0.040413488 -0.040182147 -0.14361149 -0.0017158712
-0.18172306 -0.010076747 -0.07824011 0.0408158 -0.12360749 -0.1939485 0.11799621 -0.080674306
0.009744966 -0.11442141 -0.062736295 0.007840326 0.09365114 -0.04934487 -0.18245097 0.024256522
0.06762499 0.222471 0.103115484 -0.015003338 0.049377084 -0.13262509 0.054037973 -0.0070756613
-0.23382461 -0.24003248 -0.13665558 -0.15172178 -0.0854504 -0.16114527 -0.15227608 -0.17754398
0.08207887 -0.19543153 -0.15812244 -0.09580047 -0.014976857 -0.10099397 0.0719792 -0.030260853
0.13566555 0.23861673 -0.28342873 -0.122062 0.098387085 0.37932733 0.119010285 -0.3201674
0.12348541 0.57494736 0.39755365 -0.293508 -0.07136248 0.3398708 0.5735367 -0.220422
-0.33467278 0.085807115 0.24547695 0.19012704 -0.2233224 -0.2314347 0.16363503 0.2031693
0.09973151 -0.23786172 0.030161656 0.1578406 0.02170691 -0.3920619 -0.18447906 -0.043444406
0.3619779 0.31144977 -0.3766969 -0.3668269 -0.037548047 0.22132896 0.49002504 -0.31529632
-0.26881382 -0.3432658 -0.052992824 0.34726498 0.23948826 0.005511312 -0.3169485 0.12540361
0.37869465 0.47045767 0.36919475 0.008731151 0.3157789 0.46950966 0.2708135 -0.035759084
0.018392134 0.29525477 0.47224128 0.5084491 0.24524224 0.0840652 -0.37016594 -0.27797955
0.08601777 -0.07190523 -0.053848106 -0.24432993 -0.46113962 -0.24757755 -0.12688024 -0.032274853
-0.398449 -0.19023284 -0.30226874 0.0038487 0.03746622 -0.0063155782 -0.0053195357 -0.24774121
-0.21563965 -0.16243628 -0.08301519 -0.15961953 -0.32331482 -0.2516526 -0.19507924 -0.12337808
-0.3505541 -0.2899622 0.09433046 0.18665437 -0.05250585 0.12991048 0.3301767 0.34906176
0.26256478 0.32511225 0.49470702 0.3520902 0.1705215 -0.07734749

conv1.bias f4 [6]
00000000: 0b16 a0be 4128 02be 035b 893d 557b 0d3e
00000010: 9dd6 f3bc b64a a7bd
-0.31266817 -0.12710668 0.06706812 0.13816579 -0.029765422 -0.08168547

conv2.weight f4 [16, 6, 5, 5]
00000000: d2ef 653c f589 f63d 867d 2dbd bc24 55bc
00000010: 3836 0f3b b46a dbbd 4dd8 333d 2024 e13c
00000020: 02aa 0cbc 4147 e6bc 128d 34bd 6b97 b43c
00000030: e4b6 353d 334c 73bd 7375 87bd 42d3 0abd
00000040: aa7f 68be 5e53 a3bd fd37 e4bd 58b4 43be
00000050: 04f4 b1bd 64f9 90be 96d2 96be 3ebe 7cbe
00000060: 549d 1cbe 7bb3 853d f3e2 103d 6543 0fbe
00000070: b45e 0c3d 2384 5dbd 75a9 d63c 6176 5cbd
00000080: 03a4 80bc a1a8 7c3d d6fd 77bd 9638 84bd
00000090: 5747 4ebd 3e7b 47bc 2e69 adbc 3edf 6fbe
000000a0: 516b 8bbe 358d 32be ec3d 19be 2a6b 03bd
000000b0: ddbe 37be f52a ddbd 0767 78be a32b 09be
000000c0: bc7f 86be 29bf 38be fc37 11be 5923 05be
000000d0: 1760 a8bc 7d8c b83d 5930 953d 686e fc3d
000000e0: 5b71 44bd 3b33 e23d b641 beb9 3018 da39
000000f0: 00e2 0f3e d5be 16bd 6906 823d 5489 4fbd
00000100: d5cf 383d 6b79 9ebd 889a 01be 5125 1fbd
00000110: c5ac bdbd ce60 f83d 6b96 7bbe 88b8 4cbe
00000120: 7cb3 9bbe 77e6 3ebe a316 443e 0c05 5dbc
00000130: 93f0 793d 3496 9bbd 20e8 2ebc b567 06bd
00000140: 992a 1c3d a8dd 933d 7688 1bbe b452 0ebd
00000150: 21ce bc3d af57 2b3e 73de 893e 3d80 863d
00000160: 54ea d6bd 2a78 92bd d297 57bd 64c0 963e
00000170: 0b90 f23d e8df d8bc a177 0cbd ef19 9cbe
00000180: df9b a3bd 776f 6a3b f573 70bd 9712 d7bd
00000190: f330 9c3d b3cd c0bd a58e cabe 6ce6 0bbe
000001a0: 4548 0cbe fdbc 00be c9f9 3bbe 5432 9d3b
000001b0: c4a4 28bd 898c 68bd f259 e13d be2f 40be
000001c0: 0fe0 29be c887 a4bd 5719 04be d3a4 863e
000001d0: a089 463d 11de 95bd e60c f6bd ad9a 9fbd
000001e0: 8307 073e 0ff7 853e 1ab0 6a3e 4e31 313e
000001f0: 8f38 963d c1db 50bd 265c 24bd 338d 0c3c
00000200: e1bc 17be e59c bfbc f4a4 a93d b307 64bb
00000210: a9e2 9dbd f036 43bd 2adf 69bd 4476 6f3d
00000220: 8178 ce3d dd7a 4e3d a79f b13d 05f5 c9bb
00000230: 9105 c9bd ea1d 83bc 013a 08bc f2b6 c83d
00000240: 1ab6 193e 49ca 2abe 479d 1dbe 49d1 c63c
00000250: 3deb 81bc d6a4 cabd a438 553d 3536 993d
00000260: 4a0a 953d 0032 59bc 58e8 623d 05bc c8bd
00000270: 9eae 1fbd d421 26bd a27f a33d e343 8b3d
00000280: 2835 ccbc 1b08 a8bd af43 2e3d d799 1dbd
00000290: 62a6 693d 7f74 b3bd b52d 95be 18a6 6abe
000002a0: b1ea 20be e027 cdbd a2a6 47bd 1e90 43be
000002b0: 4912 09be 5178 28bd bf22 1e3d c30f c03c
000002c0: 93b2 873d 5212 203e bcae 1a3a 977d 2d3d
000002d0: da2d 2abd e638 f43d 21e9 82bd 69a0 e2bc
000002e0: 1c0f 033d 1d0a 2fbd b04a c0bd 7a82 10be
000002f0: 6b44 fdbd 1677 4f3d 3fd6 14be 97d0 c3be
00000300: 100a 82be cbe8 c4bd bdea 163c 8bb2 cabd
00000310: f710 5dbe 1e5d 42be 393c 46bb 1ebc 0b3e
00000320: 96f6 423d c94c 003d 7f47 5a3b 196a fabc
00000330: e796 083d 4c42 083e a801 5e3e 4636 543e
00000340: 4177 c4bc 16f2 a6bd 106d d83d c718 af3d
00000350: f684 203e d267 61bd d0a0 14bc fadd 67bd
00000360: 8825 64bd 4535 02be 9b4f e43d 7755 223e
00000370: 6f6c e0bd 1097 7abe ce83 2ebe 9400 9d3d
00000380: f045 45ba 34c7 a13d 34bf bc3d e751 72bc
00000390: 1174 d0bb a2a4 de3c ab6a 863c 8984 ca3d
000003a0: dcdf 1bbe ee2f ccbd 9b86 7c3c caaf 1b3e
000003b0: e606 dc3d 35ef 973e 89ba f03d e829 cdbc
000003c0: b8b1 e43d 4e07 5f3e d733 823e 46fa e43d
000003d0: 975a 5cbc 18f3 b1bd d1af 1a3e fcb7 213c
000003e0: 9fc6 3a3b 3c21 d73c 64ec b13d 43b0 1bbd
000003f0: 3bb5 7bbd 2a11 b93d 9f8b e83d 5adb df3d
0.014034228 0.12038032 -0.042356037 -0.013009246 0.0021852385 -0.107137114 0.043907452 0.027483046
-0.008585455 -0.028110148 -0.044079848 0.022044858 0.04436387 -0.05939884 -0.066141985 -0.033892877
-0.2270495 -0.079748854 -0.111434914 -0.19111764 -0.086891204 -0.2831527 -0.2945754 -0.24681947
-0.15294391 0.06528374 0.035372686 -0.13990553 0.034270003 -0.054081094 0.02620385 -0.053823832
-0.015703207 0.061684255 -0.06054481 -0.064561054 -0.050361004 -0.012175379 -0.021168318 -0.23425004
-0.27230313 -0.17436679 -0.14965028 -0.03208462 -0.17943902 -0.10799209 -0.24258052 -0.13395552
-0.2626933 -0.18041672 -0.14181513 -0.13001765 -0.020553632 0.09011171 0.07284612 0.12325746
-0.047959667 0.11044928 -0.00036288582 0.0004159822 0.14051056 -0.036803085 0.06348879 -0.050668076
0.04512008 -0.077380024 -0.12656605 -0.038853947 -0.09261469 0.12127839 -0.24569099 -0.19992268
-0.30410373 -0.18642603 0.1914926 -0.013489973 0.061020445 -0.07597008 -0.01067546 -0.032813746
0.03812656 0.07220012 -0.15188774 -0.03474684 0.092190035 0.16732667 0.26927528 0.06567428
-0.10493913 -0.07151826 -0.05263502 0.29443657 0.1184388 -0.026473954 -0.034293775 -0.30488536
-0.079887144 0.0035772005 -0.058704335 -0.105015926 0.07626524 -0.09414234 -0.39561954 -0.13662118
-0.13699444 -0.12572093 -0.18357004 0.0047972593 -0.041172758 -0.05677465 0.11003484 -0.18768212
-0.16589378 -0.08033711 -0.12900291 0.26297626 0.048471093 -0.073177464 -0.12014179 -0.07793174
0.13186459 0.26165053 0.2291874 0.17303964 0.073350064 -0.050990824 -0.040126942 0.008578586
-0.14818145 -0.023390243 0.082834154 -0.0034794628 -0.077092476 -0.047659814 -0.05709759 0.058462396
0.10081578 0.05041014 0.086730294 -0.006163242 -0.09815515 -0.016005475 -0.00831461 0.09800519
0.15010872 -0.16678728 -0.15392028 0.024269717 -0.01585924 -0.09894721 0.05205597 0.07481042
0.07277353 -0.01325655 0.05539736 -0.09801487 -0.038984887 -0.040559605 0.079833284 0.06800058
-0.02492769 -0.08204671 0.042545017 -0.03847679 0.05704344 -0.08762454 -0.29136434 -0.22914922
-0.15714528 -0.10017371 -0.048742898 -0.19097945 -0.13385881 -0.041130368 0.038607355 0.023445016
0.06625857 0.15631989 0.0005900671 0.0423561 -0.041547634 0.11924915 -0.06392122 -0.02766438
0.03199683 -0.042734254 -0.093892455 -0.14112273 -0.12366565 0.05065068 -0.14534853 -0.3824508
-0.25398302 -0.09614714 0.009211239 -0.098973356 -0.21588503 -0.18980834 -0.0030248298 0.1364598
0.047598444 0.031323228 0.0033306775 -0.03056817 0.033347037 0.1330654 0.2168032 0.20723829
-0.023982646 -0.08151643 0.10567677 0.08549648 0.1567572 -0.05503065 -0.009071544 -0.056608178
-0.055699855 -0.12715633 0.11147996 0.15852915 -0.10958182 -0.24471688 -0.17042467 0.07666126
-0.0007525375 0.07899323 0.092161566 -0.014790035 -0.0063614924 0.027178112 0.016408285 0.0988856
-0.15222114 -0.09970079 0.015412952 0.15203777 0.10743503 0.29674688 0.11754329 -0.025044397
0.1116671 0.2178013 0.25430176 0.11180548 -0.013449333 -0.086889446 0.15106131 0.009870525
0.0028499735 0.026260965 0.08687666 -0.038009893 -0.06145213 0.09036477 0.113547556 0.1093051

conv2.bias f4 [16]
00000000: 3501 543c a3b6 973d e331 b8bd 05a8 963d
00000010: 8cd8 79bd 6444 873d 9b6c 80bd 3d90 8abd
00000020: f3b9 e339 0ca3 74bd 935d adbd 7027 acbd
00000030: 526b de3b cf04 46bd 4da1 0abd 1141 043e
0.012939741 0.07407882 -0.0899389 0.07356266 -0.06099753 0.06604841 -0.06270715 -0.067657925
0.00043435357 -0.059725806 -0.084651135 -0.084059596 0.006787696 -0.04834443 -0.033845235 0.12915446

fc1.weight f4 [120, 256]
00000000: f1cc 38be 1455 11bc c301 133e 1246 6d3c
00000010: 3d82 39be 3a11 a6be 82d2 d4bd 321d 9cbe
00000020: 298c 92be 2275 20bd edd4 5abd 848e 2f3e
00000030: 051f 21be 386d 04be 7985 303e 3d45 033f
00000040: 04bf 0a3e b80f b7bd ddc3 94bd 0717 4dbc
00000050: caa1 f0bd 4063 9dbe aed6 83be 3d88 37bb
00000060: a2e3 82be 9f88 07be eba5 00be 6097 c63d
00000070: 40ac 6bbd 005c c1bd 619a 2f3e 9a19 a13e
00000080: 2894 553d d436 db3d e7c2 2dbd c97f 00bd
00000090: c17c f3bc 815d f33d af38 643c fa05 62bd
000000a0: 246d 783e 7571 453b 7e74 13bc 21b1 83be
000000b0: fc22 3e3e 2f48 a33d a2b2 15bd af81 80be
000000c0: ca2f 543d ad76 f03c dbd7 f63b b4ed 83bd
000000d0: b61f 1fbd ccb4 8fbe 1ee0 ddbe 2696 e3be
000000e0: 62de dbbd 13e2 65bd 8b65 573d 5e34 6b3e
000000f0: ec77 b33b 9de5 e63c 0c11 6a3e 9739 cc3e
00000100: 336c 183e 6a62 823d 74d0 243d 566b 9f3d
00000110: d9f9 35bd fa4e 86bd 2704 c1bd 364e 6ebd
00000120: 8b49 9bbe e98b 52be b781 7abe a7e0 acbe
00000130: 990a 95be bf51 733c 1a13 2abd f887 ef3d
00000140: 331f 9ebd ce2a 1c3e 656f be3d 840d d63b
00000150: 051c 633d b3e4 283e 769b d53d 719f 8a3d
00000160: 082c 06be 4667 023e 477f f13d 40c9 a43d
00000170: fbdc 603d 6093 5b3e 571c 2bbc 71eb 08bd
00000180: ab31 43be 9809 c33d ce1e 42bd 085a 66bc
00000190: c47d 04be 4381 aa3d 31eb 7dbd 65ea 353d
000001a0: 0b31 93be c4b2 683d 3fcd 783d f02c f93d
000001b0: cc13 06be 178c f6bc e1e0 6e3e 2da2 a43d
000001c0: 4e9f 9d3d 134a c53d 16fb 0a3d 0ce3 b9bd
000001d0: 6420 2d3e 4bbe ef3d 23ea d9bc 1a33 2dbd
000001e0: e959 1f3e 03c0 babc 585c 84bd ec7b 92bd
000001f0: c64b 3c3d a472 e03c 31ed 5e3d 5f45 3a3e
00000200: a7cd 95bd 5f9b 0b3d ad7c 143e bd59 013b
00000210: 9a17 4cbd b4ce 68bd e57d fd3c cc2b ae3d
00000220: c11c 63be b3a7 4ebe d1af 563d 8a62 443d
00000230: 9ff9 a7bd 761f e13c e1d6 fc3d d43e 6a3b
00000240: c0ae 83bb 5554 163e 607b bfbd 6871 b3bc
00000250: 94a7 6c3d 3a46 bf3d 0a88 59be cdff 27be
00000260: acd5 093e 24a7 cc3b 2675 d4bd f4df 573d
00000270: 13a5 483e 8d2a be3d 7c29 033d 32fa 903d
00000280: bcaa 2e3e 267d e13d 135a a9bd aca0 6cbd
00000290: 7bf0 2e3e 5139 3f3e 13e0 953d 55d3 3e3d
000002a0: 7ba2 e23d ac7f 963a 399d 293d 91d3 dc3d
000002b0: 1f62 9f3d ed60 a8bc 1360 e5bd de43 45be
000002c0: 1b96 73be a28e 0cbe 5ed2 6bbe d1b8 99bd
000002d0: 3687 29be babf 1dbe 54db 31be c153 62be
000002e0: c248 5bbd 1551 2c3d 5e53 debd 410c 1b3d
000002f0: 299e 593d 95ff b23c 737e 153d 9222 ac3e
00000300: adc3 dbbd 7c1c 413d c101 7f3c b24a 90bd
00000310: 4b86 733d 1d42 a4bc 1f5b d23c 6836 5dba
00000320: 716b 47bc 3f74 16ba 5a86 91bc b440 f4bd
00000330: 5f2d 273e 3de0 7a3c 829f ed3c 6dd3 db3d
00000340: 1bc6 343d e63e 88bc 7504 82bd 6ec1 d5bc
00000350: c9f8 b13d 0ca5 643c 530c c9bd 730d 9d3d
00000360: 5281 ef3b 2c59 a1bc 0fca 3e39 5456 be3e
00000370: 5bc0 203d 8043 273d 17e6 d13d 742a 303e
00000380: 56dd 16bd ead8 f73c 6df6 673d d171 5b3a
00000390: 52c6 463b 72f8 5dbd 93f9 273e 452f 893e
000003a0: fe5c c8bd 66ac 083d 79b4 843e 38fd 963d
000003b0: f16e 40be cbfe 4fbd bd28 8d3d ea7d 4ebc
000003c0: a2b1 a53d 4022 fb3d 90d4 c4bb 507b 173e
000003d0: 5840 2fbe 4d37 1ebd 8b58 383e 8d79 1e3d
000003e0: 05f2 c2bd 1a35 c3bd db2b 073d 3a81 06be
000003f0: 0231 12bd f7f1 d03d 6eef 353d af25 ecbe
-0.18046929 -0.008870382 0.14356141 0.014482038 -0.18116088 -0.32435018 -0.10391714 -0.30491024
-0.2862256 -0.039174207 -0.053425718 0.17144209 -0.1573449 -0.12932289 0.17238416 0.51277524
0.13549429 -0.08938545 -0.072639205 -0.012517697 -0.11749609 -0.30739784 -0.25749725 -0.0028004788
-0.25564295 -0.1323571 -0.12563293 0.09696841 -0.057537317 -0.09441376 0.17148735 0.31464845
0.052143246 0.10703817 -0.0424222 -0.031371865 -0.029722573 0.11883069 0.01392953 -0.05518148
0.24260384 0.003012744 -0.008999942 -0.25721076 0.18568033 0.07972752 -0.03654731 -0.2509894
0.051803388 0.029353464 0.007533056 -0.06441823 -0.0388486 -0.28067625 -0.4333505 -0.44450492
-0.107357755 -0.056123804 0.052587073 0.22969195 0.0054769423 0.02818566 0.22858065 0.39887688
0.14885025 0.06366427 0.04023786 0.077841446 -0.044427726 -0.06558032 -0.0942462 -0.058180057
-0.30329546 -0.20561184 -0.24463545 -0.33765146 -0.29109648 0.014851033 -0.041522123 0.11695856
-0.077207945 0.15250704 0.092985906 0.006532373 0.055446643 0.16493492 0.104300424 0.06768692
-0.13102734 0.12734708 0.11791854 0.08046198 0.054898243 0.21442938 -0.010443768 -0.03342766
-0.19061916 0.09523314 -0.04739266 -0.014059551 -0.12938601 0.08325436 -0.061991874 0.04441299
-0.28748354 0.05681111 0.060742613 0.12166774 -0.1309349 -0.030096097 0.23327972 0.08038745
0.076964006 0.09633269 0.03393086 -0.09076509 0.16906887 0.117062174 -0.026600903 -0.042285062
0.15561642 -0.022796636 -0.06462926 -0.071525425 0.0459707 0.027398415 0.054425422 0.18190525
-0.07314616 0.03408372 0.14500685 0.0019737326 -0.049827196 -0.056837752 0.03094382 0.08504447
-0.22178937 -0.2018116 0.052413765 0.047945537 -0.08201908 0.027480822 0.123456724 0.0035743015
-0.0040186346 0.14680608 -0.09349704 -0.021904662 0.057777002 0.093395665 -0.21243301 -0.16406174
0.13460416 0.0062455107 -0.10373907 0.052703813 0.19594221 0.0928546 0.032021984 0.07078971
0.17057317 0.11010198 -0.082691334 -0.057770416 0.17083924 0.18674208 0.073181294 0.04658826
0.11066147 0.0011482141 0.041409705 0.107825406 0.07782387 -0.02055403 -0.11199965 -0.1926417
-0.2378773 -0.13726285 -0.23029467 -0.07505954 -0.16555485 -0.15405169 -0.17368823 -0.22102262
-0.053536184 0.042069513 -0.10855745 0.037853483 0.05312935 0.021850387 0.036497544 0.33620125
-0.107306816 0.047146305 0.015564383 -0.07045497 0.059454244 -0.020051057 0.025678216 -0.0008438588
-0.012171612 -0.0005739368 -0.01776426 -0.11926404 0.16325901 0.015312252 0.029006723 0.10733686
0.04413424 -0.016631555 -0.06348506 -0.026093211 0.0869003 0.013955366 -0.09816804 0.07668581
0.0073091174 -0.01969584 0.00018195085 0.37175238 0.039245944 0.040835857 0.10248964 0.17203695
-0.036832176 0.0302548 0.056631494 0.0008371147 0.003033061 -0.054192014 0.16403799 0.26793876
-0.09783362 0.033367537 0.2591894 0.073725164 -0.18792321 -0.0507801 0.06892536 -0.012603262
0.080905214 0.12262392 -0.0060067847 0.14793134 -0.17114389 -0.038626958 0.18002526 0.03869014
-0.09518818 -0.09531613 0.03300081 -0.13135234 -0.03569127 0.10202401 0.04441779 -0.461225

fc1.bias f4 [120]
00000000: b5f4 bd39 b19b a1bb 7afe df3d 1d6e 14bc
00000010: 2bd5 61bd 6b5d a63d 7308 ae3c 40ee afbc
00000020: c0e6 033d 9bb4 be3d dea3 59bd 2ad6 c1bc
00000030: d123 b0bd 3b8e 0c3d 98e1 143d b07f ba3d
00000040: 7e24 8abd eb47 28bc 31dd 9ebc 795e a1bc
00000050: 868d 253d c7e3 853d 0a91 093d 017b 693b
00000060: 0cc0 99bc b641 553d 0afb 2cbd 7c1d 513d
00000070: cea2 3dbc 9c74 d43d e981 cb3c d29a 0a3d
00000080: ec18 d23c f290 b73c 0adb 8c3d 66f8 46bd
00000090: d8f7 d3bc 5b8e 06bd 5625 44bc 11a3 243c
000000a0: 4702 823d e9db 9dbd a8ba 88bc 8b60 16be
000000b0: aeed d53c 73b2 55bb 61f7 b9bb 4afa 4c39
000000c0: 552c 15bd df3a 22be 1ce6 bdbd 8e8f 19bd
000000d0: a6f8 413d 2f1a 313d 4019 9b3b f954 25bd
000000e0: 0c2e ec3d 77fa f23c e95b 823d dc83 23bd
000000f0: 59dc 8dbd 1ce0 dbbc db61 b03b 257e 91bd
00000100: 27cf 1e3d 216c 9e3c fbc8 5abd 008c 353d
00000110: 8d2f ea39 51fd 72bd 194c 08bd 54d3 5fbd
00000120: 708b 4dbb 131b 42bd 5228 cfbc 1939 333d
00000130: ebdf 03bd 08fb ee3c 9684 cbbd 5d17 06bd
00000140: a9dc 68bc 0278 bfbc 7b4b deba d5c4 c33c
00000150: 6064 91bd 65b3 afbd 7064 c5bd 7a10 f73d
00000160: d50b 4b3d f2de aebc fd98 d23b dc5e 113c
00000170: fbfb d73b 17e9 2e3d 3c82 5d3d 9b87 85bd
00000180: f971 ef3d 02b0 2bbc b0a1 af3d b777 fb3c
00000190: 791c 3ebc 88de fabc 0547 c5bd 3a77 9fbc
000001a0: 2aec 6c3d 8781 b2bb 4396 093d 8a7e 213d
000001b0: 7d70 a2bd 28a0 d3bd 3be9 fdbc 7a5a 713d
000001c0: 0280 f9bc 7cb4 073c 7980 cb3b 11b6 b8bd
000001d0: ab5a 403c 3d52 45bd 5d5e 11bd e329 05bd
0.0003623121 -0.00493189 0.109372094 -0.009059456 -0.055134933 0.08123287 0.021244263 -0.021475911
0.032202482 0.093117915 -0.05313479 -0.023661692 -0.086005814 0.03431533 0.036347955 0.09106386
-0.067452416 -0.010271053 -0.019392582 -0.019698368 0.04041817 0.06537586 0.033585586 0.0035626295
-0.018768333 0.05206462 -0.042231597 0.05105351 -0.01157446 0.10373804 0.02484222 0.033839054
0.02564665 0.022407982 0.06877716 -0.048576735 -0.025875017 -0.032850605 -0.011971792 0.010048644
0.063480906 -0.0770796 -0.016690567 -0.14685266 0.026114311 -0.0032607585 -0.005675242 0.00019548196
-0.03641923 -0.1584277 -0.092724055 -0.03749042 0.04735627 0.04323786 0.0047332346 -0.04036424
0.1153222 0.029660447 0.06365187 -0.039920673 -0.069267936 -0.026840262 0.005382759 -0.07104138
0.038771775 0.01933867 -0.053414326 0.044322968 0.00044667386 -0.059323613 -0.033275697 -0.054644898
-0.0031363629 -0.0473891 -0.02528778 0.043755624 -0.032195967 0.029172435 -0.09937398 -0.032737125
-0.014212766 -0.023372654 -0.0016959751 0.023897568 -0.07099223 -0.08579139 -0.096382976 0.120636895
0.04957183 -0.021346543 0.006426929 0.008872714 0.0065913177 0.04270276 0.05407928 -0.06520005
0.116916604 -0.010478975 0.08575761 0.030696733 -0.011603468 -0.03062369 -0.096326865 -0.019466031
0.05784241 -0.00544757 0.033590566 0.039427318 -0.07931612 -0.10333282 -0.030995002 0.058924176
-0.030456547 0.008282777 0.0062103835 -0.090191014 0.011740367 -0.04817413 -0.035490382 -0.03251065

fc2.weight f4 [84, 120]
00000000: 32be 843c c77e a63d 250a 223d 009d 56bd
00000010: 0bd2 3d3d a8c2 1dbe 3f0c d1bd 6b76 1abe
00000020: cbfa 543c 1a5a abbd 26e1 d83d 16fa 63bd
00000030: 7000 90bd 5f6e c13c 6a24 08bd cf84 bbbd
00000040: 25e4 9c3d 27c6 923d edb4 01bc 9e5e 3fbe
00000050: 5727 b5bd 651f 7e3d 9b17 8cbd e42f 033d
00000060: c6f8 0cbe 118b d63d 0961 fe3d 8883 66bb
00000070: 2b9b 05bd 9c95 033e 71ec 65bd 3e28 0abd
00000080: 866a a73d 1e8d 1a3d f4c4 d83d 560f 36bd
00000090: 627a 883d e70e 7e3d 3e60 f83d f8f7 53be
000000a0: e7ef 2ebd 7960 23be 8abb ecbd 7fd4 11be
000000b0: e381 733e 55e2 29be fb13 6fbd 29db 543e
000000c0: 59c9 043d 4b04 ddbc f83c a73d fa5e 8a3d
000000d0: 2125 d43d cc73 54bd 1bc0 62bd 66b2 583e
000000e0: 3156 01be d098 5dbe 15bd a53d 4c3f a23b
000000f0: 0946 74bc 8594 38bd f35a 4c3d 287b 653d
00000100: 731d d3bd 9167 0d3c 4979 f93c 3f1f 00be
00000110: c465 72bd 3b66 5c3c 403f a6be 9d30 f13c
00000120: aecb 373d 26c5 efbb c675 873d 8b39 073e
00000130: 3569 843d 2ec9 ec3d ae82 37be fad1 1b3c
00000140: 5720 a0bd 6b3d f3bd b86e c73d 028e e3bd
00000150: 859a d23d accb 1f3d 4cce 6cbd 94f9 84bc
00000160: 8a93 16be bb1a fcbc e537 5b3d b54a 943c
00000170: 61c5 c43a afc3 43be d48d 293e 9b06 4abd
00000180: f5f5 b93d c251 bfbc 9934 e63c 1210 e6bd
00000190: 49e1 53bd eed9 57be 15a9 ea3d 4779 fbbc
000001a0: 7b07 f0bd 70f8 f6bc fa0f 133e bce1 bfba
000001b0: a33e 763c 77f8 0a3e 3c9f 0abd 813a c63d
000001c0: c8ee 58bd 025d 073e 4209 4a3c ae49 203e
000001d0: 2fa7 6fbd 6309 b33c b6ae 12bd f568 79bd
000001e0: 22a7 293e 7879 edbd ec20 22be 12de 053d
000001f0: 19d1 5cbd 82d0 46bc eda9 3dbe 5b00 6c3d
00000200: 939b 373b 5afe 95bd 7c46 a63d 0f1a 4c3d
00000210: 0554 dc3c bf58 d73c acf9 333c d813 d2bd
00000220: 69f4 99bd 89dc 3abd 317d 203c 78f2 f3bb
00000230: 0fb2 8bbd 82e3 28be f3aa 623d 9f5f d63c
00000240: eb7e 1e3e e09b 04be ee4b 06be 84c8 fbbd
00000250: ea8c d6bd aea2 12bc a942 69be e99c c9bd
00000260: b7b3 72bd 7b4c 25bd 49b9 b6bd 1159 5f3d
00000270: feba 9abd ea4e 4e3d 55e5 223e 650c 98bc
00000280: 84a8 68bc 1e22 513e b9ea b03d f716 3dbc
00000290: 0214 9338 3973 a8bd 0e35 aebd 3ce6 84bd
000002a0: d8e2 7bbd 977b a53c 2888 e3bd 6ac6 173c
000002b0: 97c1 203d e8c7 1dbd 4aeb 78bc 592b 7bbd
000002c0: eade 71bd dbc8 c4bd 1621 6fbe 9783 5abc
000002d0: 1a98 ce3d 9f7a 433c 6841 7b3c 0895 783d
000002e0: a38b 49be aedb e13c 7aad e1bd ef03 863d
000002f0: 4391 8dbd df5c 72bd 8541 86bb c409 f8bc
00000300: 14af b9bd df6b 5dbe b5ae e63d 12cb d2bd
00000310: 9bf2 c2bc bf57 fa3a 0af1 3a3b b8a6 a7bd
00000320: 9c6e 023e 7fa0 75bd ea50 ba3c 7e91 63bd
00000330: 8271 ec3d 9481 2bbe 5860 a9ba ef7a 06be
00000340: 2eff 9f3d 39e4 41bd f8ad 353e 1b42 033e
00000350: ad21 a23d 3f76 7ebe 982f 1dbd 66d5 ca3d
00000360: 082a 943d c6bc 8ebe d775 41bd 514d 2fbe
00000370: 2043 ea3d 3acd 48be 44d6 93ba be93 353e
00000380: a440 263d 150f 92bd 3881 203e d394 3dbe
00000390: 6c7d 1a3e 5a4f 213d d8fe 26bc 9260 f4bd
000003a0: d397 9dbb fe17 4b3e bb81 763d c489 e83c
000003b0: cc92 0e3e a16f cebd be5c 443d aa88 41be
000003c0: cf8d b83d aa81 883c 116c 76be 9730 06be
000003d0: 6031 75bc c0a5 58bd ff4d af3c e50e e13d
000003e0: 2f65 01bc 4e6f b5bb b870 de3d b767 d83d
000003f0: 50eb e93b ed7e c4bc d29d 0c3e 170e 95bd
0.016203973 0.081296496 0.039560456 -0.05239582 0.04634289 -0.15406287 -0.10207414 -0.15084235
0.012999247 -0.08366795 0.10589819 -0.055658422 -0.070313334 0.0236122 -0.033237852 -0.091561906
0.076607026 0.07166701 -0.007916671 -0.18688437 -0.08845394 0.06204166 -0.0684044 0.032028094
-0.13766775 0.104757436 0.12420852 -0.0035173614 -0.032618683 0.1285004 -0.05613369 -0.033729784
0.081746146 0.037732236 0.10584441 -0.04444822 0.06663968 0.06202593 0.12127732 -0.20700061
-0.042709257 -0.1595477 -0.11559208 -0.14241217 0.23780017 -0.16590245 -0.058368664 0.20786728
0.032418583 -0.026979586 0.08165926 0.067563966 0.10358644 -0.051868245 -0.055358987 0.21161804
-0.12630536 -0.21640325 0.08092705 0.004951393 -0.014909276 -0.045063514 0.049891423 0.056025654
-0.10308351 0.008630649 0.030453341 -0.1251192 -0.059179083 0.013452108 -0.3247013 0.029442126
0.04487198 -0.007317203 0.066142604 0.13205545 0.06465379 0.115618095 -0.17920944 0.0095105115
-0.07818668 -0.11876949 0.09737915 -0.1111107 0.102833785 0.039012596 -0.057813928 -0.01623229
-0.14704719 -0.030774465 0.053520102 0.01810203 0.0015012437 -0.19117616 0.1655801 -0.049322706
0.09080116 -0.023354415 0.028101252 -0.11233534 -0.05172852 -0.21079227 0.11458031 -0.030697478
-0.11720177 -0.030147761 0.14361563 -0.0014639418 0.015029582 0.13571344 -0.033843264 0.096791275
-0.052962095 0.13219073 0.012331309 0.15653107 -0.058509048 0.021855062 -0.03581115 -0.06089111
0.16567662 -0.11595434 -0.15832871 0.032682486 -0.05391035 -0.012134673 -0.18521853 0.057617527
0.0028016313 -0.07323904 0.081189126 0.04982954 0.026895532 0.026287435 0.010984819 -0.10257691
-0.07517321 -0.045620475 0.009795473 -0.007444676 -0.06821071 -0.16493037 0.05533881 0.026168643
0.15478103 -0.12950087 -0.13114902 -0.12294105 -0.10476096 -0.008949919 -0.22779335 -0.09844381
-0.05925342 -0.04035614 -0.08922059 0.0545283 -0.07555197 0.050368227 0.15907796 -0.018560598
-0.0142003335 0.20423171 0.0863852 -0.01154112 7.013233e-05 -0.08225102 -0.08506213 -0.06489226
-0.061495632 0.020200534 -0.11109954 0.009263614 0.03924712 -0.038520724 -0.015192816 -0.061320636
-0.059050478 -0.09608623 -0.23352465 -0.0133370375 0.10087605 0.011931091 0.015335418 0.060689002
-0.19682173 0.027570572 -0.11019416 0.06543719 -0.06912472 -0.0591706 -0.004097166 -0.030278094
-0.090665966 -0.21623181 0.112637915 -0.10292639 -0.023797324 0.0019099637 0.0028525018 -0.08186096
0.12737507 -0.059967514 0.022743661 -0.055558674 0.115450874 -0.16748649 -0.001292239 -0.13132833
0.078123435 -0.04733679 0.17742145 0.12818186 0.079165794 -0.24849795 -0.038375467 0.09903984
0.07234579 -0.27878398 -0.04723152 -0.17119338 0.11438584 -0.19609538 -0.0011279066 0.1773214
0.04058899 -0.07131783 0.15674293 -0.18513803 0.15086907 0.039382316 -0.010192595 -0.11932482
-0.0048093586 0.19833371 0.060182314 0.028386004 0.13923186 -0.10079885 0.04794001 -0.1889979
0.09011423 0.016663391 -0.24064662 -0.13104473 -0.014965385 -0.052892447 0.021399496 0.10989169
-0.007897659 -0.00553695 0.10861343 0.10566657 0.007138647 -0.023986304 0.13732079 -0.07278078

fc2.bias f4 [84]
00000000: ad7d f73c cd13 abbd fd9a d5bd 0d7f 1c3d
00000010: 6842 d13d 5524 08be 42af d93d bda8 26bd
00000020: 3511 a6bc adcd 653d 7822 4c3d ea96 33bd
00000030: 30f5 a5bc a6c4 b2bc 8cf1 ea3d 3a83 e2bb
00000040: ff3b 103d 6036 6fbc 0b7a 093d acb2 873d
00000050: a9c3 9fbd 7960 ff3c 4d94 d0bd 647d 7539
00000060: c796 17bc 866e 4b3c d71c 2b3e affa c3bd
00000070: 00e5 253e 2b2b 16bd 9234 97bd 6e88 4f3d
00000080: 7320 2b3e 2874 17bd 5492 b6bd e100 d03c
00000090: 6c56 70bd 2b6c c33d cf9d 3b3c 43b2 753d
000000a0: c252 5dbd 36e6 373e de1a 88bd 5e78 353d
000000b0: d40a 1c3c c033 63bd c2d4 a5bd a4a4 e2bd
000000c0: af72 513d 98f7 953d 2a74 f3bd 064b ac3d
000000d0: d073 2fbc 5d02 68bc 2d9e d8bd 77a0 94bd
000000e0: 30f7 0dbe 6642 c73d 1848 9f3d 1008 033e
000000f0: 0fe2 e639 99c6 88bd 2083 a2bc 7efd ad3d
00000100: fbce 023e 259b c63c 41c4 c0bd 98c3 e03d
00000110: 77eb dcbd 051a 4b3c e436 69bc 98c5 e63d
00000120: 3e3d c9bc 7652 0e3c 6634 883d 3a6b 1ebd
00000130: 67c8 c9bd e670 1d3e da06 643e c387 afbd
00000140: 20a6 c23c 95ef 9fbd 95f4 963d c69d 96bc
0.030211294 -0.08353386 -0.10429952 0.038207103 0.10217744 -0.1329511 0.10629131 -0.040688265
-0.020271877 0.05610435 0.04983756 -0.043845095 -0.020258516 -0.021822285 0.11471853 -0.006912616
0.035213467 -0.014600366 0.033563655 0.06625876 -0.07800991 0.031173931 -0.10184536 0.00023411732
-0.009252257 0.012416488 0.1671022 -0.095692985 0.16200638 -0.036662262 -0.07383074 0.05066722
0.16711597 -0.03697601 -0.089146286 0.025391044 -0.05867617 0.09542116 0.011451199 0.059984457
-0.054034002 0.17958912 -0.066457495 0.044304244 0.009524066 -0.055469275 -0.08097221 -0.11066559
0.05113476 0.073226154 -0.11887391 0.08412747 -0.010708764 -0.01416072 -0.10577045 -0.07257169
-0.13863826 0.09729461 0.07777423 0.12796044 0.00044037445 -0.066785045 -0.019837916 0.084956154
0.1277427 0.0242439 -0.094124325 0.109748065 -0.10787099 0.01239634 -0.014234278 0.11268157
-0.024565335 0.008686652 0.06650619 -0.038676478 -0.09852677 0.15375099 0.22268239 -0.08570816
0.023760855 -0.078093685 0.07370869 -0.01838578

fc3.weight f4 [64, 84]
00000000: 00a0 c83d 8a9d 6a3c bd26 803e a62d 3fbe
00000010: 50e7 16be a023 203e 5399 4bbe 3dc4 763b
00000020: 49c5 863e 2b77 ddbd 7afc acbd a746 82bd
00000030: 2b1d 3d3c 7f2b cbbc 249f c2bd 534a 17be
00000040: 3923 47be 656d 983d e889 31be 63c9 52be
00000050: 8c00 62bd 01d9 173e 0cd6 adb8 5742 3cbd
00000060: 6308 a23d b49e 62bd 73f6 c8bc 64e2 57be
00000070: 1bd6 58be d22a 463d 14d3 a5bd 37a1 34bc
00000080: cd0d dbbd 4c65 43bd b0b5 d33d 4ab0 a63c
00000090: 60d1 b83d d7b7 a53d cd71 19be 0e31 30be
000000a0: 5c9c 47bc 4c0b e3bb c364 db3d 4480 3abe
000000b0: fb5c db3c 6021 88bd dda3 db3d 4d21 42bd
000000c0: 64a5 dfbd d558 0abe 7040 e43d 1f6e 1b3e
000000d0: 50a9 65be c3c1 9bbd db45 dd3d 7e82 703d
000000e0: 6dc1 063d 7c27 adbd ccde 21be 526e 433d
000000f0: 03a4 163e e190 5ebe 2ffe 123e d71d c63d
00000100: 837d 32be a2d3 f43d 88f1 7fbe 7182 48be
00000110: 20c5 2a3c 7061 9238 3168 6fba 954a 54be
00000120: de10 dcbc d869 dcbd b57b c83d 9537 653d
00000130: f01d a5bc 02d4 26bd 228a 41bd 5ccf 2e3d
00000140: f741 873e 5a19 793d 7a68 d23b cd9b b2bd
00000150: f390 723d 718c 113d 9078 82bd 2fec 1cbb
00000160: 9462 14be 415d 513d fcfd 03bd 179c 04bd
00000170: 96e5 0a3e 31c4 05be c95e 6f3d 56fb ed3d
00000180: 8889 79bd 0169 3cbe 3d59 113e 0e9d 803c
00000190: fb39 8c3e f513 86bd e1eb 59be ebcd 953d
000001a0: 7cf7 b13d 42f0 17be 14a5 2c3d 8828 1ebd
000001b0: 7c8c 1c3e 5557 003e bd55 de3b b18a 8bbe
000001c0: 65bc 56bd 73ba 2dbe 72e6 663a 044e 593d
000001d0: 7788 5c3e 98e4 25bd 2600 ad3d 5c43 443e
000001e0: 0e48 653e 1c4d 803e 057e 893d 05e9 c6bb
000001f0: 3d85 21be 1159 ccbd 99f4 50bd 36c1 69be
00000200: 0a14 72bc 50b5 32be 721e 4abe a007 05bc
00000210: 7122 003e 4d29 fb3d 00cc bdbd 1934 083e
00000220: b799 8cbe 9b7b 4fbe b45b 09be 1e1d a1bd
00000230: cc93 9abd 2923 4d3e edc4 95be 335c 423e
00000240: 31fc 80be 9e92 b0bd 9237 6fbe d36e d23d
00000250: 91b0 3fbc ffb1 123d 5eea c4bd 6832 27be
00000260: 46f0 62bd 33e6 40be a29e 0c3d e505 84bd
00000270: 46e1 5dbd 78fa 1bbe bead 07be 7531 4fbd
00000280: 142c d5bd b25c b6bd d9b4 48bc f8a1 083e
00000290: 4fc4 2e3e 990f 733e 34b9 2fbe 2db4 9e3c
000002a0: b0e8 8f3d 5641 15be a12d 38be c5c3 2b3d
000002b0: c71f 653e 5b0c 033e 19ee 6c3e 6f60 a3bb
000002c0: 1140 bfbd 40fc 943d 2a08 9abc 1193 003e
000002d0: 1c04 773d d8c4 903d 1c2e b8bd 9a9a 883e
000002e0: ce6f b63d 6c94 5b3d fafb 933d 83d5 f83d
000002f0: 97b1 ba3d 872b 5dbd 4903 b0bc 98d3 653d
00000300: 4bdf 13bc dce5 133e 97d7 a73b a92b 533e
00000310: e974 83bc 14f9 4dbe 7067 3e3d a69a 1abe
00000320: bff6 20bd 1721 f03c 7dc9 51be 20dc 95bd
00000330: d8a3 063d 0c12 2a3d b44b 773c 2fb0 8a3c
00000340: 1375 69bd 76a3 9fbd 5f8f b0bb 78cb 1c3e
00000350: 2c17 06bd 927e fd3d ceb7 763d 1d9c 26bd
00000360: c1f0 9e3d b8b5 debd 4f88 42bc d26c 9d3d
00000370: b522 423d 12fe d63d e51c 58bd 8dcd 6e3b
00000380: fd5e a93d 6fb0 c2bc cfd1 343e e0e1 7b3c
00000390: 88c8 f8bb 3863 5abd 7b60 b43d 23cd 033e
000003a0: 2abf 4c3e 6f0d 50be d61d fe3d ecbf db3d
000003b0: e206 8a3c db57 383e 4ddb d53c c198 1f3e
000003c0: 665e 283c 009b 65be 8fb5 cabc 3b77 42bd
000003d0: e1e6 203d be0c 0b3e 4c58 ecbd 0394 97bd
000003e0: 2572 7abe 9c8d 13be afdf 8c3d ba24 7d3e
000003f0: ea39 91bd bb13 943e 1998 8a3e 307f f53d
0.097961426 0.014319787 0.25029555 -0.18669757 -0.14736676 0.1563859 -0.19882707 0.0037653588
0.26322392 -0.10813745 -0.084465936 -0.06361132 0.011542599 -0.024801014 -0.0950301 -0.14774446
-0.1944703 0.0744274 -0.17337763 -0.20584635 -0.055176303 0.14828874 -8.289152e-05 -0.045961704
0.07911756 -0.055327132 -0.024531579 -0.21082455 -0.21175425 0.04838068 -0.080969006 -0.011024765
-0.10695992 -0.047704026 0.103373885 0.020347733 0.0902431 0.08091705 -0.14984818 -0.17206213
-0.012183275 -0.006928837 0.10712578 -0.18212992 0.026777735 -0.06646991 0.10724614 -0.04739504
-0.10920218 -0.13510449 0.11145103 0.15178727 -0.22427869 -0.076053165 0.108043395 0.058718197
0.03289931 -0.08454797 -0.15807647 0.04771263 0.14711003 -0.21734954 0.14354776 0.0967366
-0.17430691 0.11954428 -0.2499448 -0.1958101 0.010422975 6.979972e-05 -0.0009132652 -0.20731576
-0.026863512 -0.107623756 0.0978922 0.05596121 -0.020155877 -0.04072953 -0.047250874 0.042678222
0.26417515 0.060815193 0.006421146 -0.08721123 0.059220266 0.035534326 -0.06370652 -0.0023944487
-0.1449073 0.051114324 -0.03222464 -0.03237542 0.13564143 -0.13063122 0.058440004 0.11620204
-0.060922176 -0.18399431 0.14194198 0.01569989 0.27387986 -0.06546775 -0.21281387 0.07314666
0.08689782 -0.14837745 0.04214962 -0.038612872 0.15287966 0.12533315 0.006785123 -0.2725425
-0.05242576 -0.16965656 0.0008808143 0.053052917 0.21536432 -0.040501207 0.08447294 0.1916632
0.22390768 0.2505883 0.067134894 -0.0060702586 -0.15773483 -0.099779256 -0.051014517 -0.2282761
-0.0147752855 -0.17451978 -0.19738176 -0.008119494 0.12513138 0.12263737 -0.092674255 0.13301124
-0.27461025 -0.20261995 -0.13413888 -0.07866882 -0.07547721 0.20032944 -0.29251805 0.18980484
-0.25192407 -0.08621715 -0.23361042 0.10275044 -0.011699812 0.03581428 -0.096150145 -0.16327822
-0.055404924 -0.18837814 0.03433097 -0.06446437 -0.054169916 -0.15232265 -0.13249871 -0.050584275
-0.10408798 -0.08904399 -0.012250149 0.13343036 0.17067073 0.23736419 -0.17160493 0.019373024
0.070268035 -0.14575705 -0.17986156 0.041934747 0.22375403 0.12797682 0.23137702 -0.004985861
-0.093383916 0.07274675 -0.018802721 0.12556101 0.060306653 0.07068795 -0.0899317 0.26680452
0.08908044 0.053608343 0.07225795 0.12150099 0.09115904 -0.05399659 -0.021485941 0.056109995
-0.009025405 0.14443153 0.005122136 0.20622124 -0.016046958 -0.20114547 0.046485364 -0.15098056
-0.039297815 0.029312653 -0.20487018 -0.07317376 0.032871097 0.041521117 0.015093733 0.016929714
-0.056996416 -0.077948496 -0.005388185 0.15311992 -0.032736942 0.12377657 0.060233884 -0.040676225
0.07760764 -0.10874504 -0.011873319 0.076867715 0.04739638 0.10497679 -0.05276193 0.0036438436
0.08270071 -0.02376577 0.1765816 0.015373677 -0.0075922646 -0.05331728 0.08807465 0.12871222
0.19994798 -0.20317625 0.124080345 0.107299656 0.016848985 0.18002264 0.026105547 0.15585615
0.010276413 -0.22422409 -0.024744777 -0.04747699 0.039282683 0.1357908 -0.11540279 -0.07401278
-0.24457605 -0.14409488 0.06878602 0.24721041 -0.07091124 0.28921303 0.27069166 0.1198715

fc3.bias f4 [64]
00000000: 5f56 06bd 7775 6dbc e67f 203e ea12 e5bd
00000010: 18d6 0cbe 3c9d ccbd b5cb dfbc 0374 d03b
00000020: 22ae 89bd 7123 063e 6abc 3e3d c2bf bfbd
00000030: 1168 35be 0057 d83c af31 223d cfeb 643d
00000040: f1f3 013d c892 99bd dd28 673e c4fc ea3d
00000050: 9505 3c3e d32f 8a3d 13f8 923d d6dc 8abd
00000060: 94b3 593d 0c16 1dbd 9d20 1ebd 81e8 b53d
00000070: d450 c13c 0b28 0dbd acf3 143d 8a48 06bd
00000080: 0391 973c 4d29 9c3d 7c2f dbbd 9862 923d
00000090: b3ed 053d a59f 1bbd 8da9 003e a77d 9fbd
000000a0: 7f1e c03d e289 fdbd 0429 7abd d294 3d3e
000000b0: abca e03c b70f 3c3d 6579 3dbd 2c93 0ebe
000000c0: a553 e1bd 7d3f febd e9a3 a73d 4c5e c1bd
000000d0: c501 003d dcb9 b0bc ab3a 65bd 6b56 9fbd
000000e0: e693 763d d50e 533d b633 243e 8679 1ebe
000000f0: c43a ccbd 679f 8dbd c436 de3b 3430 48bd
-0.032797214 -0.014493338 0.1567379 -0.11185248 -0.13753545 -0.099909276 -0.027318815 0.006361486
-0.06722666 0.13099457 0.046566404 -0.09362747 -0.1771548 0.026408672 0.039598163 0.055888947
0.03172678 -0.074986994 0.22574182 0.114739925 0.18361504 0.06747403 0.07176223 -0.06780402
0.053149775 -0.038351104 -0.03860532 0.08882237 0.023598112 -0.034462016 0.036365196 -0.032784022
0.018501764 0.07625065 -0.10702416 0.071477115 0.03269739 -0.037994046 0.12564678 -0.07787638
0.09380817 -0.12379815 -0.06107427 0.18513802 0.02744039 0.045913424 -0.04625835 -0.13923329
-0.11002282 -0.12414453 0.0818556 -0.09441814 0.031251688 -0.021573 -0.055964153 -0.07780155
0.06019964 0.051527817 0.16035351 -0.15476045 -0.09972146 -0.06915169 0.006781431 -0.048874095
