saved_models/FADA-few-shot-retraining/mnist/encoder_mnist_2.pt (torch_old, 197624 bytes, 10 tensors)

conv1.weight f4 [6, 1, 5, 5]
-0.011136925 0.06310996 -0.17456943 -0.12911451 -0.07473698 -0.040358927 -0.1653596 -0.018359173
-0.18019345 -0.006924725 -0.085395895 0.02713532 -0.14170115 -0.20038489 0.13353074 -0.09267543
-0.0016480596 -0.12903695 -0.07345279 0.02600632 0.07743835 -0.05909262 -0.19201684 0.023264315
0.084332526 0.26130623 0.12930642 -0.01572318 0.051113464 -0.16046327 0.082078084 0.016948806
-0.22118254 -0.24466845 -0.1600264 -0.16503991 -0.08777183 -0.15984255 -0.14887981 -0.19489962
0.06839053 -0.21922979 -0.1750455 -0.090958275 -0.0037143286 -0.10370508 0.04683251 -0.04802895
0.133365 0.25012198 -0.27231765 -0.124700546 0.09209659 0.371158 0.106430545 -0.30829507
0.13467646 0.5847414 0.39488307 -0.30875328 -0.065703176 0.34906685 0.5975279 -0.22796264
-0.35239002 0.06405785 0.24361227 0.16547675 -0.24302967 -0.2384496 0.14012483 0.18359122
0.074979834 -0.26700872 0.020191928 0.18262148 0.05390639 -0.38053802 -0.18762451 -0.042884547
0.35847637 0.31460023 -0.37369245 -0.35843658 -0.025460642 0.20514393 0.47252885 -0.30807233
-0.25824764 -0.3368327 -0.016888203 0.34785265 0.21589367 -0.0020065317 -0.31290075 0.17978397
0.38969246 0.4389869 0.34412554 0.00669631 0.3336235 0.49375883 0.28487822 -0.032408763
-0.0011053442 0.32467228 0.49009895 0.5144922 0.24388032 0.0748216 -0.34470016 -0.26301876
0.10203058 -0.06270485 -0.061267115 -0.23324297 -0.45984173 -0.24192019 -0.13370177 -0.040320214
-0.39114538 -0.18264818 -0.30130824 -0.01361843 0.03252381 0.009126673 -0.024575856 -0.25858238
-0.22282033 -0.1768704 -0.053419165 -0.16294907 -0.32608232 -0.2680274 -0.21203296 -0.10620182
-0.33178255 -0.28371134 0.10064804 0.18444623 -0.04056506 0.13850835 0.35397997 0.36168167
0.24016821 0.3205734 0.48632005 0.3503943 0.1674544 -0.09368881
00000000: a677 36bc cb3f 813d 54c2 32be 9836 04be
00000010: b40f 99bd 674f 25bd 0754 29be fa65 96bc
00000020: a284 38be cee8 e2bb 0be4 aebd e44a de3c
00000030: 1b1a 11be b231 4dbe 48bc 083e 9ecc bdbd
00000040: b403 d8ba 4322 04be 6b6e 96bd 350b d53c
00000050: ff97 9e3d 1a0b 72bd 10a0 44be ce94 be3c
00000060: 88b6 ac3d eec9 853e e768 043e e6cd 80bc
00000070: 5a5c 513d 7c50 24be 8e18 a83d 39d8 8a3c
00000080: ad7d 62be 5e8a 7abe f6dd 23be 3900 29be
00000090: b8c1 b3bd c4ad 23be f373 18be c493 47be
000000a0: 5610 8c3d c67d 60be 213f 33be 5548 babd
000000b0: 186c 73bb 5463 d4bd 72d3 3f3d 01ba 44bd
000000c0: d690 083e fd0f 803e 386d 8bbe 0063 ffbd
000000d0: 239d bc3d 6c08 be3e 42f8 d93d dad8 9dbe
000000e0: a0e8 093e 9db1 153f 1d2e ca3e e914 9ebe
000000f0: 638f 86bd e4b8 b23e 97f7 183f 0a6f 69be
00000100: 776c b4be c330 833d 7f75 793e bd72 293e
00000110: c5dc 78be 222c 74be e27c 0f3e 56ff 3b3e
00000120: 078f 993d 5eb5 88be 8b69 a53c 2001 3b3e
00000130: f2cc 5c3d e1d5 c2be a420 40be b5a7 2fbd
00000140: 378a b73e 4813 a13e 9e54 bfbe 0085 b7be
00000150: d692 d0bc 4011 523e 4def f13e a8bb 9dbe
00000160: 0939 84be 5675 acbe 2159 8abc be19 b23e
00000170: 3b13 5d3e 0480 03bb 8734 a0be 4a19 383e
00000180: c585 c73e e4c2 e03e 3931 b03e b86c db3b
00000190: b3d0 aa3e f5cd fc3e 8fdb 913e 0dbf 04bd
000001a0: 32e1 90ba 723b a63e 40ee fa3e c3b5 033f
000001b0: c3bb 793e 113c 993d 8a7c b0be 65aa 86be
000001c0: 69f5 d03d 676b 80bd 3af3 7abd 3fd7 6ebe
000001d0: 6070 ebbe edb9 77be 1ee9 08be cf26 25bd
000001e0: 3544 c8be 2008 3bbe 1345 9abe d61f 5fbc
000001f0: b037 053d 0b88 153c 4e53 c9bc e964 84be
00000200: 032b 64be 841d 35be 0ece 5abd 1fdc 26be
00000210: 43f4 a6be e33a 89be 2b1f 59be 5780 d9bd
00000220: 67df a9be 9d42 91be 8f20 ce3d 79df 3c3e
00000230: 8c27 26bd 22d5 0d3e dd3c b53e 572e b93e
00000240: a8ee 753e 3222 a43e f1fe f83e e266 b33e
00000250: 2b79 2b3e ebdf bfbd

conv1.bias f4 [6]
-0.29599887 -0.11741113 0.075928204 0.10822201 -0.026698407 -0.08348631
00000000: 2a8d 97be 3f75 f0bd 3f80 9b3d 80a3 dd3d
00000010: 9eb6 dabc dffa aabd

conv2.weight f4 [16, 6, 5, 5]
0.015094874 0.11801062 -0.039244663 -0.026950832 -0.0021778464 -0.09379975 0.047024034 0.02203942
-0.01848717 -0.03078003 -0.023199817 0.033264548 0.03737277 -0.054780252 -0.06302244 -0.0093912175
-0.19962507 -0.07613019 -0.10601779 -0.18825653 -0.08900417 -0.26047495 -0.31163675 -0.26325217
-0.15898041 0.05834239 0.039012793 -0.13650225 0.026060175 -0.0479403 0.030754957 -0.058781926
-0.037525065 0.048010368 -0.060460426 -0.06651118 -0.05833377 -0.021811027 -0.017106296 -0.22245133
-0.25918353 -0.20368376 -0.14739303 -0.022274615 -0.18387076 -0.11623551 -0.24598297 -0.14191201
-0.28193578 -0.17440237 -0.14002877 -0.11701892 -0.049233634 0.107577704 0.085880816 0.11417726
-0.026921835 0.124813385 0.03488053 0.021871833 0.12575592 -0.038967066 0.08458303 -0.035747122
0.044831377 -0.08659536 -0.13015579 -0.031899754 -0.097518265 0.13757364 -0.24461992 -0.19361559
-0.3010782 -0.15998954 0.2193162 -0.018130986 0.071618535 -0.060306046 -0.0017436654 -0.0001805928
0.019385682 0.0702557 -0.15367118 -0.04859003 0.10574987 0.14902815 0.2651665 0.07437882
-0.09641796 -0.07216909 -0.03647927 0.29154396 0.13067618 -0.0014822469 -0.037736997 -0.3393901
-0.07450969 0.008045492 -0.03781236 -0.08769797 0.05204493 -0.085283004 -0.41629797 -0.15134488
-0.14337437 -0.12186808 -0.19218233 -0.0073254798 -0.021368882 -0.03345656 0.09012376 -0.20488754
-0.17462657 -0.06778947 -0.10039686 0.24167334 0.027840748 -0.07811748 -0.16537118 -0.10849742
0.11493185 0.24318136 0.21547185 0.15967895 0.06251337 -0.081011176 -0.036854275 0.02340216
-0.1221322 0.0022038233 0.05984396 -0.0162149 -0.07937108 -0.053012297 -0.05780135 0.055801038
0.08918125 0.029843843 0.06979132 -0.013150122 -0.11778985 -0.023484763 -0.014574793 0.113348156
0.16900158 -0.18960747 -0.16562448 0.024769872 -0.013746442 -0.09083363 0.029326413 0.06619989
0.06966919 -0.046419993 0.035709012 -0.11727753 -0.0576706 -0.061678164 0.037797425 0.046582513
-0.022857744 -0.069971666 0.041737854 -0.06251376 0.048353452 -0.07997259 -0.24795423 -0.22451074
-0.17240977 -0.10365861 -0.048402887 -0.20411412 -0.16122165 -0.07033048 0.009019357 -0.018335912
0.0520462 0.14657989 -0.036902662 0.0224461 -0.084766805 0.110061735 -0.08114857 -0.060355727
0.01298388 -0.05238406 -0.08876829 -0.14787726 -0.14665884 0.039914757 -0.12126015 -0.36029422
-0.2651811 -0.1232064 -0.012771911 -0.11302417 -0.232897 -0.22064723 -0.03975045 0.10894184
0.04897993 0.019556 -0.008507433 -0.023276147 0.024888786 0.15519181 0.2158999 0.21181147
-0.0029238123 -0.09275302 0.11253994 0.07912122 0.14553954 -0.07362531 -0.027727269 -0.082552746
-0.07642774 -0.14732638 0.0917703 0.13606298 -0.14616048 -0.2387543 -0.183216 0.074229695
0.020178873 0.06528392 0.10406714 -0.045716126 -0.021372577 0.025763566 -0.013028672 0.07290705
-0.20130378 -0.12105307 0.029540334 0.1264885 0.082856454 0.2537131 0.104338884 -0.004979065
0.12732163 0.21522348 0.2289039 0.09596889 0.0014154329 -0.07392063 0.1601978 0.007519493
-0.01819803 0.008955763 0.07835414 -0.079398096 -0.10796984 0.07328753 0.1093944 0.11664793
00000000: 7e50 773c 8daf f13d 03bf 20bd fec7 dcbc
00000010: 33ba 0ebb 151a c0bd 469c 403d 048c b43c
00000020: 6872 97bc 6726 fcbc 8b0d bebc 6840 083d
00000030: 3114 193d 4261 60bd e911 81bd 9fdd 19bc
00000040: 846a 4cbe 25ea 9bbd db1f d9bd 52c6 40be
00000050: d147 b6bd f95c 85be da8e 9fbe fdc8 86be
00000060: c3cb 22be 6ef8 6e3d e1cb 1f3d 3fc7 0bbe
00000070: 267c d53c 0c5d 44bd d2f1 fb3c 51c5 70bd
00000080: e2b3 19bd 85a6 443d 5aa5 77bd 0337 88bd
00000090: 64ef 6ebd 0aad b2bc 8122 8cbc 48ca 63be
000000a0: b4b3 84be 7a92 50be 33ee 16be 4179 b6bc
000000b0: 9e48 3cbe e20c eebd f6e2 7bbe 6251 11be
000000c0: e359 90be 8996 32be b463 0fbe 9ea7 efbd
000000d0: 35a9 49bd b351 dc3d 48e2 af3d c4d5 e93d
000000e0: 2e8b dcbc 299e ff3d e3de 0e3d 8f2c b33c
000000f0: 29c6 003e ee9b 1fbd de39 ad3d 936b 12bd
00000100: 1ba1 373d e858 b1bd 8f47 05be 51a9 02bd
00000110: a8b7 c7bd 1be0 0c3e a57d 7abe 2a43 46be
00000120: ec26 9abe 4cd4 23be 6d94 603e 6f87 94bc
00000130: bdac 923d 7903 77bd b48b e4ba 835d 3db9
00000140: b9ce 9e3c 38e2 8f3d fa5b 1dbe 5706 47bd
00000150: 6393 d83d d69a 183e e7c3 873e ec53 983d
00000160: c876 c5bd 63cd 93bd 496b 15bd 4045 953e
00000170: facf 053e f447 c2ba 1c92 1abd 8ac4 adbe
00000180: 8998 98bd 3dd1 033c 22e1 1abd fe9a b3bd
00000190: 112d 553d dba8 aebd 0225 d5be 27fa 1abe
000001a0: bbd0 12be f995 f9bd 72cb 44be 940a f0bb
000001b0: cb0d afbc bf09 09bd ce92 b83d 0ace 51be
000001c0: 4fd1 32be 35d5 8abd de9c cdbd 3779 773e
000001d0: 4812 e43c 0ffc 9fbd 1057 29be e533 debd
000001e0: 6461 eb3d 8904 793e a7a4 5c3e e182 233e
000001f0: 0207 803d 30e9 a5bd 82f4 16bd e3b5 bf3c
00000200: 7220 fabd 056e 103b f11e 753d 1cd5 84bc
00000210: 4e8d a2bd 6c23 59bd 1cc1 6cbd a18f 643d
00000220: a9a4 b63d 137b f43c c0ee 8e3d 9c73 57bc
00000230: ce3b f1bd 1e63 c0bc 1dcb 6ebc 1423 e83d
00000240: c00e 2d3e 7628 42be 7799 29be 30ea ca3c
00000250: c238 61bc fb06 babd f23d f03c cf93 873d
00000260: b8ae 8e3d e422 3ebd 9d43 123d 342f f0bd
00000270: 0238 6cbd 3ea2 7cbd 79d1 1a3d 4ecd 3e3d
00000280: 2a40 bbbc 4e4d 8fbd 50f5 2a3d 3707 80bd
00000290: 450e 463d abc8 a3bd b7e7 7dbe 25e6 65be
000002a0: 308c 30be f74a d4bd 1b42 46bd 4b03 51be
000002b0: 4a17 25be 6d09 90bd edc5 133c 3235 96bc
000002c0: 652e 553d 0a19 163e 3f27 17bd e2e0 b73c
000002d0: 389a adbd 0c68 e13d 3931 a6bd 9137 77bd
000002e0: 57ba 543c ab90 56bd 26cc b5bd 236d 17be
000002f0: bc2d 16be a87d 233d 3e57 f8bd 7c78 b8be
00000300: d1c5 87be a353 fcbd 4741 51bc 3779 e7bd
00000310: 8d7c 6ebe 59f1 61be 5ed1 22bd e61c df3d
00000320: 2e9f 483d e833 a03c c362 0bbc 9ead bebc
00000330: 91e3 cb3c 9aea 1e3e dd14 5d3e 1be5 583e
00000340: 6e9d 3fbb 4cf5 bdbd 577b e63d 4e0a a23d
00000350: 5108 153e dec8 96bd 4c24 e3bc 6a11 a9bd
00000360: 2686 9cbd badc 16be 11f2 bb3d 1854 0b3e
00000370: 18ab 15be 027c 74be fa9c 3bbe bd05 983d
00000380: 2a4e a53c 93b3 853d 2721 d53d d540 3bbd
00000390: 8b15 afbc 1d0e d33c 3676 55bc 4b50 953d
000003a0: 9422 4ebe acea f7bd 92fe f13c 3486 013e
000003b0: a5b0 a93d afe6 813e a0af d53d 6d27 a3bb
000003c0: 9a60 023e 8b63 5c3e c965 6a3e 568b c43d
000003d0: 0c86 b93a b363 97bd e40a 243e 1466 f63b
000003e0: 0914 95bc 31bb 123c 2378 a03d 789b a2bd
000003f0: 4b1f ddbd c617 963d 2c0a e03d 1ce5 ee3d

conv2.bias f4 [16]
0.011732618 0.049325332 -0.09151171 0.055696152 -0.08035025 0.07297951 -0.0590284 -0.06294349
-0.01774328 -0.06561905 -0.056124814 -0.085837856 4.9239396e-05 -0.048284523 -0.04090611 0.11115875
00000000: 2b3a 403c 5c09 4a3d 7e6a bbbd a621 643d
00000010: ac8e a4bd 4876 953d c3c7 71bd 84e8 80bd
00000020: 5b5a 91bc 4863 86bd 22e3 65bd c2cb afbd
00000030: 6686 4e38 fec5 45bd 2a8d 27bd 33a7 e33d

fc1.weight f4 [120, 256]
-0.24145956 -0.062118363 0.123495676 0.017411485 -0.17661428 -0.32235345 -0.13249531 -0.31491107
-0.24369968 -0.019412564 -0.05844082 0.13202146 -0.13465041 -0.093312845 0.1639774 0.5460508
0.13954249 -0.11226607 -0.06791454 0.014032916 -0.105495304 -0.3006165 -0.28631154 -0.023841152
-0.22792934 -0.11782522 -0.1293642 0.060422435 -0.013764498 -0.048079472 0.193041 0.33358464
0.050779603 0.10421049 -0.043888453 -0.016337784 -0.020733068 0.103189796 -0.030598033 -0.08260673
0.24594353 0.008610256 -0.02605122 -0.24214073 0.1894917 0.09289803 -0.06108863 -0.26653507
0.03952891 0.029650068 0.029171497 -0.031930722 -0.032682694 -0.32683977 -0.4559382 -0.42508066
-0.10759735 -0.073029846 0.028730463 0.19482851 0.04497501 0.06651402 0.26653904 0.43196392
0.10564374 0.07069567 0.05742743 0.10089664 -0.06259089 -0.07497024 -0.09733893 -0.036304116
-0.2943796 -0.18117125 -0.22885829 -0.3335875 -0.25863308 0.036591858 -0.022657134 0.093138665
-0.06385242 0.15709318 0.13614517 0.044237535 0.053558543 0.15492152 0.15549257 0.05515318
-0.1554258 0.13550445 0.13839743 0.05882682 0.02033334 0.20167808 -0.022371132 -0.029668877
-0.1627372 0.05045591 -0.042638376 -0.0074945013 -0.10310325 0.033802163 -0.060503002 0.030247001
-0.24444908 0.09535598 0.043079525 0.11077896 -0.09325349 -0.005458351 0.18909967 0.08222926
0.048819665 0.097763166 0.024857614 -0.0466884 0.15416366 0.096310355 -0.03971607 -0.048143167
0.1629939 -0.034606103 -0.07047954 -0.0922151 0.068107896 0.04377874 0.06828853 0.2007183
-0.108962424 0.017393649 0.1172505 0.009606279 -0.03594724 -0.079629794 0.037286412 0.070323676
-0.20340978 -0.19372784 0.079619855 0.013227232 -0.043576527 0.075276 0.12810834 -0.028099867
0.021516837 0.16251716 -0.06271312 0.020278187 0.07332486 0.11322417 -0.19869411 -0.15066703
0.123624764 0.023308752 -0.14821397 0.04892972 0.19474088 0.055295855 0.030123575 0.115342215
0.16648372 0.11903364 -0.053009182 -0.048263595 0.18657975 0.21078068 0.11598588 0.077291794
0.12954912 0.05770822 0.0548954 0.10021471 0.067360476 -0.049319614 -0.16501078 -0.17524602
-0.2132327 -0.11979616 -0.22196831 -0.07317033 -0.1542327 -0.16601123 -0.18800467 -0.22185338
-0.044338565 0.056749187 -0.08760611 0.03772637 0.094191365 0.08465072 0.059060246 0.31278947
-0.101183526 0.037648264 0.024293702 -0.07132785 0.06173602 0.012474004 0.058010504 0.023354229
-0.022494178 0.00010382483 -0.029555956 -0.13290474 0.1795597 -0.0018075786 0.011107333 0.13388138
0.028341686 -0.00026187074 -0.05157969 -0.040460862 0.08143203 0.040267218 -0.10754985 0.08090055
0.023127338 -0.050278135 0.014292503 0.34779567 0.025372742 0.03381 0.1249492 0.15947945
-0.098204695 0.07649488 0.054921497 -0.023496203 -0.0008514547 -0.008998141 0.16868742 0.22012272
-0.06441882 0.069506064 0.25897077 0.07373954 -0.17639667 -0.09910366 0.06374039 0.0115354005
0.097736426 0.096606806 0.0042651654 0.16382656 -0.16606882 -0.027738098 0.15867995 0.046382934
-0.06522366 -0.09121145 -0.0043789945 -0.10842983 0.027281709 0.07358903 0.01973071 -0.44011405
00000000: 2d41 77be d36f 7ebd 4deb fc3d 88a2 8e3c
00000010: 60da 34be 830b a5be daac 07be 063c a1be
00000020: 698c 79be 1907 9fbc a45f 6fbd a230 073e
00000030: cce1 09be ce1a bfbd b1e9 273e fcc9 0b3f
00000040: 3ae4 0e3e c1eb e5bd c716 8bbd 51ea 653c
00000050: ec0d d8bd 68ea 99be 6d97 92be 854e c3bc
00000060: 4f66 69be 594e f1bd 0d78 04be 847d 773d
00000070: 7d84 61bc fbee 44bd 8aac 453e 9bcb aa3e
00000080: 46fe 4f3d 4f6c d53d 61c4 33bd d1d6 85bc
00000090: 65d8 a9bc 2c55 d33d baa8 fabc b82d a9bd
000000a0: 9fd8 7b3e 0812 0d3c 5e69 d5bc bdf3 77be
000000b0: 1d0a 423e 5341 be3d 1238 7abd 4977 88be
000000c0: 11e9 213d b3e4 f23c 10f9 ee3c cac9 02bd
000000d0: 4ade 05bd 8b57 a7be bb70 e9be 2ca4 d9be
000000e0: 005c dcbd ac90 95bd 265c eb3c 2081 473e
000000f0: b737 383d 8138 883d ce77 883e 602a dd3e
00000100: bf5b d83d e4c8 903d 0639 6b3d e6a2 ce3d
00000110: a72f 80bd ff89 99bd a259 c7bd a0b3 14bd
00000120: ecb8 96be f584 39be d459 6abe fbcb aabe
00000130: 8e6b 84be 58e1 153d 749b b9bc 7cbf be3d
00000140: 0fc5 82bd 09dd 203e a469 0b3e 6b32 353d
00000150: 3460 5b3d bfa3 1e3e 7239 1f3e 4de8 613d
00000160: f127 1fbe aec1 0a3e 0eb8 0d3e 64f4 703d
00000170: 1b92 a63c b384 4e3e aa43 b7bc 250c f3bc
00000180: 95a4 26be dbaa 4e3d 94a5 2ebd 6f94 f5bb
00000190: cc27 d3bd 2374 0a3d ffd1 77bd 8fc8 f73c
000001a0: dc50 7abe ff49 c33d 2874 303d 14e0 e23d
000001b0: b0fb bebd f8db b2bb 58a3 413e d067 a83d
000001c0: 21f7 473d 0e38 c83d 32a2 cb3c 563c 3fbd
000001d0: 14dd 1d3e 5d3e c53d 51ad 22bd c531 45bd
000001e0: dfe7 263e 21bf 0dbd 9457 90bd 45db bcbd
000001f0: 277c 8b3d 5651 333d dbda 8b3d 1989 4d3e
00000200: b127 dfbd 207d 8e3c 0821 f03d a863 1d3c
00000210: 6a3d 13bd f214 a3bd a3b9 183d dc05 903d
00000220: a74a 50be 9760 46be bc0f a33d 08b7 583c
00000230: 4d7d 32bd 4e2a 9a3d d52e 033e b131 e6bc
00000240: 1444 b03c e66a 263e bc6f 80bd 711e a63c
00000250: 582b 963d 13e2 e73d 7876 4bbe 7548 1abe
00000260: fb2e fd3d fff1 be3c 67c5 17be 886a 483d
00000270: 276a 473e e87d 623d b7c5 f63c 8a38 ec3d
00000280: b57a 2a3e e9c7 f33d 2820 59bd 0cb0 45bd
00000290: c30e 3f3e e4d6 573e 018a ed3d 294b 9e3d
000002a0: 86a8 043e 745f 6c3d 00da 603d 5f3d cd3d
000002b0: 4af4 893d 5d03 4abd 96f8 28be b173 33be
000002c0: ac59 5abe b057 f5bd a94b 63be 53da 95bd
000002d0: 2def 1dbe d9fe 29be 4c84 40be 882d 63be
000002e0: 5b9c 35bd d671 683d d56a b3bd f786 1a3d
000002f0: 67e7 c03d 5b5d ad3d 28e9 713d f125 a03e
00000300: 4f39 cfbd 1135 1a3d 9603 c73c 5614 92bd
00000310: e9de 7c3d c45f 4c3c 6c9c 6d3d 5e51 bf3c
00000320: b645 b8bc 88bc d938 551f f2bc 2e18 08be
00000330: 7fde 373e 46ec ecba 88fb 353c 3318 093e
00000340: d32c e83c b24b 89b9 3a45 53bd 4aba 25bd
00000350: d6c5 a63d 3def 243d 1943 dcbd 30af a53d
00000360: 8b75 bd3c 72f0 4dbd 1a2b 6a3c 4612 b23e
00000370: 7fda cf3c 5b7c 0a3d 5ee5 ff3d 954e 233e
00000380: 8b1f c9bd 59a9 9c3d 5df5 603d 1c7b c0bc
00000390: 2834 5fba f06c 13bc 65bc 2c3e da67 613e
000003a0: 04ee 83bd 3259 8e3d d197 843e c204 973d
000003b0: 54a1 34be dcf6 cabd 528a 823d fafe 3c3c
000003c0: 092a c83d cad9 c53d cdc2 8b3b 26c2 273e
000003d0: f20d 2abe 023b e3bc ff7c 223e 08fc 3d3d
000003e0: fb93 85bd 12cd babd ab7d 8fbb 7510 debd
000003f0: e47d df3c d8b5 963d 4ca2 a13c a156 e1be

fc1.bias f4 [120]
0.022929396 -0.00493189 0.11759619 -0.027275091 -0.055134933 0.08571161 0.009268142 -0.021156872
0.035132024 0.08995511 -0.038142577 0.0021388663 -0.086005814 0.004695955 0.01610646 0.06918025
-0.057971884 -0.010271053 -0.019392582 -0.019745957 0.023332588 0.06745744 0.033585586 0.06918863
-0.01612437 0.037815224 -0.02013051 0.055659983 -0.0063957595 0.072232485 0.04850489 0.06352756
0.028618963 0.046458695 0.06393106 -0.06814843 -0.05225106 -0.047817226 0.006493424 0.036580462
0.068033025 -0.09900247 -0.01835683 -0.17186289 0.0068039843 0.0014392219 -0.005675242 -0.013398116
-0.047792803 -0.09035661 -0.08395636 -0.04005536 0.067348085 0.04323786 -0.0055621387 -0.027161648
0.10335357 0.039829265 0.070581436 -0.039920673 -0.06452075 -0.038088325 0.005382759 -0.07104138
0.0073860367 0.01933867 -0.04020507 0.019745992 0.03959229 -0.059323613 -0.005604077 -0.054644898
-0.0031363629 -0.04521021 -0.008101596 0.041093342 -0.017709315 0.035322193 -0.083790265 0.038000748
-8.769355e-05 0.023858357 0.0028393376 0.012966115 -0.050717108 -0.07693582 -0.07657761 0.08074618
0.051124293 -0.018269716 0.015875453 -0.007227044 0.018131241 0.053876583 0.04372427 -0.06520005
0.12627514 -0.0029390263 0.097415484 0.01592604 -0.006382709 -0.056863725 -0.11711648 -0.029620767
0.06480892 0.022550873 0.03930544 0.053057395 -0.07250926 -0.12211505 -0.030995002 0.057315268
-0.027008742 0.020619228 0.014647476 -0.17310292 0.017292902 -0.04817413 -0.032604877 -0.023598194
00000000: 6ed6 bb3c b19b a1bb 45d6 f03d 0370 dfbc
00000010: 2bd5 61bd 9289 af3d 68d9 173c 2d51 adbc
00000020: 99e6 0f3d 623a b83d 643b 1cbd 392c 0c3b
00000030: d123 b0bd 87e0 993b b2f1 833c 60ae 8d3d
00000040: ed73 6dbd eb47 28bc 31dd 9ebc 46c2 a1bc
00000050: fc23 bf3c 2027 8a3d 0a91 093d c5b2 8d3d
00000060: 4117 84bc 23e4 1a3d bde8 a4bc b9fb 633d
00000070: 8593 d1bb a0ee 933d 10ad 463d bd1a 823d
00000080: 5172 ea3c 794b 3e3d 4aee 823d 6791 8bbd
00000090: 3505 56bd ffdb 43bd cac6 d43b 65d5 153d
000000a0: e654 8b3d cfc1 cabd 1061 96bc d3fc 2fbe
000000b0: f5f3 de3b 46a4 bc3a 61f7 b9bb c683 5bbc
000000c0: 63c2 43bd e30c b9bd 50f1 abbd 1711 24bd
000000d0: cbed 893d 2f1a 313d 9a42 b6bb 1b82 debc
000000e0: 09ab d33d 0324 233d 008d 903d dc83 23bd
000000f0: 7423 84bd 8102 1cbd db61 b03b 257e 91bd
00000100: 9106 f23b 216c 9e3c 12ae 24bd 59c2 a13c
00000110: 862b 223d 51fd 72bd 68a2 b7bb 54d3 5fbd
00000120: 708b 4dbb 572e 39bd 8ebc 04bc 7e51 283d
00000130: 2013 91bc 01ae 103d 3b9a abbd aca6 1b3d
00000140: 1ee8 b7b8 9a72 c33c 2e14 3a3b d46f 543c
00000150: bebc 4fbd 8790 9dbd b9d4 9cbd 415e a53d
00000160: b567 513d 5faa 95bc 3d0d 823c d7d0 ecbb
00000170: f887 943c b1ad 5c3d 3818 333d 9b87 85bd
00000180: 454e 013e ae9c 40bb c581 c73d 5477 823c
00000190: 0b26 d1bb f0e9 68bd c4da efbd 40a7 f2bc
000001a0: 8aba 843d 9cbc b83c befe 203d b652 593d
000001b0: bc7f 94bd 7517 fabd 3be9 fdbc 6ac3 6a3d
000001c0: 7041 ddbc a8e9 a83c f8fb 6f3c e441 31be
000001d0: d8a9 8d3c 3d52 45bd b18c 05bd 0051 c1bc

fc2.weight f4 [84, 120]
0.05416669 0.081296496 0.040361047 -0.12950262 0.04634289 -0.16063407 -0.08966419 -0.13747993
0.03362614 -0.08450061 0.10574461 -0.063820854 -0.070313334 0.028185869 -0.03167421 -0.12881567
0.006984009 0.07166701 -0.007916671 -0.19241008 -0.100900136 0.044777192 -0.0684044 -0.011260826
-0.14145382 0.10433955 0.07047458 -0.004327447 -0.033805374 0.11946455 -0.1046444 -0.12015661
0.063015305 -0.04569411 0.11221513 -0.044243105 -0.004463345 0.065259986 0.027355745 -0.22758076
-0.041165046 -0.1889626 -0.096138276 -0.1423191 0.2342699 -0.15939857 -0.058368664 0.19271772
0.015244196 -0.06397555 0.06455157 0.04791832 0.058498427 -0.051868245 -0.06237818 0.20640881
-0.119709946 -0.23476937 0.06609803 0.004951393 -0.055947468 -0.045063514 0.049891423 0.056025654
-0.12673719 0.008630649 -0.033083268 -0.09179424 -0.08035901 0.013452108 -0.283446 0.029442126
0.04487198 -0.025198817 0.020393612 0.11684224 0.023050465 0.039595313 -0.21260008 -0.06520131
-0.053137273 -0.14933091 0.020141747 -0.09625321 0.08975344 0.059936967 -0.13186093 -0.025918847
-0.16218159 0.0019384697 0.062382635 0.050559554 0.0268451 -0.23419316 0.09193212 -0.049322706
0.09310866 -0.039745923 -0.050251614 -0.112989165 -0.079435185 -0.21502395 0.032968685 -0.024086835
-0.074505694 -0.029448492 0.13513875 -0.00030189013 -0.0061358158 0.11554721 -0.033843264 0.09412098
-0.07647327 0.057348613 0.06080473 0.11214571 -0.0055379067 0.021855062 -0.045681294 -0.075570814
0.2294829 -0.11595434 -0.16657358 0.087019585 -0.05391035 -0.0038286473 -0.08641672 0.058633443
0.015082828 -0.024690388 0.16527216 0.128978 0.026895532 0.032082852 0.072004765 -0.06761038
-0.0825407 -0.045620475 0.009795473 0.01969584 -0.05083611 -0.12674299 0.05533881 0.03320673
0.20443483 -0.050542764 -0.15147743 -0.10189847 0.008072177 0.0075603556 -0.1640314 -0.048965834
-0.07691696 0.034885023 -0.09650159 0.075571194 -0.046250768 0.07478179 0.19896528 -0.038760744
0.04359652 0.23117167 0.10574458 -0.0021397155 -0.018566033 -0.09025806 -0.08506213 -0.09325059
-0.05961618 0.09685973 -0.07195515 0.08260088 0.049390238 -0.038520724 -0.031682506 -0.063693106
-0.015518482 -0.13870981 -0.23829485 -0.0133370375 0.13116321 0.011931091 0.015335418 0.060689002
-0.15617178 0.027570572 -0.10762566 0.11934678 -0.04874251 -0.0591706 0.051479336 -0.030278094
-0.090665966 -0.15236376 0.12568222 -0.10418258 -0.0022389295 -0.0019878026 0.028520923 0.017435826
0.14794394 -0.04028919 0.10403711 0.0073128594 0.20134267 -0.14759925 0.022227472 -0.15756945
0.12959945 -0.06612848 0.20572439 0.13488808 0.0794144 -0.26801065 -0.041773915 0.09903984
0.093622476 -0.307548 0.012518105 -0.1424664 0.13308401 -0.16273628 0.045074925 0.21257776
0.0510426 -0.07500997 0.20306924 -0.16758461 0.20622021 0.05584069 -0.010192595 -0.07870321
0.008442657 0.2362509 0.061912693 0.05328303 0.14983033 -0.10079885 0.07066921 -0.19312018
0.19785501 0.016663391 -0.22299065 -0.11225683 -0.014965385 -0.050285358 0.11753909 0.11142708
0.013455297 0.034121335 0.18239489 0.18072216 0.007138647 -0.020205168 0.14726901 -0.050981477
00000000: e4dd 5d3d c77e a63d a051 253d 569c 04be
00000010: 0bd2 3d3d 427d 24be dca1 b7bd 8ac7 0cbe
00000020: 90bb 093d a80e adbd a190 d83d 82b4 82bd
00000030: 7000 90bd 0de6 e63c d1bc 01bd 41e8 03be
00000040: 1dda e43b 27c6 923d edb4 01bc 2607 45be
00000050: bba4 cebd 4a68 373d 9b17 8cbd 547f 38bc
00000060: 45d9 10be f9af d53d fa54 903d 42cd 8dbb
00000070: 8177 0abd d4a9 f43d ce4f d6bd ab14 f6bd
00000080: 2b0e 813d bf29 3bbd 0cd1 e53d 4238 35bd
00000090: 4041 92bb 07a7 853d 2819 e03c ee0a 69be
000000a0: ae9c 28bd 697f 41be 25e4 c4bd 19bc 11be
000000b0: 73e4 6f3e 6139 23be fb13 6fbd cb57 453e
000000c0: cbc2 793c 9d05 83bd 9d33 843d 0046 443d
000000d0: 0c9c 6f3d cc73 54bd 4380 7fbd d55c 533e
000000e0: 7d2a f5bd 6267 70be 675e 873d 4c3f a23b
000000f0: 2c29 65bd 8594 38bd f35a 4c3d 287b 653d
00000100: 65c7 01be 9167 0d3c 5282 07bd 9efe bbbd
00000110: 4493 a4bd 3b66 5c3c d61f 91be 9d30 f13c
00000120: aecb 373d c06d cebc 8110 a73c fc4a ef3d
00000130: 54d4 bc3c b22e 223d d6b3 59be 4488 85bd
00000140: 78a6 59bd 34ea 18be 4e00 a53c 6720 c5bd
00000150: a7d0 b73d 7780 753d 8d06 07be c353 d4bc
00000160: ee12 26be 4014 fe3a ef84 7f3d 8917 4f3d
00000170: 41ea db3c 55d0 6fbe e846 bc3d 9b06 4abd
00000180: c1af be3d 9fcc 22bd a3d4 4dbd dd66 e7bd
00000190: eaae a2bd 3d2f 5cbe 2c0a 073d c151 c5bc
000001a0: 7196 98bd f73d f1bc d061 0a3e 0247 9eb9
000001b0: f40e c9bb 04a4 ec3d 3c9f 0abd 80c2 c03d
000001c0: 059e 9cbd 61e6 6a3d 610e 793d a6ac e53d
000001d0: 5477 b5bb 6309 b33c 4f1c 3bbd dfc4 9abd
000001e0: 91fd 6a3e 7879 edbd 4492 2abe 5337 b23d
000001f0: 19d1 5cbd 0bea 7abb 40fb b0bd 9f29 703d
00000200: f71d 773c 7f43 cabc 1b3d 293e cf12 043e
00000210: 0554 dc3c 4f69 033d 3c77 933d 5077 8abd
00000220: 190b a9bd 89dc 3abd 317d 203c 2c59 a13c
00000230: 8639 50bd eac8 01be f3aa 623d c803 083d
00000240: 5d57 513e ee05 4fbd e61c 1bbe 25b0 d0bd
00000250: 2a41 043c dcbc f73b d9f7 27be 6690 48bd
00000260: a486 9dbd 99e3 0e3d a0a2 c5bd 12c5 9a3d
00000270: 7271 3dbd 3227 993d 8ebd 4b3e 96c3 1ebd
00000280: 4492 323d 44b8 6c3e 9d90 d83d 783a 0cbb
00000290: cb17 98bc 38d9 b8bd 0e35 aebd 2afa bebd
000002a0: 1830 74bd 655e c63d 395d 93bd a62a a93d
000002b0: 6b4d 4a3d e8c7 1dbd 84c5 01bd 8871 82bd
000002c0: 3b41 7ebc f209 0ebe 9103 74be 9783 5abc
000002d0: a64f 063e 9f7a 433c 6841 7b3c 0895 783d
000002e0: 7feb 1fbe aedb e13c d86a dcbd 166c f43d
000002f0: 3aa6 47bd df5c 72bd ffdb 523d c409 f8bc
00000300: 14af b9bd 3f05 1cbe d7b2 003e ad5d d5bd
00000310: 01bb 12bb cb45 02bb b6a4 e93c 94d5 8e3c
00000320: 9e7e 173e 4706 25bd 6911 d53d b6a0 ef3b
00000330: c62c 4e3e 4224 17be 6316 b63c e359 21be
00000340: b8b5 043e 5e6e 87bd 6aa9 523e 1a20 0a3e
00000350: 04a4 a23d b138 89be 201b 2bbd 66d5 ca3d
00000360: 24bd bf3d ee76 9dbe bd18 4d3c b6e2 11be
00000370: 2d47 083e 57a4 26be 7ca0 383d fcad 593e
00000380: 0c12 513d d49e 99bd 62f1 4f3e 4d9b 2bbe
00000390: 642b 533e 35b9 643d d8fe 26bc 262f a1bd
000003a0: 1253 0a3c c2eb 713e 2a98 7d3d 4e3f 5a3d
000003b0: 1f6d 193e a16f cebd 05bb 903d 4cc1 45be
000003c0: 819a 4a3e aa81 883c a957 64be e9e6 e5bd
000003d0: 6031 75bc 05f8 4dbd 56b8 f03d e233 e43d
000003e0: 9b73 5c3c d0c2 0b3d bac5 3a3e 3b0f 393e
000003f0: 50eb e93b 4f85 a5bc b0cd 163e f4d1 50bd

fc2.bias f4 [84]
0.025226146 -0.06368457 -0.074663885 0.045883022 0.057277136 -0.13498113 0.10634241 -0.046153728
-0.03540554 0.055354703 0.04637083 -0.056761328 -0.018605588 -0.037439633 0.11819487 -0.008538916
0.027388856 0.021392224 0.051045313 0.044293173 -0.07800991 0.033122327 -0.10184536 0.01362817
-0.006574948 -0.006903204 0.15484208 -0.11792818 0.16363497 -0.028302968 -0.031124935 0.05234574
0.16444843 -0.0052323276 -0.056998122 0.056832783 -0.039530635 0.10533646 0.014622797 0.068844415
-0.063549586 0.17306224 -0.066457495 0.02468429 0.027910635 -0.053546406 -0.05376456 -0.11066559
0.047711235 0.06744133 -0.09281623 0.1108288 -0.021537798 -0.0009770497 -0.12101879 -0.07792766
-0.13863826 0.08737408 0.07124488 0.11884181 0.025804425 -0.095418036 -0.0052649216 0.08325181
0.11673843 -0.0057903295 -0.08742915 0.12397621 -0.1081795 0.010280667 0.020560075 0.089368075
-0.008361842 0.003946125 0.06845862 -0.0065237707 -0.084459394 0.15916947 0.21643008 0.067591496
0.018785402 -0.09297218 0.08240142 -0.061690744
00000000: 10a7 ce3c 0e6d 82bd 61e9 98bd d6ef 3b3d
00000010: 6e9b 6a3d 7e38 0abe 0dca d93d b10b 3dbd
00000020: 6605 11bd 9dbb 623d 57ef 3d3d 917e 68bd
00000030: bf6a 98bc 4d5a 19bd 2710 f23d cfe6 0bbc
00000040: 985e e03c bf3e af3c e414 513d c26c 353d
00000050: a9c3 9fbd 47ab 073d 4d94 d0bd b048 5f3c
00000060: a972 d7bb 4634 e2bb ec8e 1e3e 5484 f1bd
00000070: ed8f 273e a0db e7bc b8f9 febc 7d68 563d
00000080: 2b65 283e f273 abbb dd76 69bd 7ec9 683d
00000090: e0ea 21bd a4ba d73d 7594 6f3c 4dfe 8c3d
000000a0: 4926 82bd 3a37 313e de1a 88bd b536 ca3c
000000b0: d8a4 e43c 7a53 5bbd 3a38 5cbd a4a4 e2bd
000000c0: db6c 433d ae1e 8a3d 7016 bebd 36fa e23d
000000d0: 0970 b0bc 5910 80ba b3d8 f7bd 8998 9fbd
000000e0: 30f7 0dbe 2ff1 b23d d6e8 913d 5663 f33d
000000f0: cd63 d33c 886a c3bd 5d85 acbb ed7f aa3d
00000100: 8f14 ef3d cebc bdbb 0e0e b3bd 3de7 fd3d
00000110: 378d ddbd 3e70 283c 9a6d a83c 9c06 b73d
00000120: 1b00 09bc 7f4e 813b 0834 8c3d 5bc5 d5bb
00000130: 0cf9 acbd 52fd 223e d99f 5d3e 696d 8a3d
00000140: d8e3 993c 3368 bebd 13c2 a83d 6faf 7cbd

fc3.weight f4 [64, 84]
0.103177026 0.0005706632 0.27791223 -0.15238614 -0.16200688 0.13793445 -0.17177324 -0.0168979
0.1883562 -0.15395996 -0.09729796 -0.09078635 -0.03074094 -0.013453178 -0.061670963 -0.19249168
-0.19435081 -0.013052454 -0.23716588 -0.16995111 -0.055176303 0.1481996 -8.289152e-05 -0.069534376
0.069565184 -0.02182907 -0.016326282 -0.24081244 -0.22511981 0.074032724 -0.091750935 0.006534958
-0.074304014 -0.008760843 0.09333106 0.049653187 0.084730744 0.08328293 -0.12689422 -0.18089083
-0.03065594 -0.06534844 0.10712578 -0.22589742 -0.06433291 -0.03242698 0.022764262 -0.04739504
-0.10163616 -0.14262964 0.040747873 0.12010786 -0.21456508 -0.1641341 0.029562857 0.06378495
0.03289931 -0.077525824 -0.16406287 0.08313672 0.044162296 -0.19017984 0.04163884 0.084596075
-0.1430818 0.13694142 -0.23695718 -0.23589326 0.028715402 -0.08167183 -0.085017085 -0.19383141
0.005147285 -0.066396594 0.03213929 0.08896867 -0.07637995 -0.09088724 -0.021855779 -0.037924837
0.29593614 0.08696521 -0.02337606 -0.07507237 0.06600163 0.058352035 -0.0130278 0.010858544
-0.18657805 0.055369675 -0.067598715 0.0046544075 0.119551405 -0.109202325 0.056379393 0.040126547
-0.008789368 -0.13637051 0.167616 0.008441192 0.2528213 -0.10207409 -0.22340353 0.07276119
0.08689782 -0.0859567 0.04214962 0.013560381 0.18266538 0.14547734 -0.0033037649 -0.28639218
-0.04574429 -0.118994646 -0.024589928 0.09836201 0.21988295 -0.018646866 0.10771729 0.22972757
0.22697796 0.20288457 0.087328464 0.05391895 -0.120145135 -0.107804574 -0.051014517 -0.20225433
-0.0055832416 -0.14939389 -0.22088167 -0.008119494 0.15210606 0.16390842 -0.08493605 0.05161654
-0.2613496 -0.2010481 -0.123284414 -0.073379405 -0.07547721 0.1949967 -0.30689895 0.19880106
-0.23181078 -0.08420539 -0.21977144 0.054791525 -0.061102405 0.042469155 -0.09356977 -0.1821264
-0.045149423 -0.18725556 0.04887411 -0.054988597 -0.012385126 -0.11301694 -0.16015637 -0.03417725
-0.117835306 -0.108705364 -0.007950662 0.14733109 0.19223613 0.24243443 -0.16000351 -0.0070654624
0.03257239 -0.14495994 -0.1862711 0.093300544 0.22250646 0.1443978 0.2686021 0.050379403
-0.12786388 0.11470526 0.08527564 0.17281145 0.07783705 0.0938397 -0.08845898 0.2371696
0.1176521 0.100959465 0.1497601 0.17031884 0.09115904 -0.04567428 -0.021485941 0.11222349
-0.04020573 0.14933948 0.0342287 0.21624306 0.061895277 -0.15856129 0.045311015 -0.15232608
-0.033991918 0.017077921 -0.2808661 -0.045757353 0.01674072 0.07720041 0.021969035 0.062391184
-0.03212884 -0.044314772 -0.005388185 0.15557085 -0.027606385 0.044844717 0.04659308 -0.040676225
0.075282 -0.06776604 -0.033067595 0.051593322 0.059383363 0.11376635 -0.049493313 0.00858066
0.08270071 0.016238008 0.18768589 0.002835542 -0.008252223 -0.028576054 0.09238659 0.12756002
0.19697721 -0.19726256 0.1994564 0.12708138 -0.058402926 0.15667519 0.012798838 0.17931423
-0.023009077 -0.2237176 -0.029710809 -0.020647045 0.052997626 0.14551744 -0.09623967 -0.009919525
-0.2109653 -0.10070999 0.07588756 0.17372376 -0.016709004 0.35930425 0.35976917 0.12841198
00000000: 7a4e d33d 8f98 153a 834a 8e3e 1d0b 1cbe
00000010: 22e5 25be b03e 0d3e 53e5 2fbe 776d 8abc
00000020: 73e0 403e aea7 1dbe 2744 c7bd 32ee b9bd
00000030: 6cd4 fbbc b86a 5cbc b19a 7cbd 8a1c 45be
00000040: e603 47be f6d9 55bc 9ddb 72be aa07 2ebe
00000050: 8c00 62bd a3c1 173e 0cd6 adb8 0a68 8ebd
00000060: 3178 8e3d e1d2 b2bc b2be 85bc 8997 76be
00000070: cf85 66be 789e 973d eae7 bbbd 3323 d63b
00000080: b42c 98bd a489 0fbc 5b24 bf3d 2461 4b3d
00000090: 5087 ad3d 3e90 aa3d 8ff0 01be 723b 39be
000000a0: 2a22 fbbc 67d5 85bd c364 db3d a751 67be
000000b0: f9c0 83bd 27d2 04bd 1e7c ba3c 4d21 42bd
000000c0: 9e26 d0bd 810d 12be 3ee7 263d 1cfb f53d
000000d0: f3b6 5bbe c512 28be ce2d f23c afa1 823d
000000e0: 6dc1 063d dcc5 9ebd 1900 28be 9643 aa3d
000000f0: 86e3 343d 81be 42be 7d8d 2a3d b540 ad3d
00000100: 0984 12be 5f3a 0c3e e7a4 72be 018e 71be
00000110: 903c eb3c 8f43 a7bd 701d aebd be7b 46be
00000120: 8eaa a83b f0fa 87bd 7da4 033d 3535 b63d
00000130: 176d 9cbd 1723 babd e40a b3bc 1357 1bbd
00000140: f184 973e d11a b23d 277f bfbc 8bbf 99bd
00000150: dd2b 873d 8b02 6f3d 8e72 55bc 09e8 313c
00000160: 510e 3fbe 50cb 623d 3271 8abd 0084 983b
00000170: 5ed7 f43d 78a5 dfbd 14ee 663d bc5b 243d
00000180: 4801 10bc b6a4 0bbe 87a3 2b3e ed4c 0a3c
00000190: cb71 813e 380c d1bd e5c3 64be d203 953d
000001a0: 7cf7 b13d 110a b0bd 14a5 2c3d 5c2c 5e3c
000001b0: a20c 3b3e 03f8 143e fa83 58bb ffa1 92be
000001c0: 5d5e 3bbd 77b3 f3bd d170 c9bc 0672 c93d
000001d0: ff28 613e 50c1 98bc e29a dc3d b43d 6b3e
000001e0: e96c 683e f9c0 4f3e 44d9 b23d 1eda 5c3d
000001f0: a70e f6bd a5c8 dcbd 99f4 50bd c21b 4fbe
00000200: a0f3 b6bb b6fa 18be ce2e 62be a007 05bc
00000210: b1c1 1b3e 9cd7 273e f4f2 adbd dd6b 533d
00000220: 9dcf 85be 8edf 4dbe 8a7c fcbd f147 96bd
00000230: cc93 9abd 37ad 473e dc21 9dbe 8192 4b3e
00000240: ce5f 6dbe e073 acbd c40b 61be 146d 603d
00000250: 8446 7abd 23f4 2d3d 82a1 bfbd 587f 3abe
00000260: 9aee 38bd ecbf 3fbe 3830 483d b93b 61bd
00000270: fcea 4abc 6d75 e7bd 0800 24be 72fd 0bbd
00000280: a353 f1bd eba0 debd 7e43 02bc f6dd 163e
00000290: 8cd9 443e bb40 783e f6d7 23be 6585 e7bb
000002a0: a06a 053d 6170 14be dabd 3ebe 5b14 bf3d
000002b0: bcd8 633e 04dd 133e 3786 893e a25a 4e3d
000002c0: c0ee 02be 97ea ea3d ffa4 ae3d 7cf5 303e
000002d0: 0869 9f3d 072f c03d fb29 b5bd 96dc 723e
000002e0: 96f3 f03d d6c3 ce3d b65a 193e 1068 2e3e
000002f0: 97b1 ba3d f414 3bbd 4903 b0bc 6ed5 e53d
00000300: c3ae 24bd 73ec 183e 6533 0c3d d26e 5d3e
00000310: e785 7d3d e45d 22be 0b98 393d 5efb 1bbe
00000320: 1c3b 0bbd ffe6 8b3c aecd 8fbe 106c 3bbd
00000330: d623 893c 401b 9e3d 68f8 b33c e68d 7f3d
00000340: 8899 03bd 6883 35bd 5f8f b0bb f74d 1f3e
00000350: c926 e2bc 18af 373d 63d8 3e3d 1d9c 26bd
00000360: 732d 9a3d ecc8 8abd e371 07bd 8553 533d
00000370: f83b 733d 55fe e83d 80b9 4abd e695 0c3c
00000380: fd5e a93d 9205 853c bb30 403e 80d4 393b
00000390: 5534 07bc 5418 eabc 2e35 bd3d 189f 023e
000003a0: 65b4 493e 32ff 49be 4c3e 4c3e 9f21 023e
000003b0: e837 6fbd 766f 203e 38b2 513c 269e 373e
000003c0: 887d bcbc 3a16 65be 1564 f3bc fe23 a9bc
000003d0: 0a14 593d 8602 153e 4e19 c5bd 8185 22bc
000003e0: 4a07 58be 0a41 cebd f06a 9b3d a4e4 313e
000003f0: 52e1 88bc baf6 b73e aa33 b83e 6e7e 033e

fc3.bias f4 [64]
-0.04471359 -0.024742208 0.17135096 -0.0651975 -0.13408288 -0.099102385 -0.030672003 0.024378901
-0.100024275 0.14390717 -0.025221407 -0.044313945 -0.18777582 0.04665382 0.06029353 0.11753778
0.0894447 -0.06681273 0.19162752 0.12707306 0.17886688 0.0642225 0.0017572002 -0.11964229
0.06165012 -0.14453357 -0.012679241 0.036460146 0.103528455 -0.039974514 0.10300821 -0.034639068
0.00686448 0.069860764 -0.16020481 -0.027667783 0.04096799 0.05330105 0.11118143 -0.08621583
0.05927718 -0.10967312 -0.06803893 0.20299168 0.009244357 0.034686543 -0.020843094 -0.12284156
-0.124039754 -0.016538274 0.11787335 -0.034296725 -0.018633008 -0.0065097176 -0.018867206 -0.029318346
0.033396885 0.10623967 0.20946075 -0.24013495 -0.17029825 -0.05052672 0.017247697 -0.049310055
00000000: 9925 37bd 2cb0 cabc a076 2f3e 4486 85bd
00000010: 064d 09be 31f6 cabd da43 fbbc 43b6 c73c
00000020: 87d9 ccbd 675c 133e 209d cebc 8a82 35bd
00000030: 4e48 40be 1318 3f3d 59f6 763d a6b7 f03d
00000040: c82e b73d 1dd5 88bd 013a 443e 711f 023e
00000050: e128 373e 1687 833d db51 e63a 0407 f5bd
00000060: d684 7c3d 9c00 14be 97bc 4fbc 3c57 153d
00000070: ba06 d43d 51bc 23bd f8f5 d23d b2e1 0dbd
00000080: 6fef e03b 2913 8f3d bb0c 24be 8ca7 e2bc
00000090: 0dce 273d 3452 5a3d 17b3 e33d ed91 b0bd
000000a0: a1cc 723d 4d9c e0bd ff57 8bbd 0ddd 4f3e
000000b0: a575 173c 7a13 0e3d 23bf aabc 5b94 fbbd
000000c0: 8e08 febd 467b 87bc 9567 f13d b97a 0cbd
000000d0: 40a4 98bc 784f d5bb 668f 9abc 072d f0bc
000000e0: 2ccb 083d 2f94 d93d e17c 563e f0e5 75be
000000f0: aa62 2ebe 1bf5 4ebd 0b4b 8d3c 57f9 49bd
