saved_models/FADA-few-shot-retraining/mnist/encoder_mnist_12.pt (torch_old, 197624 bytes, 10 tensors)

conv1.weight f4 [6, 1, 5, 5]
000000 dd 57 f0 bc 85 85 4f 3d f1 0f 1f be f4 8a ba bd
       -0.029338771 0.050664444 -0.15533425 -0.091085345
000010 26 14 15 bd 33 0c 3d bd 0e 81 2c be 86 d9 67 bb
       -0.03639617 -0.046154212 -0.16846105 -0.0035377457
000020 50 e0 1c be 7b d1 81 3c 82 7f b2 bd ff dd c0 3c
       -0.15319943 0.015846958 -0.087157264 0.023543356
000030 67 2c 08 be 4f a9 3b be 98 3a 0f 3e 28 cc 96 bd
       -0.13298188 -0.18326305 0.13987195 -0.073631585
000040 75 b3 91 3b 77 50 f2 bd 4b 02 83 bd 0d 82 f4 3c
       0.004446442 -0.11831754 -0.06396922 0.02984717
000050 74 d2 d0 3d 5e 51 0a bd e1 20 36 be 5e 2d ff 3c
       0.10196391 -0.033769004 -0.1778598 0.031149562
000060 e8 de bc 3d b5 83 61 3e 1c 63 b5 3d a2 b0 c6 bc
       0.092222035 0.22022898 0.08856794 -0.024254147
000070 0a da 3e 3d e0 e7 0e be e7 f5 6c 3d ae 69 ca 3a
       0.046594657 -0.13955641 0.0578517 0.0015442872
000080 56 99 6b be bd 6f 78 be 11 77 14 be 9f 47 26 be
       -0.23007712 -0.24261375 -0.14498545 -0.16238259
000090 64 bb a5 bd 2c be 1e be 1c ac 23 be 2e e3 45 be
       -0.080923826 -0.15502232 -0.15983623 -0.19324943
0000a0 c1 08 bc 3d 4f 58 42 be 58 42 1b be 7a 7b b9 bd
       0.09181357 -0.18979 -0.15162027 -0.090567544
0000b0 25 56 0a bb 54 9a 9f bd 7b 07 b2 3d 1e b2 9d bc
       -0.0021108475 -0.07793108 0.08692833 -0.019249972
0000c0 2f 7e 22 3e db b4 8b 3e 69 6c 9d be 50 40 35 be
       0.15868448 0.2728642 -0.30746773 -0.17700315
0000d0 9c 78 5e 3d 64 00 b6 3e a2 e7 e6 3d 76 e0 aa be
       0.05431424 0.35547173 0.11274649 -0.33374375
0000e0 6b 1c ac 3d ba 4a 0d 3f fa c4 c5 3e 51 38 96 be
       0.08403858 0.5519215 0.38626844 -0.2933984
0000f0 ef 9a a8 bd 7e e4 a5 3e 31 23 15 3f da 3b 68 be
       -0.08232676 0.32400888 0.5825682 -0.22679082
000100 b5 45 aa be 45 81 8b 3d 0e 1d 73 3e f3 cb 33 3e
       -0.33256307 0.068117656 0.23741552 0.17558269
000110 d5 7c 63 be f9 b9 56 be 49 5b 18 3e 1a 70 34 3e
       -0.22215588 -0.2096938 0.14878573 0.17620888
000120 00 a6 aa 3d 39 0e 65 be 4a 1c 54 3d 08 72 32 3e
       0.08332443 -0.22368707 0.05178479 0.17426312
000130 f3 2f 13 3d 70 38 c6 be f8 fb 3a be 5e 70 2c bd
       0.0359344 -0.38714933 -0.18260181 -0.04209935
000140 f3 c7 c4 3e b4 98 a2 3e 4c 6a c0 be fe b4 c0 be
       0.384338 0.31757128 -0.37581098 -0.37638086
000150 ba 22 57 bd 58 64 78 3e 67 b2 f7 3e db a4 9d be
       -0.052523352 0.24257028 0.48378298 -0.30789837
000160 3e 0a 88 be 2f 7d b2 be cd aa 21 bc 42 ac ba 3e
       -0.26570314 -0.34861133 -0.009867382 0.36459547
000170 d9 bc 74 3e 10 fe a0 3c ff 27 9f be 88 10 2f 3e
       0.23900165 0.019652396 -0.31085202 0.1709615
000180 cb 41 cb 3e d4 47 eb 3e d4 a4 b4 3e 66 07 54 3b
       0.39698634 0.45953238 0.35282004 0.0032353043
000190 bb 91 a2 3e f7 94 f0 3e df e2 85 3e 29 2a 6b bd
       0.3175181 0.4698865 0.2614965 -0.057413254
0001a0 53 e1 8f bb db e1 a0 3e 83 8c f2 3e 2f 2f fb 3e
       -0.0043908744 0.31422314 0.47372827 0.49059436
0001b0 b0 79 70 3e 9e 3a ac 3d a6 a5 b7 be 47 67 8e be
       0.2348392 0.08409618 -0.35868567 -0.2781317
0001c0 cc 0c ab 3d 1b 89 92 bd 08 d0 60 bd 78 b3 79 be
       0.0835205 -0.07155057 -0.054885894 -0.24384868
0001d0 7c 65 ef be 32 16 83 be 01 64 0b be e7 6b ff bc
       -0.46757114 -0.2560287 -0.13612367 -0.031179382
0001e0 5c 17 ce be 88 5c 4b be 6e 12 a1 be bb 14 56 bc
       -0.40252197 -0.19859517 -0.31459373 -0.013066466
0001f0 b1 c3 0b 3d a6 a2 81 bb e8 6e 04 bd c0 1d 86 be
       0.034122173 -0.003956157 -0.03233233 -0.26194572
000200 bb a8 7a be c1 98 42 be 40 7a a2 bd 0c e1 37 be
       -0.24478428 -0.19003583 -0.079334736 -0.17956942
000210 7d 97 ac be 2c 84 93 be 3a bd 6e be 08 b7 eb bd
       -0.33709326 -0.28811777 -0.23314372 -0.1150952
000220 61 4f b4 be 6a 4d 98 be 1b 2f 6b 3d 69 6d 23 3e
       -0.3521681 -0.29746562 0.05741797 0.15959705
000230 4f da 79 bd 57 7d f5 3d 39 76 b2 3e 85 a0 af 3e
       -0.06099921 0.11986797 0.34855822 0.34302154
000240 f0 59 83 3e a5 73 99 3e 56 92 f7 3e b0 12 b4 3e
       0.25654554 0.29971042 0.48353833 0.35170507
000250 bb 88 35 3e ca 43 99 bd
       0.1772794 -0.07483633

conv1.bias f4 [6]
000000 b8 45 9b be 43 30 f0 bd 34 60 93 3d 66 2d 1b 3e
       -0.3032663 -0.11727955 0.07196084 0.15154037
000010 13 28 a6 bc a9 66 a9 bd
       -0.02028278 -0.08271534

conv2.weight f4 [16, 6, 5, 5]
000000 0c 6f 41 3c b1 e5 da 3d 53 54 89 bd 2c dc 1a bd
       0.011806261 0.106883414 -0.06705537 -0.03780763
000010 ed cf b0 bc 3b de c7 bd c1 19 f8 3c b7 8b 20 3c
       -0.021583522 -0.09759184 0.030285718 0.009798936
000020 3f 56 c4 bc 5c 09 33 bd 41 e0 fb bc 0f e1 08 3d
       -0.023966907 -0.043710098 -0.030746581 0.033417758
000030 a6 bb 0d 3d a6 37 51 bd a3 c5 91 bd b5 92 2a bd
       0.034602784 -0.05107846 -0.07117774 -0.041643817
000040 d9 67 5b be e7 b9 a9 bd 6b a7 e5 bd fb d2 48 be
       -0.21426333 -0.08287411 -0.11213573 -0.19611733
000050 c5 4d a9 bd 05 fa 7d be ea 0f 9b be 0a d9 8a be
       -0.082667865 -0.24802406 -0.3028558 -0.27118713
000060 6e c0 2a be 56 bd 75 3d 75 ab 8b 3c 33 8a 2a be
       -0.16674969 0.059995018 0.01704953 -0.16654281
000070 7e 8b a4 3c e8 39 7e bd 66 e1 2d 3d 03 74 a1 bd
       0.020086046 -0.062066942 0.042451285 -0.078834556
000080 67 6a 2f bd 6c 87 46 3d ef 69 96 bd 0b 72 87 bd
       -0.042826083 0.048468992 -0.07344424 -0.06613549
000090 66 28 83 bd 1c 5b cc bc 04 11 c8 bc 57 89 76 be
       -0.0640419 -0.024945788 -0.024422176 -0.24075828
0000a0 a4 e9 89 be 2c 37 36 be 70 1d 19 be 16 ab 0f bd
       -0.26936066 -0.17794484 -0.14952636 -0.03507527
0000b0 c6 a7 47 be 61 ff b7 bd f8 e5 79 be 7e 3b 21 be
       -0.19497594 -0.089842565 -0.24404132 -0.1574535
0000c0 07 24 96 be ad 3e 3b be 39 b6 1e be 06 3a dc bd
       -0.29324362 -0.18285628 -0.154992 -0.107532546
0000d0 ef 62 98 3c 6d 96 00 3e 94 b4 d3 3d 06 1f d1 3d
       0.018601863 0.12557383 0.10337177 0.102109954
0000e0 0f 0d f8 bc a6 02 0d 3e de 90 8f 3c d6 5f ce 3c
       -0.030279664 0.13770542 0.017525133 0.025192183
0000f0 35 73 f7 3d 5d 19 62 bd 91 cc 6c 3d f1 d3 c5 bd
       0.12082521 -0.05519997 0.057812277 -0.09659565
000100 fc 92 69 3d 7a 72 a3 bd 58 d3 22 be 29 0f 73 bd
       0.05702494 -0.07980819 -0.15900934 -0.05934063
000110 2c 10 e0 bd 71 35 21 3e a5 5b 81 be 6c 89 5b be
       -0.109405845 0.15743043 -0.25265232 -0.21439141
000120 db 57 98 be 4f d6 23 be ad 5f 63 3e f6 b9 c2 bc
       -0.29754528 -0.15999721 0.22204466 -0.023770314
000130 42 a0 40 3d a2 7a ae bd ae e4 f0 3b 85 d3 b6 bb
       0.047027834 -0.08519484 0.0073514795 -0.0055794143
000140 5f cc 60 3c ac dd 76 3d 1c 92 3b be b4 7a 05 bd
       0.013720601 0.060269997 -0.18317455 -0.032587722
000150 31 c8 bf 3d 38 63 18 3e d4 a6 84 3e ff 0b 75 3d
       0.09364355 0.14881599 0.2590853 0.059825893
000160 f4 06 d3 bd 49 fa bd bd ad 83 4a bd e7 2b 93 3e
       -0.103040606 -0.09276254 -0.049441982 0.28744432
000170 0a d0 f6 3d 6d 4d 61 bb b3 c8 42 bd 67 55 95 be
       0.12051399 -0.0034378425 -0.047554683 -0.2916672
000180 e5 dc aa bd 34 76 0b bc 95 2b 68 bd a4 da a5 bd
       -0.083429135 -0.008512069 -0.056682188 -0.08098343
000190 a8 93 56 3d 5c 1c 83 bd 88 67 bf be 68 f8 e6 bd
       0.05238691 -0.064018935 -0.37383676 -0.112778485
0001a0 f8 fb dd bd 5b fa f6 bd 31 47 2b be bb b6 a1 3c
       -0.10839075 -0.1205947 -0.16726376 0.019740453
0001b0 6b 32 53 bc 7f 78 0c bd 1c 20 b6 3d b9 1a 5b be
       -0.012890439 -0.0342946 0.08892843 -0.21396913
0001c0 cb 80 38 be a8 ad b6 bd a3 b6 06 be 3b 9b 78 3e
       -0.1801788 -0.08919841 -0.13155608 0.24277966
0001d0 99 46 f2 3c 75 aa 9d bd 1f 5e 34 be f7 0f 06 be
       0.02957468 -0.07698528 -0.1761403 -0.13092028
0001e0 d0 d1 db 3d 46 fc 6c 3e d9 e1 57 3e ae 69 1a 3e
       0.10733378 0.2314311 0.21082248 0.15079376
0001f0 8d 9c 66 3d 05 e9 96 bd 05 65 2c bd 29 87 a6 ba
       0.056301642 -0.07368664 -0.042088527 -0.0012705076
000200 2b c1 22 be 43 a7 07 bd 83 8a 85 3d 75 60 ce bc
       -0.15894 -0.033118498 0.0652056 -0.025192479
000210 66 7e f6 bd 54 f2 b9 bd 06 d9 a5 bd 37 3d 7f 3d
       -0.12035827 -0.090794235 -0.080980346 0.06231424
000220 1d 4c 97 3d 2e a7 8d 3c b4 c6 7d 3d cb 6b e3 bc
       0.07387564 0.017291632 0.061957076 -0.02776136
000230 c1 65 c4 bd 2a 3c ce bc f4 77 25 bc ee aa fc 3d
       -0.095897205 -0.025175173 -0.0100994 0.1233729
000240 47 fd 29 3e 53 12 27 be e1 09 21 be b0 9e 6c 3c
       0.16600524 -0.16315584 -0.15726425 0.014442131
000250 c7 4e e5 bc d3 93 03 be b8 f9 99 3c a2 9c 64 3d
       -0.027991666 -0.12849359 0.018795833 0.05581344
000260 8c ba 99 3d 19 bd ce bc 1c 59 2f 3d 44 7a f2 bd
       0.07506284 -0.025236653 0.04280959 -0.118397266
000270 19 ec 89 bd 92 fb 99 bd 40 69 55 3d 6c c7 3e 3d
       -0.06734485 -0.07518686 0.052102327 0.046576902
000280 5a f8 ee bc 8c 4d af bd 23 ec 32 3c 8c 18 2c bd
       -0.029171158 -0.08559713 0.010920557 -0.042015597
000290 33 ae 83 3d 78 43 b0 bd e2 aa 8f be b3 ea 74 be
       0.0642971 -0.08606619 -0.2806006 -0.23917656
0002a0 4b 9c 1a be 8e 11 ba bd 9c 60 86 bd 02 53 5a be
       -0.15098684 -0.090853795 -0.065613955 -0.21320727
0002b0 a2 77 0b be 01 af e1 bc 17 e2 9c 3c f3 68 4f bb
       -0.13619855 -0.027549269 0.019150777 -0.0031648248
0002c0 7b 7c 80 3d 3f 73 24 3e 95 99 50 bc 3d dc bb 3c
       0.06273743 0.16059588 -0.012731929 0.022932166
0002d0 7d 44 a6 bd d4 0e d9 3d 53 d4 d2 bd 7f 7c 84 bd
       -0.08118532 0.10598531 -0.10294404 -0.06469058
0002e0 47 9c 4d 3c ea 45 42 bd 07 25 c9 bd 89 39 2b be
       0.012549466 -0.047429956 -0.098215155 -0.16721167
0002f0 85 6f 07 be 8c bf 6e 3d d0 d2 fd bd d0 e9 c3 be
       -0.13226135 0.058288142 -0.12393725 -0.38264322
000300 42 4c 92 be cf ce d8 bd ee 87 17 bc f6 e6 f6 bd
       -0.28573805 -0.105863206 -0.009248717 -0.12055771
000310 fb 59 67 be e2 27 35 be 8f fe 04 bc eb c4 e5 3d
       -0.22592919 -0.17690995 -0.008117332 0.112192
000320 b4 f5 35 3d 30 43 b4 3b 0c 5b b1 bb 88 8a 98 bc
       0.044423774 0.0055011734 -0.005412465 -0.018620744
000330 a6 f7 a4 3c f7 65 14 3e 84 dc 52 3e 19 6a 5e 3e
       0.02013762 0.14492022 0.20591933 0.2172016
000340 b5 2b 73 3b bf 1e bc bd c9 47 10 3e af dd cb 3d
       0.003710491 -0.09185552 0.14089884 0.09954392
000350 a9 fe 24 3e aa 8e 93 bd 99 ed e6 bc bc ea e6 bc
       0.1611277 -0.072049454 -0.028189467 -0.028188102
000360 f3 73 26 bd d7 5f f5 bd 04 21 ae 3d ca 49 08 3e
       -0.04063792 -0.119811706 0.08502391 0.13309398
000370 2f 00 94 bd 19 e5 47 be 15 ea 1c be 28 a6 4f 3d
       -0.072265975 -0.19520988 -0.1532367 0.05069557
000380 a6 14 5d 3c d0 f1 b4 3d 29 71 08 3e fc 89 de bb
       0.0134936925 0.088351846 0.13324417 -0.0067913514
000390 1e eb 2e 3c 25 e2 e5 3c a0 99 9e bb b3 3e b5 3d
       0.0106761735 0.028061936 -0.004840091 0.088498496
0003a0 68 17 34 be 15 07 cd bd 42 0d 81 3c d4 d3 0e 3e
       -0.17587054 -0.100111164 0.015753392 0.13947994
0003b0 6e 03 9e 3d 47 54 8a 3e 5b 85 f5 3d 79 21 5b bc
       0.07715498 0.27017424 0.11988326 -0.01337468
0003c0 73 80 47 3e 6f 6d 5a 3e 47 c3 77 3e e8 fc c9 3d
       0.19482593 0.21330808 0.24195586 0.09862691
0003d0 f6 61 fa 3a 14 60 eb bc 8d 00 1e 3e 6e 28 b1 3c
       0.0019102681 -0.028732337 0.15429898 0.021625724
0003e0 75 40 1c bc 5f 1f 86 3c de d1 df 3d c7 d8 48 bd
       -0.009536852 0.01637238 0.10928701 -0.04903486
0003f0 70 82 d4 bd 9b 4a 72 3d 72 07 da 3d 2c c5 0d 3e
       -0.103764415 0.05915318 0.10645951 0.13844746

conv2.bias f4 [16]
000000 a7 6c 38 b9 f4 a0 71 3d 24 57 b5 bd 7c c9 92 3d
       -0.00017588084 0.058991387 -0.088545114 0.07167336
000010 5c dc 71 bd 63 62 5b 3d 75 b1 81 bd 65 0b 80 bd
       -0.05904804 0.053560626 -0.06332675 -0.06252173
000020 4a d1 7e ba 5a 52 4c bd 4b 62 c9 bd 03 1f a8 bd
       -0.00097205176 -0.049883224 -0.09833201 -0.0820904
000030 69 e2 2e bc df db 25 bd 8c f2 13 bd 00 f7 01 3e
       -0.010674098 -0.04049289 -0.036119983 0.1269188

fc1.weight f4 [120, 256]
000000 ce 8f 39 be ae bd 6d bd 2b 2e e8 3d 26 e5 1f bc
       -0.18121263 -0.05804222 0.11336931 -0.009759223
000010 d1 a2 42 be 9d 6d ad be 7a d0 f0 bd 9f 6a a4 be
       -0.19007422 -0.3387269 -0.11758514 -0.32112595
000020 31 f4 8b be 2e 41 89 bd be db b2 bd 4e bc 1b 3e
       -0.2733474 -0.06701885 -0.08733319 0.15208551
000030 5b 15 e7 bd 56 e0 01 be 23 7f 21 3e 79 ee f6 3e
       -0.1128337 -0.12683234 0.15771155 0.48228815
000040 9c fe f1 3d 8a 40 1b be ef c1 f9 bd 9a d3 2e bd
       0.11816141 -0.15161338 -0.12195193 -0.042682268
000050 47 15 f9 bd f7 86 a1 be af 37 93 be d3 65 25 bd
       -0.121622615 -0.31548283 -0.2875342 -0.04038031
000060 ce 56 8f be 7a a6 10 be a0 28 fd bd b9 9d d8 3c
       -0.27995914 -0.14126006 -0.12361264 0.026442396
000070 c9 2c 24 bd 90 6f dd bd 6d 14 20 3e f5 ff 9d 3e
       -0.040081773 -0.108122945 0.15632792 0.30859342
000080 94 b3 df 3c d4 77 be 3d 46 c6 5f bd d5 51 98 bc
       0.02730731 0.09300199 -0.054632448 -0.018593708
000090 70 fb 80 bb fd 3a ba 3d d2 12 2e bd eb 0e bc bd
       -0.0039362237 0.09093282 -0.042498417 -0.09182533
0000a0 a9 cf 78 3e 63 49 13 bc 23 ac 25 bd ce de 84 be
       0.24297966 -0.008989665 -0.040447365 -0.25951236
0000b0 04 e7 33 3e 9c 20 90 3d a9 2e 49 bd 64 38 91 be
       0.17568594 0.0703747 -0.049116764 -0.28363335
0000c0 8a 51 73 3d a8 b6 37 3d 3b ad 0c 3d 2c 46 25 bd
       0.059403934 0.04485193 0.034344893 -0.040350124
0000d0 4d 0d 23 bd 35 ed 9c be 0f 0b d1 be 73 6c dc be
       -0.039807606 -0.30649725 -0.4082875 -0.4305149
0000e0 35 48 d8 bd 89 a8 64 bd d3 2a 59 3d 94 62 55 3e
       -0.105606474 -0.05582479 0.053019356 0.20838386
0000f0 b8 c7 82 3c 56 94 20 3d 2b ee 5e 3e a4 6a c2 3e
       0.015964374 0.039203964 0.21770541 0.37971985
000100 be 1f 09 3e da 02 86 3d f9 8a 89 3d 0e 58 d9 3d
       0.13391015 0.06543513 0.0671596 0.10612498
000110 94 b3 a9 bd 17 2e 89 bd f1 70 e2 bd 7a 54 ff bc
       -0.08286205 -0.06698244 -0.11056698 -0.031168211
000120 da c9 9c be e3 e9 4b be f2 f8 76 be f7 f6 b1 be
       -0.3062275 -0.1991344 -0.24118403 -0.34758732
000130 b0 6e 89 be b3 a0 cf 3c 83 7e cf bc 7c 07 c8 3d
       -0.2684226 0.025345182 -0.02532888 0.097670525
000140 17 a0 d0 bd 07 b4 15 3e 70 cc cd 3d 4c 6e ea 38
       -0.10186785 0.14619456 0.10048759 0.00011178534
000150 d3 26 57 3d c1 a9 0a 3e 71 64 c2 3d b6 eb 47 3d
       0.05252726 0.13541318 0.09491814 0.048808776
000160 69 eb 25 be 6b 61 05 3e 96 b5 0e 3e 86 92 d0 3d
       -0.16203083 0.13025443 0.13936457 0.10184197
000170 f6 f9 03 3c bf ad 53 3e d8 cd 8d bc 2c 00 d1 bc
       0.008055201 0.20671748 -0.017310068 -0.025512777
000180 99 aa 46 be 58 98 13 3d ee a9 9b bd e9 f6 4e bc
       -0.19401015 0.03603396 -0.07600771 -0.01263211
000190 5f e9 e5 bd a6 67 60 3c 97 0c 8a bd e7 1f 17 3d
       -0.11226153 0.013696587 -0.067406826 0.03689566
0001a0 70 c9 81 be 29 91 56 3d 58 bb 13 3d 80 45 fe 3d
       -0.25348997 0.05238453 0.036067337 0.124156
0001b0 76 09 01 be 1b 2e 18 3a 31 f9 4d 3e ea 84 9f 3d
       -0.12601265 0.000580521 0.2011459 0.07789023
0001c0 f0 00 a8 3d 74 e7 dc 3d f4 de 80 3d 95 7f 63 bd
       0.08203304 0.10786334 0.06292525 -0.055541594
0001d0 6d 14 3d 3e 84 eb 01 3e 4a 71 3e bd 1e 22 09 bd
       0.18464823 0.12687498 -0.04649476 -0.033479802
0001e0 71 6c 1d 3e 36 9b 3e bc bc b3 54 bd 39 07 a9 bd
       0.15373398 -0.011633685 -0.05192922 -0.08253331
0001f0 93 95 46 3d 54 86 ea 3c 25 64 5d 3d d4 d1 34 3e
       0.04848249 0.028628506 0.054050583 0.17658168
000200 9d 85 d0 bc b9 88 db bb 33 19 12 3e 55 34 61 bc
       -0.025454337 -0.006699648 0.14267425 -0.013745387
000210 2f 03 76 bd 59 6f 9a bd 16 a3 0a 3d 05 e4 6e 3d
       -0.06006163 -0.07540769 0.033846937 0.058322925
000220 95 e7 5d be 71 43 68 be 20 76 72 3d ea c8 6d 3a
       -0.21670373 -0.22681977 0.059194684 0.0009070771
000230 04 bd 43 bd 6c 06 a2 3c fa 97 fe 3d 1a 8c c3 bc
       -0.04778768 0.019778453 0.12431331 -0.023870517
000240 c0 d8 14 bc aa 62 32 3e c8 d3 8f bd e6 c0 2c 3c
       -0.00908488 0.1742045 -0.07022816 0.010544037
000250 d5 96 bc 3d e2 16 cc 3d ab 9d 4f be 82 a2 18 be
       0.092084564 0.09965302 -0.2027499 -0.14905742
000260 84 8d e7 3d 6a 73 be 3c 75 61 0e be 55 97 6c 3d
       0.11306289 0.023248393 -0.13904364 0.05776151
000270 f1 46 44 3e ef 80 b9 3d 0d 04 30 3d ca fd 8a 3d
       0.19167687 0.09057795 0.042972613 0.06786688
000280 d7 49 07 3e 9b 18 c9 3d e7 e1 7d bd 91 c2 1a bd
       0.13211761 0.09819146 -0.061983015 -0.03778321
000290 2e 40 27 3e d4 13 3d 3e e7 f8 ad 3d 75 68 8d 3d
       0.16333076 0.18464595 0.0849474 0.06904689
0002a0 62 87 ed 3d 84 90 b0 3c e7 3f 79 3d 92 fa 13 3e
       0.11598088 0.021553285 0.060851958 0.14451054
0002b0 0f 20 a8 3d 22 d5 81 bc 26 44 e6 bd 2b 44 10 be
       0.0820924 -0.0158487 -0.11243467 -0.14088504
0002c0 7e f1 7b be 62 ce 17 be 51 d9 81 be 21 f5 d3 bd
       -0.2460384 -0.14824823 -0.25361112 -0.10349489
0002d0 e5 89 28 be 06 f3 34 be cb 0d 42 be 0c e6 63 be
       -0.16458853 -0.17670831 -0.18950574 -0.22255725
0002e0 32 5d 4e bd 58 ea e4 3c 91 67 d4 bd 0a 94 f8 3c
       -0.050381847 0.027943775 -0.10371316 0.030344028
0002f0 a2 a4 a3 3d 8f 13 4c 3c 04 e8 8d 3d c1 6e 82 3e
       0.079903856 0.012455835 0.06929019 0.25475124
000300 56 e3 f7 bd 1b f4 45 3d 92 66 3a 3c 3d 44 85 bd
       -0.12103908 0.0483285 0.011376994 -0.06507156
000310 78 7b 8a 3d 2e 8b 90 bc 40 1a 04 3d 24 55 fc 3c
       0.06761831 -0.017644491 0.032251596 0.030802317
000320 f5 38 0d bd c4 d8 c1 bb 74 0b 59 bc 4f 7e a8 bd
       -0.034478147 -0.005915733 -0.01324736 -0.082272165
000330 d0 4c 1e 3e 5e 2a 25 bc 4d 17 ad 3b 34 b9 0f 3e
       0.15458989 -0.010080902 0.0052823187 0.14035493
000340 7e 6b f3 3c df 91 f6 b8 b5 1d 3e bd 2d 2f 94 bd
       0.029714342 -0.00011757365 -0.04641505 -0.072355606
000350 fd bc 82 3d 53 b9 d0 3c 58 cb de bd 1f 01 8c 3d
       0.06383703 0.025478994 -0.108786285 0.06836151
000360 b8 4c 9c 3c c7 5e 61 bc 37 eb e7 3c 9e bb ac 3e
       0.019079551 -0.013755507 0.028310401 0.3373689
000370 ce bd 8c ba f4 2f 2e 3d 19 da ff 3d 1a fa 0e 3e
       -0.0010737719 0.0425262 0.12492771 0.13962594
000380 e1 bf c7 bd 7b a3 29 3d 75 f1 29 3d 99 52 36 bd
       -0.09753395 0.041415673 0.041490037 -0.044512365
000390 2b 82 c0 bc 2d c5 0f bd 16 33 36 3e b0 2a 6b 3e
       -0.023499569 -0.03510015 0.17792925 0.22965503
0003a0 82 3a db bd 8f b4 3e 3d 43 f4 8f 3e 4d a7 49 3d
       -0.10704519 0.046558913 0.28116044 0.049231816
0003b0 8b 61 44 be 84 cf 82 bd 29 8a 9c 3d e9 8f bc bc
       -0.19177835 -0.06387237 0.076435395 -0.02301784
0003c0 54 74 88 3d 59 63 c4 3d 73 1f 91 bc 3e df 32 3e
       0.06662813 0.095892616 -0.017715191 0.17467973
0003d0 68 11 3c be cd f6 47 bd ee df 2a 3e bd 9f a2 3d
       -0.18366015 -0.048819352 0.16686985 0.07940624
0003e0 d8 92 f2 bd 97 c8 c8 bd 6a c7 a2 3b 60 4a ca bd
       -0.118444145 -0.098038845 0.0049676197 -0.09877467
0003f0 fe a8 48 bd 93 0e bb 3d af 08 b0 3c 3c 3d eb be
       -0.04898929 0.09133639 0.021488516 -0.45945156

fc1.bias f4 [120]
000000 52 d9 77 3c b1 9b a1 bb b7 5b f6 3d f1 ab eb bc
       0.015127497 -0.00493189 0.12029212 -0.028768511
000010 2b d5 61 bd dc 35 a0 3d 32 7b ba 3c bf 15 eb bc
       -0.055134933 0.07822773 0.022763822 -0.028696893
000020 35 23 37 3d f3 7c bf 3d 34 88 a3 bc a8 81 c7 3b
       0.04471131 0.09350004 -0.019962408 0.0060884543
000030 d1 23 b0 bd 55 1b d4 3c 44 b2 0c 3d ac 83 96 3d
       -0.086005814 0.02589194 0.034349695 0.07349333
000040 9a 50 7f bd eb 47 28 bc 31 dd 9e bc cc 6c 13 bd
       -0.062332727 -0.010271053 -0.019392582 -0.03599243
000050 f8 30 47 3c 5e cf 50 3d 0a 91 09 3d 0d c1 10 3c
       0.012157671 0.05097901 0.033585586 0.008835089
000060 f9 22 3c bc 35 55 3c 3d 7e 3e fc bc 7f ab 18 3d
       -0.0114829475 0.045979697 -0.030791517 0.037272926
000070 fd e5 df bc c3 a9 d5 3d 6d af 97 3b d2 2e 2d 3d
       -0.027331347 0.1043277 0.0046290667 0.04228098
000080 52 03 fc 3c ae f2 b6 3c 98 24 89 3d 6c 6a 55 bd
       0.030763302 0.022332516 0.06696433 -0.052103445
000090 63 57 56 bd aa b1 56 bd 9b 95 86 3c b8 2a 33 3d
       -0.052329432 -0.052415527 0.01642876 0.04374191
0000a0 e9 93 43 3d 96 54 c1 bd 71 42 74 bc 45 a3 2e be
       0.04774848 -0.094399616 -0.014908419 -0.1705447
0000b0 c0 ef 21 3c 35 fd a4 3c 61 f7 b9 bb 77 c3 26 bc
       0.009883821 0.02014027 -0.005675242 -0.010178438
0000c0 46 5d 85 bd 6b 7c f8 bd 50 9f c7 bd fb ce 4f bd
       -0.06511931 -0.12133106 -0.09747183 -0.0507345
0000d0 e0 e7 2a 3d 2f 1a 31 3d e2 74 47 3c 75 3c 2e bd
       0.04172504 0.04323786 0.012173863 -0.042538125
0000e0 d4 e2 ca 3d 16 ec 0a 3d 2d 08 7e 3d dc 83 23 bd
       0.09906545 0.033916555 0.062019516 -0.039920673
0000f0 fe 9c 9d bd 23 e0 db bc db 61 b0 3b 25 7e 91 bd
       -0.076959595 -0.026840275 0.005382759 -0.07104138
000100 17 40 fd 3c 21 6c 9e 3c 9d 0a 52 bd e3 09 eb 3c
       0.03091435 0.01933867 -0.051279653 0.028691238
000110 89 38 9a 3c 51 fd 72 bd 4e 4e c8 bc 54 d3 5f bd
       0.018825786 -0.059323613 -0.024451401 -0.054644898
000120 70 8b 4d bb e2 ac 80 bd d0 88 b7 bc 79 bb 4b 3d
       -0.0031363629 -0.06282975 -0.022404104 0.049739335
000130 04 9a 3a bc 8e 3e aa 3c 9b ca e1 bd 88 1f 7d 37
       -0.011389259 0.020781782 -0.11024972 1.5087317e-05
000140 ff 47 76 3b 76 57 86 3b 76 45 b2 bc e7 05 4a 3c
       0.0037579534 0.0040997816 -0.021761637 0.012330509
000150 fe e3 61 bd 50 ab a2 bd d7 0d 7e bd 79 da e3 3d
       -0.05514907 -0.079428315 -0.062024917 0.11125655
000160 28 06 2a 3d 86 9c f0 bc e8 0b 9a 3b 8e 85 09 3d
       0.041509777 -0.029371511 0.0047011264 0.033574633
000170 b1 3a 03 bc 70 c6 32 3d ae cb 4f 3d 9b 87 85 bd
       -0.008009599 0.043646276 0.050731353 -0.06520005
000180 43 32 12 3e 4e 1d 22 bb 16 28 ac 3d 70 d0 5a 3c
       0.14276986 -0.0024736705 0.08406083 0.013355359
000190 12 6e 29 bc bd 5d 68 bd 20 a2 c2 bd d9 70 da bc
       -0.010341184 -0.05673002 -0.09503579 -0.026665138
0001a0 f5 8a 8b 3d 9e ad 71 bb 90 81 c5 3c 5e 9f 79 3d
       0.06813613 -0.0036877166 0.024109632 0.060943
0001b0 96 08 81 bd 3b e3 bb bd 3b e9 fd bc 40 ba 83 3d
       -0.06300466 -0.091742 -0.030995002 0.06432009
0001c0 06 68 7d bc ce aa 07 3c 7b 8a 1d 3a 0d 84 a9 bd
       -0.015466696 0.008280469 0.000600971 -0.0827714
0001d0 47 32 4e 3c 3d 52 45 bd 0a 9f 19 bd 42 f1 be bb
       0.012585229 -0.04817413 -0.037505187 -0.0058271

fc2.weight f4 [84, 120]
000000 2d 60 85 3d c7 7e a6 3d 4c 51 0c 3d 38 7d f3 bd
       0.06512485 0.081296496 0.03425722 -0.11889118
000010 0b d2 3d 3d 36 74 09 be b9 0e d2 bd 89 e6 28 be
       0.04634289 -0.13423237 -0.102567144 -0.16494192
000020 23 ba b0 ba bd 3b ca bd 74 3a fc 3d 2a 4c bd bd
       -0.0013483207 -0.098746754 0.123158365 -0.09243043
000030 70 00 90 bd db 09 d2 3c 84 7b a1 bd 03 e6 c6 bd
       -0.070313334 0.025639465 -0.07884887 -0.0971184
000040 f9 8a 30 3d 27 c6 92 3d ed b4 01 bc 76 91 48 be
       0.043101285 0.07166701 -0.007916671 -0.19586739
000050 32 fd a4 bd 02 1b 34 3d 9b 17 8c bd a8 2b 11 3d
       -0.08056106 0.04397107 -0.0684044 0.035442024
000060 1d 02 14 be 26 8f bf 3d 4a 26 a1 3d 5d cc f1 bc
       -0.14453931 0.09353475 0.07868631 -0.029516393
000070 76 84 fd bc fc 0a db 3d 20 29 97 bd dd cc 5b bd
       -0.030946951 0.106954545 -0.07380891 -0.05366217
000080 d1 f6 2d 3d 56 27 c1 3c 46 92 d7 3d 01 c9 46 bd
       0.04247171 0.023578327 0.10525946 -0.048531536
000090 a0 01 ba 3c 62 9c 86 3d 71 99 d0 3d 06 4b 64 be
       0.022705853 0.065727964 0.101855166 -0.22294244
0000a0 9f 2c 2e bd d0 34 5b be d4 6e 03 be 67 6f 20 be
       -0.042523023 -0.21406865 -0.12835246 -0.15667497
0000b0 d5 9f 58 3e 03 d5 30 be fb 13 6f bd 13 3c 3f 3e
       0.21154721 -0.17268758 -0.058368664 0.1867526
0000c0 97 b2 45 3c 10 32 33 bd 2d 60 a4 3d a4 2c 60 3d
       0.012066505 -0.043748915 0.080261566 0.054730073
0000d0 e3 51 b0 3d cc 73 54 bd 2a e0 35 bd db 75 42 3e
       0.08609369 -0.051868245 -0.044403233 0.18990271
0000e0 26 5c f8 bd 7d 59 6c be 2d ab 63 3d 4c 3f a2 3b
       -0.12126951 -0.23081012 0.055583168 0.004951393
0000f0 fa 24 a5 bc 85 94 38 bd f3 5a 4c 3d 28 7b 65 3d
       -0.020159233 -0.045063514 0.049891423 0.056025654
000100 e9 3c 0d be 91 67 0d 3c 22 be a8 bc 10 81 06 be
       -0.13792767 0.008630649 -0.020598475 -0.13135171
000110 75 4a a5 bd 3b 66 5c 3c 23 75 9e be 9d 30 f1 3c
       -0.08070842 0.013452108 -0.30948743 0.029442126
000120 ae cb 37 3d ae 5d 04 bd 7f 40 33 3d ad c6 e7 3d
       0.04487198 -0.032315902 0.04376268 0.11317191
000130 03 00 2c 3c dd 2d b3 3d 9c 79 31 be d0 11 53 bc
       0.01049805 0.08748982 -0.17331547 -0.012882665
000140 03 e1 bb bd 60 99 f8 bd 27 4c cc 3d 5f ca ec bd
       -0.09173777 -0.12138629 0.099754624 -0.11562037
000150 06 45 c6 3d 78 da 43 3c 2e 19 cf bd ce 44 f7 bc
       0.09681134 0.0119539425 -0.101122245 -0.030184176
000160 7b 05 21 be 7c 85 80 bd e9 82 83 3d 38 9f 34 3c
       -0.15724747 -0.0627546 0.064214535 0.011024289
000170 9f 46 be ba 28 54 46 be 21 2f 12 3e 9b 06 4a bd
       -0.0014516896 -0.1936804 0.14275791 -0.049322706
000180 90 66 b1 3d 0a 65 1f bd 59 1b 00 bd b0 bf 05 be
       0.0866214 -0.038914718 -0.03127608 -0.13061404
000190 7e c3 93 bd a2 e3 5e be 7a d0 d8 3d 0e 60 e9 bc
       -0.072150216 -0.21766523 0.10586639 -0.028488185
0001a0 f2 1a 00 be e8 d8 20 bd a1 6d 0a 3e 03 57 85 bc
       -0.12510279 -0.039269358 0.13518383 -0.016276842
0001b0 3c 4b ff 3b 96 29 ef 3d 3c 9f 0a bd 19 41 a5 3d
       0.007790951 0.11677854 -0.033843264 0.08069057
0001c0 35 93 ca bd 57 c4 da 3d b7 78 3b 3d c7 40 db 3d
       -0.09891359 0.1068198 0.04576942 0.10705715
0001d0 d3 84 62 bd 63 09 b3 3c f5 f9 73 bd 12 03 af bd
       -0.055302452 0.021855062 -0.05956455 -0.085455075
0001e0 af 80 1c 3e 78 79 ed bd 76 b2 06 be 24 5f 01 3d
       0.15283464 -0.11595434 -0.13154015 0.031584874
0001f0 19 d1 5c bd 8b c4 8c bc 64 3d 1b be dd 68 43 3d
       -0.05391035 -0.017183563 -0.15160137 0.047707427
000200 7d 36 5f bb ef 11 a5 bd 7f d6 cd 3d e7 c2 b2 3d
       -0.0034059577 -0.08060061 0.100506775 0.08728581
000210 05 54 dc 3c 73 60 6b 3c 95 0b cb 3b fd ea ca bd
       0.026895532 0.014366257 0.006196449 -0.09908102
000220 b3 01 80 bd 89 dc 3a bd 31 7d 20 3c f2 9f c8 bc
       -0.06250324 -0.045620475 0.009795473 -0.02449033
000230 e2 70 a1 bd d5 36 07 be f3 aa 62 3d 24 df 65 3d
       -0.07882859 -0.1320451 0.05533881 0.056121007
000240 d9 c0 28 3e 54 75 db bd dd 3a ef bd ee c9 e1 bd
       0.16479816 -0.10715738 -0.11681149 -0.11024843
000250 54 44 99 bd e1 6a a3 b8 28 b6 4d be 22 d0 66 bd
       -0.07483736 -7.7923534e-05 -0.20089018 -0.056350835
000260 bf da 74 bd 52 b7 78 bc 79 39 78 bd 2c b2 a9 3d
       -0.059778925 -0.015180426 -0.060601685 0.08285937
000270 49 a2 0b bd 72 ff 9a 3d 64 25 28 3e 31 fc f6 bc
       -0.034090314 0.075682536 0.16420513 -0.030149551
000280 68 89 c0 bc 22 fc 41 3e a7 e8 b7 3d f2 3e 99 bc
       -0.02350302 0.18943837 0.08979922 -0.018706772
000290 2d a2 09 3c 01 e2 90 bd 0e 35 ae bd e6 70 61 bd
       0.008400482 -0.07074357 -0.08506213 -0.05503931
0002a0 85 6e 54 bd 8d 18 fc 3b 0b 6c ab bd e1 18 1b 3d
       -0.051863212 0.0076933564 -0.08370217 0.037865523
0002b0 62 d9 ea 3c e8 c7 1d bd 9d 29 3c bd e5 15 9d bd
       0.02866811 -0.038520724 -0.045938123 -0.07670192
0002c0 c3 8c 97 bd c7 db ad bd 67 cb 6d be 97 83 5a bc
       -0.07399895 -0.08489185 -0.23222123 -0.0133370375
0002d0 7b c8 e4 3d 9f 7a 43 3c 68 41 7b 3c 08 95 78 3d
       0.11171051 0.011931091 0.015335418 0.060689002
0002e0 e9 d7 3a be ae db e1 3c ad 0c c4 bd b9 3d c0 3d
       -0.18246426 0.027570572 -0.0957273 0.09386773
0002f0 91 6e 41 bd df 5c 72 bd 25 39 a0 bc c4 09 f8 bc
       -0.047224585 -0.0591706 -0.019558499 -0.030278094
000300 14 af b9 bd 3d 8f 3b be f7 5c 00 3e 93 44 ba bd
       -0.090665966 -0.1831636 0.12535463 -0.09095111
000310 c9 97 2a 3b e2 33 90 ba 07 0f 82 3c 95 43 ac bd
       0.0026030412 -0.001100179 0.015876306 -0.08411328
000320 c3 6c 0b 3e bd 8b 81 bd 59 8c 20 3d ff 42 17 bd
       0.13615708 -0.06325481 0.039196346 -0.036929127
000330 89 77 27 3e 5d af 10 be d7 fa a5 3c f9 d7 23 be
       0.16354193 -0.14129396 0.020261211 -0.16000356
000340 5a 11 c2 3d 8c c3 6d bc f3 8f 30 3e b9 86 03 3e
       0.09475966 -0.014511954 0.17242412 0.12844361
000350 4d 73 b9 3d 8e 1c 89 be 2e fa 8e bc 66 d5 ca 3d
       0.09055195 -0.26779598 -0.01745328 0.09903984
000360 99 34 a1 3d 84 b8 91 be 48 1e 91 bc 68 86 09 be
       0.0787136 -0.28461087 -0.017714635 -0.13430178
000370 19 d7 de 3d a9 f1 44 be 0f cd a6 3c 86 40 42 3e
       0.1088087 -0.19232811 0.020361451 0.18969926
000380 d7 e3 e7 3c 83 f5 8a bd 30 e9 4a 3e 89 12 31 be
       0.028306885 -0.06785109 0.19815516 -0.17292227
000390 71 54 35 3e d0 0c 8a 3d d8 fe 26 bc 5e 55 75 bd
       0.17707993 0.06740725 -0.010192595 -0.059895866
0003a0 c7 3e e7 bb de 0a 58 3e 7d 5a 49 3d cc 4d 45 3d
       -0.007057044 0.21097896 0.049158562 0.048169896
0003b0 9e 9c 04 3e a1 6f ce bd 96 89 35 3d a1 23 42 be
       0.1295037 -0.10079885 0.044320665 -0.18958904
0003c0 64 9e 96 3d aa 81 88 3c 4c 08 73 be ff 1b 13 be
       0.07354429 0.016663391 -0.23733634 -0.14366148
0003d0 60 31 75 bc 46 24 58 bd 30 78 79 3d 08 12 d6 3d
       -0.014965385 -0.052768968 0.060905635 0.10452658
0003e0 9a f2 85 bc d1 2f 99 ba 64 7d 20 3e 9b 05 21 3e
       -0.016351033 -0.0011687224 0.15672833 0.15724795
0003f0 50 eb e9 3b 60 5e 08 bd 60 95 0b 3e 87 67 89 bd
       0.007138647 -0.033293128 0.13631201 -0.067091994

fc2.bias f4 [84]
000000 4b e2 aa 3c 7b 10 86 bd a0 66 b9 bd 08 fc 84 3d
       0.020859858 -0.06546112 -0.09052777 0.06493384
000010 0a 5d a5 3d 63 03 11 be 82 ad ea 3d c6 14 15 bd
       0.080743864 -0.14161448 0.11458875 -0.036396764
000020 49 bf 4f bc 04 5b 69 3d 96 ad 36 3d 1b 0d 44 bd
       -0.012679883 0.056971565 0.04459914 -0.04786406
000030 f0 02 c6 bc aa 11 9d bc b9 f7 e2 3d ea d0 17 bd
       -0.024171323 -0.019173462 0.110824056 -0.03706447
000040 2e 8e 3b 3d 47 83 9c bb 43 eb 24 3d 54 68 94 3d
       0.04578989 -0.0047763917 0.040263426 0.072464615
000050 a9 c3 9f bd 56 43 bc 3c 4d 94 d0 bd 8b 3e d7 3c
       -0.07800991 0.022981327 -0.10184536 0.02627494
000060 f7 87 7f bc 94 01 2b bc 55 09 19 3e 6f d9 32 bd
       -0.015596381 -0.010437388 0.14944966 -0.043664392
000070 4f 11 36 3e bb 8b 1a bd 04 cb cc bd 07 e3 91 3d
       0.1778004 -0.037730914 -0.0999966 0.0712338
000080 bc a8 39 3e d7 a4 8c bd 82 57 a8 bd 71 38 27 3d
       0.18130773 -0.06867378 -0.08219816 0.04082531
000090 fd c8 25 bd 4e 81 bd 3d 39 54 4c 3c d5 ac 8e 3d
       -0.04047488 0.092531785 0.012471252 0.06966559
0000a0 c1 fd 8f bd 00 de 32 3e de 1a 88 bd c7 c1 f0 3c
       -0.070308216 0.17467499 -0.066457495 0.029389275
0000b0 c1 7f 33 3c f7 fe 5a bd 9c 7c 9a bd a4 a4 e2 bd
       0.010955752 -0.05346581 -0.075432986 -0.11066559
0000c0 69 03 1c 3d ac 0f b2 3d 5f b5 e7 bd b2 38 b2 3d
       0.03808919 0.086943954 -0.11313891 0.0870222
0000d0 91 3e 80 3b d7 60 e7 bc 0f b9 e5 bd 77 a0 94 bd
       0.0039137085 -0.028244419 -0.11216938 -0.07257169
0000e0 30 f7 0d be 95 0f cf 3d 26 44 97 3d d4 68 e6 3d
       -0.13863826 0.10110394 0.07386045 0.11250463
0000f0 54 ae 07 bb bb 6b 97 bd cd 15 23 bd 8b 76 9b 3d
       -0.0020703273 -0.07393595 -0.039815713 0.0759097
000100 e6 e7 04 3e 00 75 9a bc 6e 6b bb bd 60 67 b1 3d
       0.12979087 -0.018854618 -0.0915135 0.08662295
000110 39 c1 ce bd c6 18 8d 3c a5 dc ac bc ac 1f ce 3d
       -0.10095448 0.017223727 -0.021101305 0.10064635
000120 64 2b 05 bd 70 0a 7b 3c 42 ca 77 3d 95 b4 c2 bc
       -0.032512084 0.015322313 0.060495622 -0.023767749
000130 37 09 a2 bd d6 f1 22 3e c7 95 57 3e 0a 62 54 bd
       -0.07911914 0.15912566 0.2105323 -0.05185131
000140 a7 6e 8c 3b df d5 d6 bd 0e ab c4 3d 81 bf 30 bd
       0.0042856517 -0.104900114 0.096029386 -0.043151382

fc3.weight f4 [64, 84]
000000 a4 1f 07 3e 08 2b fa 3c c9 71 8e 3e c6 45 38 be
       0.13195664 0.030538097 0.27821186 -0.17995366
000010 1f df 08 be 6c b5 20 3e ed ab 48 be 3f 79 4b 3c
       -0.13366364 0.15694207 -0.19596834 0.012419044
000020 e8 06 96 3e bc c7 db bd ba 79 84 bd a5 79 91 bd
       0.29302144 -0.10731456 -0.0646853 -0.0710328
000030 b8 65 b9 3c a6 c6 ef 3a ac d5 b4 bd cd ff ee bd
       0.022631511 0.0018293455 -0.08829817 -0.11669884
000040 e9 3e 56 be 03 e7 ad 3d 52 1c 24 be f6 e8 45 be
       -0.20922436 0.084913276 -0.16026428 -0.19327149
000050 8c 00 62 bd c5 88 46 3e 0c d6 ad b8 62 b2 2a bd
       -0.055176303 0.19388111 -8.289152e-05 -0.041674025
000060 d4 f8 d8 3d a1 fb 1d bd e6 33 96 bc 1a fa 59 be
       0.10594335 -0.03857005 -0.018335294 -0.21286812
000070 79 42 48 be 78 d7 a3 3d ad d5 44 bd d6 37 4a bb
       -0.19556607 0.08000082 -0.04805534 -0.0030856035
000080 2d e8 d9 bd be 59 5d bc 19 53 02 3e 7c a6 63 3c
       -0.10639987 -0.013510166 0.12727012 0.013894673
000090 c3 90 e9 3d 7b 17 78 3d 8e c6 0e be 0b dd 28 be
       0.11404564 0.060569268 -0.1394293 -0.16490571
0000a0 94 dd 05 3d 5a 07 9c 3b c3 64 db 3d 84 5f 2c be
       0.032682016 0.0047616186 0.10712578 -0.16833311
0000b0 bf 6a 98 3d 55 5f 4a bd d7 5b 1f 3e 4d 21 42 bd
       0.07442235 -0.049407322 0.15562378 -0.04739504
0000c0 af 15 cb bd 8e 46 0e be 81 28 26 3e fe 42 3f 3e
       -0.09916245 -0.13894102 0.16226389 0.18677899
0000d0 ad be 49 be 91 ee 55 bd e0 98 dd 3d 7e 82 70 3d
       -0.19701643 -0.052229468 0.10820174 0.058718197
0000e0 6d c1 06 3d 55 a5 95 bd 28 d7 09 be 7b 6a 87 3d
       0.03289931 -0.07306925 -0.13460982 0.066121064
0000f0 31 4a 3a 3e c5 b7 3d be aa eb 39 3e 39 2d e9 3d
       0.18192364 -0.18527134 0.18156305 0.11385579
000100 b4 b0 22 be e2 34 fb 3d a5 b9 6f be 8b b9 1b be
       -0.1588772 0.12265946 -0.23410662 -0.15207498
000110 ef a9 b2 3c 5d f8 1e 3c 7a e3 bc 3c c9 f5 2a be
       0.021809546 0.009702769 0.023057688 -0.16695322
000120 4e 1c 9e bb 88 ad 9e bd ff 2c fc 3d 1d 55 99 3d
       -0.0048251515 -0.07747942 0.1231327 0.07486937
000130 11 f9 4c bc 10 5a 13 bd cb d1 53 bd 7c 9e 22 3d
       -0.012510554 -0.035974562 -0.051713746 0.039701924
000140 ec 42 88 3e f7 45 7b 3d b3 00 9a 3c 8d da a7 bd
       0.26613557 0.06134602 0.018799162 -0.08195982
000150 51 73 b9 3d 67 b9 61 3d 1e 39 32 bd 24 30 c0 bc
       0.09055198 0.055108454 -0.043511502 -0.023460455
000160 ec da 2b be f2 24 32 3d 48 9a c1 bc 39 5f 72 bc
       -0.16782731 0.043492265 -0.023633137 -0.014793211
000170 91 bf 1a 3e a0 e9 d9 bd ae e2 0e 3d 1d fb e1 3d
       0.1511214 -0.106402636 0.034884147 0.11034224
000180 d5 9d 7a bd 88 5b 40 be df e0 22 3e 12 96 1d 3d
       -0.061185677 -0.18784916 0.15906094 0.038473196
000190 3e d8 93 3e ec d2 34 bd 42 3e 50 be 54 20 92 3d
       0.28875917 -0.044146463 -0.2033625 0.07135072
0001a0 7c f7 b1 3d f1 49 de bd 14 a5 2c 3d 05 06 d8 bc
       0.08689782 -0.10853947 0.04214962 -0.026370058
0001b0 02 09 22 3e ec 6b 0d 3e 81 c9 85 3c 7a 5c a2 be
       0.15823749 0.138107 0.016331436 -0.3171118
0001c0 fa 88 42 bd 20 15 26 be c3 20 c8 b9 78 d3 9e 3d
       -0.047493912 -0.16218996 -0.00038171382 0.07755178
0001d0 60 4e 61 3e 85 b6 8b bd 83 53 c2 3d 4f 88 5e 3e
       0.22002554 -0.06821922 0.09488585 0.21731685
0001e0 50 3d 80 3e 53 50 66 3e d1 76 94 3d 2a 74 93 3c
       0.25046778 0.22491579 0.07249225 0.017999727
0001f0 31 33 11 be 79 48 97 bd 99 f4 50 bd 6a 2f 4e be
       -0.14179684 -0.0738687 -0.051014517 -0.20135275
000200 5c f9 b9 3b 71 24 4c be cf cc 3e be a0 07 05 bc
       0.005675478 -0.19935776 -0.18632816 -0.008119494
000210 c1 45 12 3e 0e 15 22 3e a0 c2 1b bd 0c 3d d4 3d
       0.14284422 0.15828344 -0.038027406 0.10363206
000220 b6 9d 99 be da 75 37 be 35 5d fe bd 1e 1d a1 bd
       -0.30003136 -0.1791605 -0.124201216 -0.07866882
000230 cc 93 9a bd 0a d2 65 3e 0e dc 97 be ae 34 54 3e
       -0.07547721 0.22443405 -0.29660076 0.2072322
000240 6a 57 58 be 66 cb bd bd 0f 1c 48 be db 0b d0 3d
       -0.21127096 -0.09267311 -0.19541954 0.10158511
000250 d3 a3 e4 3b 23 aa 1b 3d 06 ab e4 bd b0 92 1e be
       0.006977537 0.038004052 -0.11165433 -0.15485644
000260 e3 1d ce bd 88 d0 5d be 43 5c 8e 3d 17 5a 57 bd
       -0.10064294 -0.2166158 0.06951191 -0.05257615
000270 76 81 77 bd f4 6d 26 be 31 2d 00 be af 88 10 bd
       -0.060426198 -0.16252881 -0.12517239 -0.0352866
000280 f5 91 fa bd a8 9d f2 bd 4a cc 66 bb 6b f9 2c 3e
       -0.1223487 -0.11846477 -0.003521698 0.1689202
000290 cb 11 3e 3e db 27 71 3e c1 34 2b be 32 f8 9d bb
       0.18561475 0.2355036 -0.16719343 -0.004820847
0002a0 46 34 cd 3c a6 85 28 be 89 17 4b be 69 53 8b 3d
       0.02504934 -0.16457233 -0.19833197 0.068030186
0002b0 94 09 5f 3e ac a4 22 3e f9 75 69 3e c6 1a 81 bc
       0.21780998 0.1588313 0.22798909 -0.015759837
0002c0 06 88 0f be c0 9d a3 3d 91 80 fc ba c6 8a e9 3d
       -0.14016733 0.07989073 -0.001926439 0.11403422
0002d0 8b 99 f8 3c 49 d4 71 3d 6b 2c dc bd 36 77 66 3e
       0.030346652 0.05904034 -0.107506596 0.22506413
0002e0 e4 64 87 3d 59 e9 13 3d 65 b2 91 3d c1 35 d0 3d
       0.0661104 0.03611121 0.07114104 0.10166503
0002f0 97 b1 ba 3d f0 0b 9f bd 49 03 b0 bc 29 9f 38 3d
       0.09115904 -0.07765949 -0.021485941 0.045073662
000300 5a 12 72 bd 24 4c fe 3d 6b 10 ac bb 12 d3 7c 3e
       -0.059099533 0.124168664 -0.0052509806 0.24689892
000310 4d ce eb bc ca 2e 4a be 19 01 28 3d ee f6 2e be
       -0.028784895 -0.19744411 0.04101667 -0.17086384
000320 a9 c9 74 bd 6d 2d 15 3d 18 13 80 be 49 bc a4 bd
       -0.05976263 0.036420275 -0.25014567 -0.08043725
000330 15 34 37 bc 72 0d 72 3d 33 63 b0 3b 0b 4e 53 bb
       -0.011181851 0.059094854 0.005382919 -0.0032242562
000340 94 65 b9 bd 00 44 d1 bd 5f 8f b0 bb 1f b4 ef 3d
       -0.090525776 -0.10218048 -0.005388185 0.11704277
000350 ed 0a 91 bd 4b bc 9a 3d 7f 00 89 3c 1d 9c 26 bd
       -0.07082162 0.07555445 0.01672387 -0.040676225
000360 a2 b0 0c 3d de 49 09 be cb 66 4e bd 8f 3f f7 3c
       0.034348138 -0.13407084 -0.050391 0.030181674
000370 e8 e5 98 3d 6b a1 b8 3d a5 41 7a bd 8d cd 6e 3b
       0.07465726 0.09015163 -0.06109776 0.0036438436
000380 fd 5e a9 3d 20 20 55 bd 5f 64 2d 3e 06 25 07 bd
       0.08270071 -0.05203259 0.1693282 -0.032994293
000390 58 d8 fc bc a2 3b 00 bd 7f 6e 56 3d ac 88 b8 3d
       -0.03086488 -0.03130687 0.05235147 0.09010443
0003a0 68 aa 20 3e b1 67 4d be e5 42 25 3e 7c c6 96 3d
       0.15690005 -0.20059086 0.161388 0.07362077
0003b0 13 0c dc bc 6f 68 27 3e 54 00 1c bc f0 a9 18 3e
       -0.026861226 0.16348432 -0.009521563 0.14908576
0003c0 a1 fb 36 bd 7d 73 71 be cb 26 6d bd 8e 80 56 bd
       -0.044673566 -0.23579212 -0.057898324 -0.052368693
0003d0 86 cf 62 3d 13 22 0e 3e 86 92 ff bd 50 bb 9f bd
       0.05537369 0.13880186 -0.12479119 -0.07799399
0003e0 ba 86 6e be 82 e4 f6 bd 7d e0 92 3c 4c 84 3b 3e
       -0.23293582 -0.12055303 0.01792931 0.18312186
0003f0 9c 96 3c bd 6a 84 9b 3e 8b 71 93 3e b4 cb 0d 3e
       -0.04604207 0.3037446 0.28797564 0.13847238

fc3.bias f4 [64]
000000 b5 5b 57 bc 53 b3 52 bb 1e bf 08 3e 70 53 c3 bd
       -0.013144423 -0.0032150343 0.13354155 -0.09537399
000010 60 0d 10 be 8c f7 d8 bd b6 74 9b bc 70 b5 51 3c
       -0.14067602 -0.10594091 -0.01897655 0.012799606
000020 15 31 76 bd 29 de 13 3e 90 aa c5 3c c3 08 c0 bd
       -0.060105402 0.14440216 0.024129182 -0.09376671
000030 61 42 2a be ed dd b9 3c 72 63 34 3d 06 38 4a 3d
       -0.16626884 0.02268883 0.04404015 0.049369834
000040 47 38 ac 3a 07 77 9f bd 32 84 4e 3e 16 78 d9 3d
       0.001313933 -0.077863745 0.20167616 0.10618608
000050 6a 7f 3f 3e a4 a5 43 3d b2 4e a9 3d 4f c9 bc bd
       0.18700948 0.04776539 0.08266963 -0.09218084
000060 d3 00 54 3d 9f b9 2c bd e7 0b ba bc 5c 4f a2 3d
       0.0517586 -0.04216921 -0.022710754 0.07925293
000070 f9 58 30 3d 20 2d 29 bd 68 7a 59 3d 67 bd f6 bc
       0.0430536 -0.0413028 0.05309525 -0.030119611
000080 d8 7d 4c 3c 52 0c 99 3d ec 39 b6 bd 16 20 88 3d
       0.012481175 0.07473053 -0.088977665 0.06646745
000090 7f cf f4 3c dd b8 17 bd cc a5 ff 3d d5 d1 61 bd
       0.029884098 -0.037041534 0.12482795 -0.055131752
0000a0 91 dd cc 3d a3 91 ee bd 2e 6f 81 bd 02 cf 2c 3e
       0.10003198 -0.11648872 -0.06320034 0.16875842
0000b0 1f d3 11 3d 55 d5 1a 3d 43 4c 38 bd 04 9c 06 be
       0.03560173 0.037801106 -0.044994604 -0.13145453
0000c0 b4 32 d3 bd c8 78 e0 bd b0 be 96 3d 58 b1 bf bd
       -0.10312405 -0.10960537 0.073605895 -0.093599975
0000d0 54 c7 0d 3d 4e 30 8b bc 1a 4b 4f bd 08 35 88 bd
       0.034613922 -0.016990807 -0.05060873 -0.0665074
0000e0 9c 50 53 3d 96 83 42 3d ce 9a 1c 3e fb 9f 16 be
       0.051590547 0.04748877 0.15293428 -0.14709465
0000f0 f4 11 e8 bd 3e 7c 90 bd 0d 14 18 bb a7 42 5e bd
       -0.11331549 -0.07054947 -0.002320531 -0.054262783
